results/LevelGen_PPO_RS_001/LevelGeneration/LevelGeneration-499997.onnx (onnx, 286641 bytes, 6 tensors)

action_model._discrete_distribution.branches.0.bias f4 [4]
00000000: bb98 73bd 9576 d13d 0ce5 87bc f1c7 32bd
-0.059471827 0.10227696 -0.01658871 -0.04364771

action_model._discrete_distribution.branches.0.weight f4 [4, 256]
00000000: 451f b53c b692 3c3d e19c 613d ddc1 2e3d
00000010: 9ab6 803d 9c9a 09bd 2300 5cbc 7896 1c3d
00000020: b6a6 46bd f951 3ebd 7d5a 04bd bbb8 a53d
00000030: e20a 673d 727a 973c 33be 933c 1c7e 873c
00000040: 8e43 0e3e b0d1 c43d 669e 16bc 380b 0bbd
00000050: 9d9f 2b3d 5b05 a33d 0b05 e03d 831b 4c3c
00000060: 6711 1a3d 702f 353d ea8a 413d cd7e 2f3d
00000070: f630 873d a9f2 a9ba 0cd1 453d 4682 a23d
00000080: 3e8d 703d 4354 a83d 40d0 fc3c ae04 093d
00000090: 4527 95bc 7511 063b 70bf 86bd c64c 333d
000000a0: d670 3c3d 7142 473d d672 443d 602c 42bd
000000b0: d4ce d93c 8969 5d3d 6a35 803d ba99 d2bb
000000c0: 28bb f63c 2fc8 80ba d0bd c13c 3dff 7f3d
000000d0: 5474 e33c ea08 373d 35a1 383d 16d4 0a3d
000000e0: 73eb d93c 0900 583d ecf7 0b3d 49da 813c
000000f0: 9dbc 013d 1817 203d 414a a13d 81c0 df3d
00000100: e751 b33c 0f2e 9f3d ba96 a7bd d06a 853d
00000110: 2c68 353c 56dd a03d 0372 e13c 6cad f23a
00000120: e4c8 2b3e 8b08 a93d ed06 9abd ab31 32bc
00000130: 7d89 473d 92e7 4f3d 7483 5c3d 9116 1ebd
00000140: 1df4 1c3c 69ad 053c 43cf ef3c b314 863d
00000150: 8de7 083e e744 6c3d 569b 81bd 2bcc da3c
00000160: f90a ffba e694 c33c 9bf9 743c 2eec b33c
00000170: c805 973b a6ad 003d b7e0 263d a113 dd3d
00000180: e629 a7bb 5000 0a3e 7d2f 333d 831d 143c
00000190: aa0c 3a3c 3b07 923c 741b 853d b621 de3c
000001a0: a9ce 01bd 773f b13d 9e65 333c e14b 553d
000001b0: 4ff2 f03d 05c3 ae3d a6ef febc ef80 ec3c
000001c0: d368 8e3d ee4b 093d d03a 263d 32cd 953c
000001d0: 9fd3 fa3d c573 1b3d 0acc 073e ae50 603d
000001e0: 09f5 553d 2cb9 513d 2677 eb3c 7ddd 183d
000001f0: 1781 083c aaca 8d3d 2391 323d a744 8d3c
00000200: c729 8a3d 14d2 933d 58de ec3d 5f41 323d
00000210: de61 253d 84e6 b13c 55f7 b33c b4f5 c13c
00000220: 653e 843d 48fe 043b 1565 803d f39d 473d
00000230: 92a5 a23d a0e1 c73c c217 473d 7b3c cb3c
00000240: 621e 123d 4777 b33d 6e4a 053e 337b e33c
00000250: 4387 013c 2b1e b73b 2bb7 0a3d f9d8 083d
00000260: 18af 443d 1847 28bd 1a9a dd3b 01f1 b23d
00000270: 55a8 ec3d c6b3 283d 78a3 aa3d c600 003c
00000280: 79ad ac3c 1077 1fbd b2a5 24bd 655c 2e3d
00000290: 836a b7ba 8534 8b3c 42de 043e 235a 353c
000002a0: 200c c33b c862 e03d a7ce 3b3d 1c46 c93c
000002b0: b993 503d cb77 ecbb d788 253d 1d2a c13d
000002c0: e82d b6bc dda0 59bd 8f1f 223d ebfe fd3b
000002d0: 838d aa3c a1ee 5c3d bd99 b53b 842c 5b3d
000002e0: e742 7b3d c43b 723d 1f99 0e3e f65b 843d
000002f0: 98a7 84bc cda3 873d 1ff9 ab3c f9b2 023d
00000300: 45fa 583d 13b4 2c3d b151 85bd 17de c43d
00000310: b249 643d 1caf 773d 66d1 1a3e edbe 653d
00000320: b4e0 f53d ddc5 dc3d 4895 123d 2682 33bd
00000330: 8faf 823c b415 8b3c 9c03 803d 04bb a83d
00000340: fc7e 9b3d 8c29 f23c 023c e73c 5172 233c
00000350: 0a21 203c 7553 8ebc 93e1 53bc 3941 273d
00000360: ef9a 96bc b5c8 9a3d c7b9 acbb 5f2a 653d
00000370: 40ac 5f3d f3a4 c43d 2c54 913d 6096 663d
00000380: ea48 fd3d 13be 1f3e 6cc1 633d 7a86 4a3d
00000390: 081d 3d3d f084 0e3e bac0 c23c 6939 0a3d
000003a0: 9b89 8b3a af82 953d 3263 0d3e cb04 183d
000003b0: 8acc 2bbd 0f7e 103d b694 2a3d 80c1 ff3c
000003c0: bd9f 333d ef87 e33d 1fd8 603d 0b4b f83b
000003d0: 4762 a33c 0f27 cb3d c5bc 0d3d ba58 b83a
000003e0: 0643 513c ce75 833d 0892 6fbd 17e5 b1bd
000003f0: 5a6e 9ab9 af9c 4c3d b0ee 993d 90cc 193e
0.022109637 0.046038352 0.055081252 0.04266535 0.062848285 -0.033594713 -0.013427767 0.038229436
-0.04849883 -0.046464894 -0.03231286 0.08091875 0.056406863 0.018491004 0.01803503 0.016539626
0.13892958 0.09610307 -0.009193039 -0.033946246 0.041900266 0.07960006 0.10938462 0.012457731
0.037614252 0.044234693 0.04725162 0.042845536 0.066011354 -0.0012965995 0.048295066 0.07935004
0.05872845 0.08219197 0.03086102 0.03345173 -0.018207202 0.0020457183 -0.065794826 0.04377439
0.046006046 0.048647348 0.04796108 -0.0474056 0.026587881 0.054055724 0.06260188 -0.006427017
0.03011854 -0.0009825284 0.02365008 0.062499274 0.02776543 0.044686235 0.045075614 0.033893667
0.026601529 0.05273441 0.034171984 0.015851157 0.031674016 0.039084524 0.07875491 0.10925389
0.02188964 0.07772457 -0.08183046 0.065145135 0.0110722 0.078547165 0.027520185 0.0018514819
0.16775852 0.082535826 -0.07520852 -0.0108761 0.048715103 0.050757952 0.0538363 -0.03859574
0.0095796855 0.00815902 0.029273635 0.06546917 0.1336958 0.057682898 -0.06328456 0.026708683
-0.0019458226 0.023874711 0.014952089 0.021963205 0.0046088435 0.031415604 0.04074165 0.107947595
-0.00510143 0.13476682 0.04374646 0.009040239 0.011355558 0.017825713 0.06499377 0.027115684
-0.031691227 0.08654683 0.01094952 0.052074317 0.11764967 0.08533291 -0.031120133 0.028870074
0.069535874 0.033519678 0.04058343 0.018286321 0.12247395 0.037952203 0.13261428 0.054764442
0.052235637 0.051201984 0.028743338 0.037320603 0.008331559 0.06923421 0.043595444 0.01724465
0.0674625 0.072178036 0.11565846 0.043519374 0.040376537 0.021716364 0.021968523 0.02367673
0.06457213 0.0020293165 0.0626928 0.048734616 0.07941736 0.024399579 0.04860664 0.024809113
0.035673507 0.08762985 0.13016674 0.027768707 0.007905784 0.005588313 0.03386609 0.033410046
0.048018545 -0.041083425 0.006762755 0.08737374 0.11555544 0.04118707 0.083319604 0.007812684
0.021078812 -0.038931906 -0.040197082 0.042568583 -0.0013993535 0.016992817 0.1297541 0.011068854
0.005952373 0.10956341 0.045851376 0.024569564 0.05092213 -0.007216429 0.040413704 0.094318606
-0.022238687 -0.053131927 0.039580878 0.007751336 0.020819431 0.05393851 0.0055420087 0.05350925
0.0613431 0.05913903 0.13925599 0.06462853 -0.016193196 0.066230394 0.020992814 0.031908963
0.05297305 0.04216392 -0.06509722 0.09612673 0.055734344 0.06046973 0.15118942 0.056090284
0.12005749 0.10779927 0.035786897 -0.04382529 0.015952853 0.016978122 0.062506884 0.082387954
0.0759258 0.029560827 0.028226856 0.009975986 0.009773502 -0.01737378 -0.012932199 0.040833686
-0.018384425 0.07557813 -0.00527117 0.05594861 0.05460763 0.09601774 0.07096133 0.056295753
0.12367423 0.15599851 0.055604383 0.049444653 0.046170264 0.13917899 0.02377354 0.033746157
0.0010645868 0.073003165 0.13807371 0.037113946 -0.04194311 0.03527647 0.041645728 0.031220198
0.04385351 0.11109912 0.05489361 0.007577305 0.019944323 0.09919559 0.034603853 0.0014064529
0.012772327 0.06418954 -0.058488876 -0.086862735 -0.00029455387 0.049954113 0.07516229 0.1501944

network_body._body_endoder.seq_layers.0.bias f4 [256]
00000000: 4676 af3c b889 b5bb 5bce 173d bf48 9f3c
00000010: a846 a93c 5cc2 75bd f9fa ebbb 675d 4abd
00000020: 6fc5 a63c e611 28bd 09eb 45bb e0f7 af3c
00000030: a63c ae3c e03d b3bd 023d 84bd 2e70 48ba
00000040: ee0f b8bd 3ee0 50bd 6bd5 96bd cbbd 52b9
00000050: dccd 0a3d 66f6 18bd 4132 ba3b e250 723c
00000060: b5c1 ccbd ddde 69bd 44da 55bd 9975 94bc
00000070: e556 00bd e919 05bd 5048 c0bd d876 563c
00000080: 9bb6 633d e7d8 d4ba 21b9 9fbd dfca 8ebd
00000090: b57d 393d 39b1 23bd 5dbb 663c 662c 623b
000000a0: f7fc 93bd c6ad 16bd 356f 89bd fbb4 3a3c
000000b0: bb52 24be 9b38 96bd 4620 11bd 50f4 99bd
000000c0: c513 3cbd a5f6 5ebd 5b8b c53c 2feb e0bd
000000d0: de50 c9bd 408b 11bc 7d74 13bd b4a6 c1bc
000000e0: d876 20bd 7fae ccbd 0e7a ef3c 935e a1b9
000000f0: 9bd2 2fbd 332e 293d 2a17 92bb 498e f1bc
00000100: d897 7d39 1731 603d a47b cdbd 6856 2839
00000110: 3003 ccbd cab1 98bd 9cae 80bd cac8 93bd
00000120: 65bc 58bd a542 99bd 1902 403c 90d6 39bc
00000130: 78bb 623d 3a9f 4fbd e571 61bd 8b07 97bd
00000140: 5fb4 98bd 8e42 5ebd 90c8 d8bb 5848 97bd
00000150: 2809 02bc 43ee 83bd fe95 07be 593d 4bbd
00000160: f426 bfbc 0582 b0bb 9510 0dbb 061c 9abb
00000170: d874 92bd 1c98 713b 4a3c 93bd 0bc0 483d
00000180: a85e 8abd 1151 91bd 0cdb c2bc 6b19 443d
00000190: 4099 993d 9507 a53d b470 c9bc 85cd e2bd
000001a0: f069 c3bd 1195 523c a57d d73c c0c8 b9bc
000001b0: d870 113d 39ca e4bd 8bca fbbd b6b0 a43b
000001c0: ea7d 3bbd 5611 fcbb 5ed6 7abc 13eb cabc
000001d0: 7c52 21bd 1e6f e93a 9f50 51bd 8454 ab3d
000001e0: de4b 2dbd 1551 c93d 4372 92bd 2e82 cdbd
000001f0: 802c 1d3d 5e86 e9bc ae26 1bbd f8c5 1a3d
00000200: d6c1 93bd f3f0 bcbd 76d4 5e3d 780f 373d
00000210: 1847 80bd ac6c ad3c 4b7e 903d 4d1f 213d
00000220: 0c54 71bd 3a6d f2bc 33c6 dbbb 77a0 803d
00000230: a541 c5bd 95d5 a5bd f726 7f3c 1657 05bc
00000240: 4def ae3c bf25 5fbd b3bf 4bbd 6655 843b
00000250: 6e9f 4abd d010 e63d 16c7 e83c 6dbb d3bc
00000260: 78c2 5abc 0b93 90bc 5f57 76bd 9bfc 84bd
00000270: 8c20 02be 7203 69bd f8bb 8f3d 3fb8 42bd
00000280: 90e1 7ebd bb57 2b3c 3cb2 3d3c 3fb0 00be
00000290: 39ba ae3c 154c 2c3d 6cae 94bd 1ca5 9f3d
000002a0: 0330 c13c e138 c2bc 22d2 babb 5f83 76bd
000002b0: 9621 3dbc 9981 24bd 11d4 a7bd 291d adbd
000002c0: d357 3dbd 1bdc 4fbd 5ebf 32bd a595 3bbc
000002d0: 29e2 9abd 5435 b03b ff3b 72bd 4854 5a3d
000002e0: d384 b4bd ab12 c7bc b59d 88bd 6ecc b0bd
000002f0: 673e bcbd 5e64 62bd 6a90 053d e5c1 75bd
00000300: 2b21 9ebd eda4 65bd 298c 9bbd eeb7 89bd
00000310: f279 8e3d 1afb dd3a 70db 9d3d 1dd8 8bbd
00000320: 1090 afbd 5b15 d13d 386c 60bd 7b9f c6bd
00000330: 356e ccbd fd6c 89bd a4f4 123c e22a 2d3d
00000340: 0426 5d3d 0b2a e7bd 7ee9 82bc 6d62 2fbd
00000350: d597 43bd 5895 c7bd 8b1b b7bd 8bae 98bd
00000360: a75d 1ebc 0109 2e3d c199 33bd 6acf 803b
00000370: f8e2 5e3d 8ae2 38ba c46f 8bbc 7327 33bd
00000380: 859c 2fbd 06f9 09bd 1d9f 18bd 7398 dabc
00000390: 03b2 b0bd fd54 46bb 5b02 8bbd 9801 623b
000003a0: 51a3 b73c 67c3 3b3d 7cfc a83b ebd6 bbbd
000003b0: 4e23 e3bc 7e32 2bbd f41d 6cbd 07f3 59bd
000003c0: 88fb 1abd 2c06 1d3d 00c5 5ebc d777 80bc
000003d0: d0c8 dfbc 546a 76bd ab39 8ebd dfcf 8cbd
000003e0: cd71 093d c80a 063d fc3c 88bb 0e55 8cbd
000003f0: d223 26bd 7cc5 a4bd 2668 8cbd e040 1fbc
0.021418702 -0.005540099 0.03706203 0.019443868 0.020663574 -0.05999981 -0.007201549 -0.04940548
0.020357816 -0.041032694 -0.0030199906 0.0214805 0.021269154 -0.08752036 -0.06456949 -0.00076461106
-0.08987413 -0.050995104 -0.07364925 -0.00020097864 0.03388773 -0.03734436 0.0056822603 0.014789792
-0.09997884 -0.057097305 -0.052210107 -0.018122481 -0.03133287 -0.032495413 -0.093887925 0.013089858
0.055594068 -0.0016238958 -0.077989824 -0.06972288 0.0452859 -0.039963935 0.014082757 0.0034511327
-0.072259836 -0.036786817 -0.06710664 0.011395688 -0.16047184 -0.073350154 -0.03543117 -0.07517302
-0.04591729 -0.054434437 0.024114301 -0.10982358 -0.09829877 -0.008883297 -0.035999764 -0.02363906
-0.03917584 -0.0999422 0.029233005 -0.00030778776 -0.04292546 0.041303825 -0.004458328 -0.029486792
0.00024184526 0.054734316 -0.10033348 0.00016053917 -0.099615455 -0.074557856 -0.06283304 -0.07216032
-0.052914042 -0.074834146 0.01171925 -0.01134266 0.055354565 -0.05068896 -0.05504026 -0.073744856
-0.07456278 -0.05426269 -0.006615706 -0.07386845 -0.007936753 -0.06441929 -0.13240811 -0.049619053
-0.023334004 -0.0053865933 -0.0021524776 -0.0047030477 -0.071511924 0.0036864346 -0.071892336 0.04901127
-0.067563355 -0.0709554 -0.02378609 0.047875803 0.07499933 0.08058087 -0.024589874 -0.11074356
-0.0954169 0.012852923 0.02630503 -0.022678733 0.035508007 -0.111713834 -0.122944914 0.0050259484
-0.045774378 -0.0076924963 -0.015309898 -0.024770295 -0.039385304 0.0017809605 -0.051102277 0.083657295
-0.04230868 0.09829918 -0.071507 -0.100345954 0.038372517 -0.028506454 -0.037878685 0.037786454
-0.07214706 -0.09225645 0.054401837 0.044692487 -0.0626356 0.021169983 0.070553385 0.03933649
-0.058918044 -0.029593099 -0.006706977 0.06280606 -0.09631661 -0.08097378 0.015573255 -0.008138439
0.021354342 -0.054479357 -0.049743365 0.0040385006 -0.04946845 0.112336755 0.028415244 -0.025846208
-0.013352029 -0.01764824 -0.060141917 -0.06493493 -0.12707728 -0.05688805 0.07018274 -0.047538992
-0.062226832 0.010457928 0.011578139 -0.12567233 0.021329032 0.042064745 -0.07259831 0.07795164
0.023582464 -0.023708763 -0.0057013193 -0.06018388 -0.011543652 -0.040162656 -0.08194745 -0.084528275
-0.046226334 -0.05074702 -0.043639533 -0.011449252 -0.07562668 0.005377451 -0.059139248 0.053303033
-0.08814397 -0.024300894 -0.06670705 -0.08632742 -0.0919159 -0.0552715 0.032608427 -0.059999365
-0.0772117 -0.05606549 -0.07595093 -0.06724535 0.06956853 0.0016935796 0.0770787 -0.0682833
-0.085723996 0.10209151 -0.054790705 -0.09698387 -0.09981958 -0.06710241 0.00896946 0.042277224
0.053991333 -0.11287316 -0.015980478 -0.042818476 -0.04775222 -0.09745282 -0.089408 -0.074551664
-0.009665883 0.042489056 -0.043847803 0.0039309757 0.054415673 -0.00070528 -0.017021067 -0.043738794
-0.042873878 -0.033684753 -0.037261117 -0.026684022 -0.08627703 -0.003026306 -0.06787559 0.0034485813
0.022416743 0.045840647 0.0051570516 -0.09171852 -0.027726796 -0.0417962 -0.057645753 -0.053210285
-0.037837535 0.038335964 -0.013596773 -0.015682144 -0.027317435 -0.060159996 -0.06944593 -0.06875586
0.033555795 0.032725126 -0.0041576605 -0.068521604 -0.040561505 -0.0804548 -0.06855802 -0.009720057

network_body._body_endoder.seq_layers.0.weight f4 [256, 16]
00000000: 0b3a 1abf 723d 353e f8f4 ddbe 3b24 bfbe
00000010: c196 dfbc 7f65 24bd bb29 b1bd bde1 2a3e
00000020: 9b2e cbba 1990 e0bd e949 633e 5c28 9abe
00000030: 8480 5cbe ce4b fcbd ca39 2ebe e9fd 693d
00000040: 03da f5bd 95d8 3d3e 6030 e63d 34da 77be
00000050: 15ef 60bd 4806 cbbe 116d 0dbc 6133 3abc
00000060: 34bf 643e d504 f93d be7f bdbc 4686 943e
00000070: c4dc 59bd 4312 7c3e 7749 20be 6120 f0bd
00000080: 140e 85be 7153 aebe 88fb 1b3d 4fcf ae3d
00000090: 2a7f 8e3e d9f5 f13d f7a8 513b 71fa d4bd
000000a0: a8df 46be e055 f8bd 8a7f 73be d75e 8dbc
000000b0: 9c79 cebd cced b43e fe10 dc3e af2b 003d
000000c0: a2f5 183e 3fcb ddbb df88 6cbd 6fbe 59be
000000d0: d4fe 45be f701 ec3e 78f2 e1bd 785f 2cbd
000000e0: 387d 5cbe 71aa 5cbe 98f1 843e 720a 373e
000000f0: 4dd4 81bd 3018 b73d 3af1 e6bb c51d 313d
00000100: 7a50 a2be 10c7 c2be 074d 4d3e 5706 7fbe
00000110: cfd4 abbd 935d 60be 600b c83d c2bd 7cbe
00000120: 1d27 3dbe 888b e4bd 4199 5e3e 5c73 25be
00000130: 4af7 ecbe 9cf2 bcbd b8e5 43be a4f9 d63d
00000140: 9dfc 8abd 60ed 7b3e 9271 2abe 0dfe cabd
00000150: 13b6 15bf 05e6 e23d ec99 61be d777 a6be
00000160: 76d0 183e c960 4abe 9e7e 76be 1792 99bc
00000170: 4afe c5bb ec4b 00be 7941 6cbe 0f28 5ebe
00000180: 3386 293d 236b 043f fc93 0f3e 0793 3dbe
00000190: cff7 1b3d aa09 4bbe fcc0 3d3e 56d4 25be
000001a0: 25da d53c 8657 833e 77a1 cd3d 60b2 f6be
000001b0: a40f 88be bf5f 06be 71b3 8d3d 9720 bebd
000001c0: b0bf 0fbe e8bc a3be 5208 f03d ed7d aabd
000001d0: 9071 adbd 531d bf3d 53ba d63d d344 383e
000001e0: 52d4 e83d f06d 27be df02 be3e 4818 893e
000001f0: 065d a83d eb01 a1be c982 033f ac1f d63e
00000200: 6b77 c13e 9e5b e53c faa6 49be 80d8 acbd
00000210: 2e1f 20be a3d2 d0bd 862a 24bf 85b6 26be
00000220: 3815 8d3d 9aa1 003e e049 dabd 180c e23d
00000230: 92ba edbb f307 123e ae65 c43e 7c1f 1abe
00000240: 422f ae3e 4e5e 84be 4867 e2bc c622 07be
00000250: 3a5c 0e3e d893 0f3d cd80 033f 04b7 323f
00000260: 3f2f ddbc aa63 a63d d4e7 babe 86fa 2cbe
00000270: be34 46be 090c a7be c9d9 e6be ba73 c0bc
00000280: 36c4 bfbd 656b bfbd b890 72be 430b 80be
00000290: 13bc ae3e 6e61 b8be ca29 b5bc 5899 edbd
000002a0: 36b3 dabe abd4 d9be fb8b bdbd 163c 11be
000002b0: ef28 42be 7491 0cbe 7e8b c83d 740e 823e
000002c0: dcde d2be b889 a2be 6916 153d 0de9 283f
000002d0: e68e a2bd d6a1 5d3e 4e30 2bbf f2d9 543d
000002e0: bf24 eebd 6c0f d63e 8846 923e b347 92be
000002f0: 33f4 cdbe 78c6 2b3e 3ac6 8f3e caa3 953e
00000300: de80 65be d610 84bd e5d1 64be 888b 93be
00000310: b7ea 9cbe d985 0d3e 24b0 143d e1f8 1b3f
00000320: 4c15 983d 7d7f c2bd df53 3dbd f796 24bf
00000330: 7890 093e f8d3 19be eb23 603e 0351 b63d
00000340: ca76 8e3d dd07 1fbe 75b8 06be c0b2 f8be
00000350: b7a2 8e3e 9bca 4ebe cdd8 86bc b12f 23be
00000360: 3c04 1b3e 16b2 4f3e a7e8 b83d ccd3 a73e
00000370: 84cd 623e 0cd0 25be 3d69 1e3e a7d6 fa3d
00000380: 1b69 133d f208 a73e 1307 cc3d bcb0 03bf
00000390: 109a 823b dd04 ccbc 089b c53e a930 f13e
000003a0: fcfd d9bd 3c69 f73e a763 043e e83a 92be
000003b0: dc28 363e c435 e3bd 30c2 963e 5cff d3be
000003c0: b6c4 9cbe f243 c8be 04b8 26bd 147e 3bbe
000003d0: 70f4 86be d1b7 153e 0180 8a3e 7a8f 9d3c
000003e0: 1c48 fa3d 79fb 103e 620c 69bd 7bc7 903d
000003f0: 4bc9 bbbe d3c6 0ebe 214a babd a99e 1e3e
-0.60244817 0.17699221 -0.4335096 -0.3733233 -0.027293565 -0.040135857 -0.086505376 0.16687675
-0.001550156 -0.109649844 0.22196163 -0.30108917 -0.215334 -0.12319146 -0.17014232 0.057126913
-0.12004473 0.1853965 0.112396955 -0.24204332 -0.054915506 -0.3965323 -0.0086319605 -0.011364789
0.22338563 0.12159125 -0.023132201 0.29008693 -0.053189054 0.24616341 -0.15653025 -0.11724926
-0.25987303 -0.34048036 0.038081676 0.08535635 0.27831393 0.1181447 0.003199158 -0.103993304
-0.19421256 -0.12125754 -0.23779121 -0.017257137 -0.10081789 0.35337675 0.42981714 0.03129166
0.14937451 -0.0067686136 -0.057747718 -0.21264051 -0.1933549 0.4609525 -0.11032575 -0.042083234
-0.21532142 -0.21549393 0.2596557 0.17875078 -0.06339321 0.0894016 -0.0070477994 0.04324128
-0.31702024 -0.38042498 0.20048915 -0.24904762 -0.083901994 -0.21910696 0.097677946 -0.24681762
-0.18471952 -0.11159426 0.21738149 -0.16157287 -0.46282417 -0.092259616 -0.191306 0.10496834
-0.067864634 0.2460227 -0.16644886 -0.099117376 -0.5848095 0.11079029 -0.22031373 -0.32513306
0.14923272 -0.19763483 -0.24071738 -0.018746419 -0.0060422765 -0.12528962 -0.23071851 -0.21694969
0.041387748 0.5172598 0.14021295 -0.18513118 0.038078126 -0.19827905 0.18530649 -0.16194281
0.026104996 0.25652713 0.100405626 -0.48182964 -0.26574433 -0.13122462 0.06918991 -0.0928356
-0.14037967 -0.31980062 0.11720337 -0.083248 -0.08468926 0.09331765 0.10484757 0.17995004
0.11368622 -0.16350532 0.37111565 0.26776338 0.08220868 -0.31446776 0.5137144 0.4182104
0.3778642 0.027997788 -0.19692603 -0.084397316 -0.15636894 -0.10196426 -0.64127386 -0.16280563
0.06888813 0.12561646 -0.10658622 0.11037463 -0.007254907 0.14260845 0.38358825 -0.15051073
0.3402043 -0.258532 -0.027637139 -0.13196859 0.13902369 0.035053104 0.5136841 0.6981051
-0.027000068 0.08124478 -0.36504996 -0.16892442 -0.19356057 -0.3262637 -0.45088032 -0.023492683
-0.09363596 -0.09346656 -0.23688018 -0.25008592 0.34127864 -0.36011833 -0.022114653 -0.116015136
-0.42714852 -0.42545065 -0.09255215 -0.14183077 -0.18960927 -0.13727361 0.09792231 0.25401652
-0.41185653 -0.31745696 0.036398325 0.6598061 -0.07937412 0.21643767 -0.6687058 0.05196566
-0.116281025 0.4180864 0.28569436 -0.28570327 -0.40225372 0.16774929 0.28080922 0.29226524
-0.2241244 -0.06448524 -0.22345693 -0.2881739 -0.30647823 0.1382059 0.036300793 0.60926634
0.07425937 -0.09496973 -0.046222564 -0.64292854 0.13434017 -0.15022266 0.21888702 0.089021705
0.06956251 -0.15530343 -0.13156302 -0.48573875 0.27858517 -0.20194475 -0.0164608 -0.15936162
0.15138334 0.20282778 0.0902875 0.32778776 0.2214871 -0.16192645 0.15469833 0.12247973
0.03598891 0.32624012 0.09962287 -0.5144155 0.003985651 -0.024904663 0.38594842 0.47107437
-0.10644147 0.48322475 0.1292864 -0.28560567 0.17789024 -0.11094239 0.29445028 -0.4140576
-0.3061883 -0.39114338 -0.040702835 -0.18309814 -0.26358366 0.14620902 0.27050784 0.019233454
0.12220785 0.14158429 -0.056896575 0.07069298 -0.36677012 -0.13943033 -0.0909617 0.15490212

network_body._body_endoder.seq_layers.2.bias f4 [256]
00000000: 8afd d83c 844c 7ebd db2e 16bd 479b cfbb
00000010: 3db6 fb3b 37ff 053c d749 853d 4ae0 393d
00000020: 7359 7e3d 9ce6 bd3b e95b eb3b c7af 43ba
00000030: 2c74 f639 0228 d1bc 31db f53b 4cae 8abc
00000040: d08e af3c 1296 ac3b 1468 7b3d 3716 2e3c
00000050: 29e5 d4b8 6e25 0dbb e0c4 8c3b 3978 673c
00000060: 5c5f b3bb 712d 0cbb 0538 26bd 1896 46bc
00000070: eb1e 803c 11ea 8cbc c5d3 17bd e160 f6bc
00000080: ced5 44bd 8913 efba 5d12 53bd 6726 383b
00000090: fe88 8cbb 6943 943d c10e 1f3d af4e d33c
000000a0: 9e63 21bd 4799 30bd ae1c f1bb 7af1 ab3c
000000b0: 0005 a43b d03c 32bd 9b71 453d 2206 683b
000000c0: 0df5 14bd aae5 7a3d da64 363c c357 b6bb
000000d0: 8b35 60bc 2872 4f3d c69f 25bd 2a3e 89bc
000000e0: df6c 6dbd 78f0 143d 9deb 3e3d 158d 84bd
000000f0: 3141 2fbd 0110 f8bc 2d12 30bc 1164 d3ba
00000100: 7c75 0cbc 1b53 363d b644 a73d 4f73 4bbc
00000110: c119 063d 6c46 a13b 059a 933d c8f4 b5bb
00000120: 2d24 0b3d 22cb 90bc 7981 b33c 2af8 1ebc
00000130: 7d09 fc3c e0d7 a03c 4346 373c 9ca5 ed3b
00000140: 4ee4 b6bb f08e 0d3d 381d 53bc 84b7 babb
00000150: 0a60 8e3c 6412 f9bc 46ea 343d bfa7 65bc
00000160: 8eb2 633c d960 22bd cb00 573d 2b0d 2a3d
00000170: 889c 923d 9bd3 663b 2337 173d d202 7e39
00000180: 0812 6b3d 54f9 e23c 505b 15bc bbf5 233d
00000190: 8bd1 d93c 9267 443d e457 563b b7fe 09bd
000001a0: 9f30 0b3d 3e26 8ebc 09a8 073d d444 4fbb
000001b0: 4920 2e3c 303a 2e3d 519d 913c 911f ffbc
000001c0: e0e0 a6bc 6f0c 9bbd ee51 e3bc aa29 fd3c
000001d0: 18c2 1c3c 3dd2 5fbd 672d 1b3c 50e0 d1bc
000001e0: 45a7 153c 5c3f b23c cdfd 4dbc 148c 8bbd
000001f0: 7db7 3bbb 378f 8abb cc3f 22bd 4033 923d
00000200: 451d c0ba c920 ffb9 1f69 cb3b 21fa ed3c
00000210: 3ae2 85bd cd62 953d 1921 633d 1593 03bd
00000220: 1b18 6abd 95a8 363c 4b6e 803c b751 143d
00000230: 4abd 413d 82e9 49bd 321c f1bc 2274 67ba
00000240: 66df 98bd 2ee0 a33b 9697 b03c e9cb 8fbc
00000250: f4b7 993c 920f b33d b4cb 203d 42cc 243b
00000260: 94db 193c bdca 9e3b 3d6a 36bd 6b75 82bc
00000270: 6448 f93c c287 2b3d d5f9 bebb de99 89ba
00000280: f17d 6cbc d615 2d3b 0639 d33c 4713 93bd
00000290: 08d3 ca3b 66ce 5dbc 10c7 f13c 49c6 7c3a
000002a0: 8861 4bbb 6e28 643b 64fd ec3b 357e 81bd
000002b0: 46e8 f8bc 558f a6ba 7637 32bd 1ae7 163d
000002c0: 893e 033c 51e9 d53b 80f5 5a3d 94bd a3bc
000002d0: 7ce8 3bbd 551e 4cbd e601 833c 445f 783c
000002e0: 9ec1 cc3c 9c86 a3bc fd98 153d f886 0cbc
000002f0: d383 0a3d 7768 b9bb 752e 62bc f69e 8b3b
00000300: c46d 09bd 9205 3b3d 3788 f03c b0fa 103c
00000310: 1fff 09bd 952c 6c3c 0b8e a43c 0c17 b23b
00000320: 1f93 ee3b 5963 973b 5ea8 50bd 5de9 5a3c
00000330: 8dfa 513d 0a86 56bc 6847 d0bc 29d5 6cbc
00000340: 3048 273c 620f 843d e9fb ffbc c19e df3c
00000350: 4d21 b7bb 431c 86b9 aa35 afbb b691 8e3c
00000360: 66cd e23a 9e63 11bc 135f c83d 0479 6b3c
00000370: 0652 173d 8961 723c 4e45 00bc f541 b9bc
00000380: 84a5 773b 36af af3c 83ad 023b 86d4 4cbd
00000390: ad46 84bc 0138 d73c eeff 3bbb 0061 45bd
000003a0: 6af7 18bd 7fec dcbb b0c0 5e3c e222 a0bc
000003b0: ec3d 643c b2f4 69bd 9db1 b9ba eac1 a03d
000003c0: 9329 36bd 05b9 c63b d809 27bd 4b29 6c3c
000003d0: 0bf6 d0bc 4176 103d 04a6 64bc 2d16 283b
000003e0: 9e8d 03bc 4c13 373c b19a 9d3b 1629 913d
000003f0: 99c9 a23d dd06 003d ede8 bfbb 2b69 6c3c
0.026488084 -0.06208469 -0.03666578 -0.006335649 0.0076816366 0.008178524 0.065082245 0.045379914
0.062097024 0.005795313 0.0071825874 -0.00074648525 0.0004700733 -0.025531773 0.0075029363 -0.016928814
0.021430403 0.005266913 0.061378554 0.010625414 -0.00010151632 -0.0021537202 0.0042959303 0.014127784
-0.005474014 -0.002138939 -0.04058077 -0.012120746 0.015639743 -0.017201455 -0.037067194 -0.030075492
-0.048055463 -0.0018240075 -0.051531184 0.0028099061 -0.0042887917 0.0723942 0.03883243 0.025794355
-0.039401643 -0.043114927 -0.007358155 0.020989168 0.005005479 -0.043515027 0.048204046 0.0035404046
-0.03636651 0.06125418 0.011132443 -0.005564661 -0.013684641 0.050645977 -0.040435575 -0.016753275
-0.057965156 0.03636214 0.046611417 -0.06472222 -0.04278678 -0.030281069 -0.010746521 -0.0016127845
-0.008572932 0.04451285 0.081674024 -0.012417628 0.032739405 0.004921725 0.07207111 -0.005552862
0.033970047 -0.017674986 0.021912323 -0.009702722 0.030766243 0.019634187 0.011186185 0.007252408
-0.0055814153 0.034560144 -0.012885384 -0.0056981463 0.01737978 -0.030404277 0.044168733 -0.014017045
0.013897551 -0.039643142 0.05249099 0.041516464 0.07158762 0.0035221342 0.036917817 0.00024224378
0.057390243 0.02770678 -0.009116009 0.04002927 0.026589176 0.047950335 0.0032706195 -0.03369018
0.033981916 -0.01735222 0.033119235 -0.0031626718 0.010627815 0.04253596 0.01777521 -0.031142982
-0.0203709 -0.07570731 -0.027749028 0.030903656 0.00956776 -0.05464386 0.009471274 -0.025619656
0.009134118 0.021758728 -0.012572718 -0.06813827 -0.0028643303 -0.0042284983 -0.039611623 0.071386814
-0.001465716 -0.00048661817 0.0062076 0.029049935 -0.0653729 0.072942354 0.055451486 -0.03212269
-0.057151895 0.0111485915 0.015677592 0.03621074 0.04729966 -0.049294956 -0.02943239 -0.0008829256
-0.07464485 0.0050010895 0.021556657 -0.017553287 0.018764473 0.08743204 0.039256766 0.0025146161
0.00939073 0.0048459456 -0.04453491 -0.01592513 0.030430026 0.041877516 -0.005828122 -0.0010498127
-0.014434324 0.002641072 0.025784027 -0.07181411 0.0061897077 -0.013537979 0.029513866 0.0009642584
-0.0031033475 0.0034814137 0.007232355 -0.063229 -0.030384194 -0.0012707511 -0.043509923 0.03684149
0.008010515 0.0065280576 0.053456783 -0.019987859 -0.04587601 -0.049833614 0.015992116 0.015159432
0.024994668 -0.019961648 0.036522854 -0.008577101 0.033817124 -0.005658205 -0.0138050215 0.004260893
-0.033551946 0.04565961 0.029361827 0.008848831 -0.033690568 0.014414926 0.020087263 0.0054348763
0.007280722 0.0046199975 -0.050941817 0.013361302 0.051264334 -0.013093481 -0.025424674 -0.014455118
0.010210082 0.064482465 -0.03124805 0.02729738 -0.0055886866 -0.00025579528 -0.0053469734 0.017403465
0.0017303645 -0.008873848 0.09783759 0.014372114 0.036943458 0.014793762 -0.0078290235 -0.022614459
0.0037787864 0.021445852 0.0019939847 -0.050007366 -0.016146982 0.026271822 -0.0028686482 -0.04818821
-0.037345327 -0.0067420597 0.013595745 -0.019547883 0.013930779 -0.057118125 -0.0014167313 0.07849486
-0.044473242 0.0060645365 -0.040780872 0.014414142 -0.025507947 0.035269026 -0.013955597 0.0025647983
-0.00802937 0.011174034 0.0048097004 0.07087915 0.07948608 0.031256545 -0.0058566243 0.014429371

network_body._body_endoder.seq_layers.2.weight f4 [256, 256]
00000000: ccfa a4bc e033 a63d 239d d93d 28de c73d
00000010: 1edc b7bd b9eb 123d 1d54 b33d 6ac3 aa3d
00000020: fcf9 b43d 3c33 e13d 8dba 23bd 9993 63bc
00000030: 4e03 5a3d e650 203e 05d1 2a3d c728 673d
00000040: c2b7 05bb a356 743d 0a33 69bd ae59 97bd
00000050: 318b 88bd 5bad 0a3d 1172 c5bc f658 0cbd
00000060: cf6c dbbc b48a 9cbd f038 323e 8c27 b7ba
00000070: 589c e43d a55c e53d 0f66 b83d 7da8 873d
00000080: c0ae eaba 1e35 ad3c 0bdd be3c f1dd 733e
00000090: 77e9 0dbe 8391 7bbd 1339 af3d 80b3 db3d
000000a0: fcf1 bebb fcf6 bbbc 3d41 303d 80f5 b0bd
000000b0: 7ea4 bd3d d1a2 ac3c fded 373c 3551 a3bd
000000c0: c82a 9a3c 16fe 833c d08d 44bd 0b44 813d
000000d0: c9df 8cbb 367d 053e 7638 f03d 3137 a63b
000000e0: fab8 193e 2702 853d bca7 633d 2220 8c3d
000000f0: 26f4 4a3e a170 053d 05bb 943c f1dd 18bb
00000100: 0c88 97bd e4e0 8abd c2f8 eebd 8ac6 47bd
00000110: 8f55 3d3d 954b 853d 9e2c bc3d b45b 963d
00000120: 0f7b 41bd 2280 bc3d 7575 1bbe 56dd 153e
00000130: 1ac3 e7bd af16 743c a1d4 b8bd fa30 4f3d
00000140: 719d d4bb 7ffd 2f3b 2670 323e 70b1 d93d
00000150: 6e09 0b3e 3bb9 3b3e 8ec0 c43c 5143 813d
00000160: 3c3f b6bc e31c a6bd a395 7c3e 4aad d33d
00000170: 6cc8 ba3d bba6 0f3e aca3 0dbc 145a 703d
00000180: 370d d6bc eb41 983d b42a a63c 6cb3 0fbe
00000190: 0415 573d b644 963d 1728 033d 9d0d b53d
000001a0: 364c 853d 0865 b43d df52 03bc ac7b dc3d
000001b0: 5446 153e 4b28 d1bc 0649 e13c 2f5d 1c3e
000001c0: dd1f 893d 1f5e 59bb 52d6 a13c 7743 923c
000001d0: 904d 1f3e 06e4 f5bd 0b44 d13d c65f 1c3d
000001e0: 8bb9 a73c 64ed d1bd 531a 31bd b602 023d
000001f0: f86e cd3d 97a8 483e eed6 4e3c 23ce e93d
00000200: f65c 0cbd 6f95 8a3d 0541 823c e7a0 febd
00000210: 192c d2bd f9c1 333d 770b 93bd e65d 4d3e
00000220: 1bcd 203e 835d 58bd 1f07 b1bc 6866 343d
00000230: 15df 073d 7b06 943c 3a49 7abd 1785 473d
00000240: c1d4 f7bd 7b0a f5bd 0cb2 8dbc b8f0 cbbc
00000250: b887 c7bd 485d 26be e559 00be 44a4 3c3e
00000260: a331 a13c f2f0 30bd f883 b43d 9bab 4abd
00000270: de72 633d f6ab a93d 5f3b 25bd 4bd3 e7bd
00000280: 8fae 66be 7cdd 963b 4dd9 863c dbbc a53d
00000290: 9923 a0bc 283e ff3b e274 c33d 80a4 433d
000002a0: a666 a03c fb05 d4bc 404f adbe 8b56 983d
000002b0: 8124 193e 71d3 f33c 9a8b 1ebd 2654 64bb
000002c0: 5bc4 8ebe 61e6 c6bd 75a9 983d 3224 fbbd
000002d0: 578b 1abd 1644 e23d cb62 493c 4bf0 813d
000002e0: 73fa f6bc 31d4 0ebc 426a 6f3d b5af f1bc
000002f0: 6224 e53d 9cda 193d 6d01 743b ac51 473b
00000300: 0dba aabb 29e0 41bd 8254 d33a 6831 243d
00000310: 5e9b f1bd 7ff3 8d3d 3bd3 f9bb 60bc a9bd
00000320: e0b5 5dbd ac2d 21bd 61ff d8bd 3031 593b
00000330: a91f f1bc ebda 52bb 0816 43be aeed 393c
00000340: 010c fa3c 1dea 7bbb 17be 16bd e8ce 47bd
00000350: ee08 983c bd84 2e3d 3575 89bc b85e fcbb
00000360: 2646 933c 1068 703d 5f11 8bbd 1879 edbc
00000370: d10d 14bd a27b ecbd a522 0b3e 3dba b33d
00000380: 1118 89bd a325 1a3e ea2d 3e3e f080 2bbd
00000390: 652c d8bd 9504 063d 284f 593d 3225 2f3d
000003a0: be12 083e 8076 e9bc fa32 dc3d 2fec 64be
000003b0: 668c 82bc d6d4 393d eb1f 073e 878f 0d3d
000003c0: 7bd9 e93d ef57 9fbc 5fdb 323e 821d b03d
000003d0: 41b3 5b3e 4232 53bd 3be5 893d f62e 48bc
000003e0: 2a62 a63c f8b3 6ebd 462e d4bd daee d63d
000003f0: 5a71 a7be d97f 6dbd 5e48 7e3d 61ed 0b3e
-0.02013912 0.08115363 0.106256746 0.0975917 -0.08977531 0.035869334 0.08756278 0.083380535
0.08836743 0.109961 -0.03997283 -0.0138901705 0.053225808 0.1565586 0.041703243 0.056435373
-0.0020403718 0.059652936 -0.05693344 -0.07390152 -0.06667174 0.03385673 -0.024102243 -0.034264527
-0.026785282 -0.07643643 0.17404532 -0.0013973578 0.11162633 0.11199311 0.09003841 0.066239335
-0.0017904863 0.021143492 0.02329876 0.23815133 -0.13858591 -0.061418068 0.08555808 0.10727596
-0.0058271866 -0.02294492 0.043030966 -0.086405754 0.0925989 0.02107373 0.011226174 -0.079744734
0.018819228 0.016112369 -0.047986805 0.06311806 -0.004299138 0.13036045 0.11729519 0.0050724973
0.15011969 0.06494551 0.055579886 0.06842066 0.19819698 0.032578114 0.018155584 -0.0023325647
-0.07398996 -0.06781176 -0.116685405 -0.048773326 0.046224173 0.06508557 0.091881976 0.0734171
-0.0472365 0.09204127 -0.15181525 0.14635214 -0.113165095 0.014897986 -0.09024931 0.050583817
-0.006488495 0.0026853976 0.17425594 0.10629547 0.13577816 0.18332379 0.024017598 0.06311668
-0.02224695 -0.081109785 0.24666457 0.10335787 0.09120259 0.14028446 -0.008644979 0.058679655
-0.026129348 0.07434448 0.020284034 -0.14033288 0.052510276 0.07337324 0.032020655 0.08840487
0.06508677 0.08808333 -0.0080153635 0.10765776 0.1457761 -0.025531908 0.02750064 0.15269922
0.066955306 -0.0033167673 0.019755516 0.017854435 0.15556931 -0.12006383 0.10218056 0.038177274
0.020474216 -0.10250357 -0.043237995 0.031740867 0.10030931 0.19595562 0.012624485 0.114162706
-0.034268342 0.067667834 0.015900144 -0.124330334 -0.10262317 0.04388616 -0.07179921 0.2005535
0.15703242 -0.052823555 -0.02160984 0.044042975 0.033171732 0.018069496 -0.06110499 0.04871091
-0.121011265 -0.119648896 -0.017296813 -0.024895057 -0.09742683 -0.16246521 -0.12534292 0.18422037
0.019676989 -0.043198533 0.088142335 -0.049480062 0.055529468 0.08284752 -0.040339824 -0.11319598
-0.22527526 0.0046040397 0.016461039 0.08092662 -0.019548224 0.007789392 0.09543778 0.0477643
0.019580197 -0.025881758 -0.33849525 0.07438382 0.14955331 0.029763909 -0.038707353 -0.0034840195
-0.27884182 -0.0971191 0.07454196 -0.12262763 -0.03773054 0.110481426 0.0122916205 0.0634466
-0.03014872 -0.008717583 0.058450945 -0.029502729 0.1118858 0.037561998 0.0037232295 0.003041367
-0.0052101673 -0.047332916 0.0016123208 0.04008618 -0.11797212 0.06931209 -0.0076240576 -0.08287883
-0.054128528 -0.039350197 -0.10595585 0.003314089 -0.029434042 -0.0032173942 -0.19051373 0.011348171
0.030523302 -0.0038439103 -0.036802378 -0.048781306 0.018558946 0.042607058 -0.016779521 -0.007701721
0.017977785 0.05869299 -0.06790423 -0.028988406 -0.03614599 -0.115470186 0.13587435 0.087757565
-0.066940434 0.1505342 0.18572202 -0.04187101 -0.105553426 0.032719214 0.053054005 0.04276008
0.132884 -0.028498888 0.107519105 -0.22355722 -0.015936088 0.04536899 0.1319577 0.034560706
0.11418434 -0.01945111 0.17466496 0.08599378 0.21455099 -0.0515616 0.06733175 -0.012218228
0.02031048 -0.0582771 -0.103603885 0.10494776 -0.32703668 -0.057983253 0.062080733 0.13664772
