results/LevelGen_PPO_RS_001/LevelGeneration.onnx (onnx, 286641 bytes, 6 tensors)

action_model._discrete_distribution.branches.0.bias f4 [4]
000000 80 ae 72 bd e8 9a ea 3d 52 b5 0b bc 1e c9 61 bd
       -0.059248447 0.11455327 -0.008527117 -0.05512344

action_model._discrete_distribution.branches.0.weight f4 [4, 256]
000000 15 00 eb 3c 89 05 12 3d d8 30 64 3d 94 42 2c 3d
       0.028686563 0.03564981 0.055710644 0.04205568
000010 42 f4 7a 3d 37 f6 0c bd 19 bc 6f bb 66 62 03 3d
       0.0612681 -0.034414496 -0.003658062 0.032076262
000020 20 52 46 bd cb cc 58 bd 78 37 1c bd 79 0a a8 3d
       -0.048418164 -0.05292968 -0.038138837 0.082051225
000030 e2 27 55 3d dd 06 3e 3c 83 22 ef 3c 03 e3 18 3c
       0.05203999 0.011598316 0.029191261 0.009331468
000040 ed 52 0d 3e 82 0f cc 3d b4 76 09 bc 8e 09 21 bd
       0.13801165 0.099638954 -0.008390117 -0.039315753
000050 ee d5 61 3d c0 92 b1 3d 56 14 e3 3d 28 10 9f 3c
       0.05513566 0.086705685 0.11087863 0.019416884
000060 16 38 6b 3d 56 44 65 3d ec 59 41 3d 0e 8a 33 3d
       0.057426535 0.055973373 0.047204897 0.04383283
000070 8a f8 ae 3d bd 4c 35 3a 51 50 83 3d ae 91 8f 3d
       0.08543499 0.0006916037 0.064118035 0.07010208
000080 99 3a 6b 3d be 64 ac 3d 6e d5 13 3d e8 de 14 3d
       0.05742893 0.084176525 0.036092214 0.036345392
000090 c8 12 9f bc bb 8f 9a 3c 7a 43 8b bd 53 ca 78 3d
       -0.019418135 0.018867364 -0.067999795 0.060739826
0000a0 ad b2 7c 3d 16 8f 1b 3d aa 0f 49 3d c6 49 33 bd
       0.061693836 0.037978254 0.049087204 -0.043771528
0000b0 7d f0 0a 3d 74 f0 55 3d 07 82 6b 3d 09 b2 9e bb
       0.033920754 0.052231267 0.05749705 -0.004843001
0000c0 80 b7 3e 3d 80 83 8b ba 08 77 f0 3c 10 66 87 3d
       0.046561718 -0.0010644048 0.029353634 0.06611264
0000d0 43 3c f0 3c f5 d0 1b 3d 25 34 5a 3d ee 7a 18 3d
       0.02932561 0.038041074 0.053272385 0.03722661
0000e0 6d 10 01 3d ea d0 45 3d 00 df 29 3d 29 f6 ce 3c
       0.031509805 0.04829494 0.041472435 0.025263863
0000f0 2d ad f3 3c 65 7f 22 3d 3c 42 d8 3d 38 89 e5 3d
       0.029745663 0.039672274 0.10559508 0.11207813
000100 25 3b 0d 3d 05 7b 96 3d 8e fa 9f bd c1 86 84 3d
       0.034480233 0.07347683 -0.078114614 0.06471015
000110 1a b8 27 3c d7 63 d6 3d 03 e3 3e 3d 11 bf 15 bc
       0.010236764 0.10468262 0.046603214 -0.009139792
000120 7c f4 29 3e d1 e6 96 3d 9d 3a a0 bd 77 c1 7a bc
       0.1659717 0.073682435 -0.078236796 -0.015304915
000130 ab fc 8b 3d 47 83 76 3d f5 5c 5e 3d f1 49 20 bd
       0.06835302 0.06018379 0.05428787 -0.039133016
000140 73 f0 a5 3c 49 f7 7b 3c ad 85 0c 3d 4f 71 7e 3d
       0.020256257 0.015378782 0.03430717 0.06211978
000150 11 ad 08 3e 6b e2 7c 3d 13 ed 81 bd d1 c5 dd 3c
       0.1334727 0.061739367 -0.063440464 0.027071865
000160 ee 28 c4 3c ed be ce 3c 17 62 10 3d cf ed 73 3c
       0.023945298 0.025237525 0.035249796 0.014888241
000170 f6 57 ae 3c 2c 6d 3d 3d d7 06 4f 3d 2d 6e e0 3d
       0.021282177 0.046246693 0.050543632 0.10958514
000180 b2 b8 3c 3c d2 db 08 3e 66 09 3b 3d 6e 29 88 3c
       0.011518644 0.13365105 0.04566326 0.016621318
000190 c4 78 ae 3c 45 b2 91 3c d3 6b 9c 3d a8 9d a9 3c
       0.02129782 0.0177852 0.07637753 0.02070506
0001a0 0c 04 9d bc 6e 7f b6 3d 89 8a 40 3c 27 4b 62 3d
       -0.019166969 0.08911024 0.011751779 0.055247452
0001b0 6c bc f2 3d 5e ba a7 3d c6 b2 1a bd 4e ee e2 3c
       0.11852345 0.081898436 -0.037768148 0.027701523
0001c0 48 97 77 3d 59 ad 25 3d c6 4a 27 3d 0e 62 0f 3d
       0.060447007 0.04044852 0.040842794 0.03500562
0001d0 fc 4e f8 3d 0a 70 30 3d 76 d9 05 3e 17 c3 68 3d
       0.1212444 0.0430756 0.13071236 0.056826677
0001e0 2d 94 89 3d 23 07 90 3d 44 06 ea 3c a8 dc 29 3d
       0.067177154 0.07032611 0.02856744 0.0414702
0001f0 9f de 53 bb fa 8d 8e 3d 36 8d 73 3d 03 a5 09 3d
       -0.0032328737 0.06960674 0.05946084 0.033604633
000200 b2 63 88 3d 32 0f 93 3d 9d 7a f2 3d ad ef 78 3d
       0.0665964 0.07180633 0.11839793 0.060775448
000210 82 f7 2e 3d 6f 5c 1d 3d 7d 51 22 3d 5b b7 76 3c
       0.04271651 0.03841823 0.039628495 0.015058364
000220 d9 53 84 3d 23 22 56 3c 5a 05 94 3d ae 54 67 3d
       0.06461305 0.013069662 0.07227583 0.05647724
000230 83 1a 9e 3d 2e ad 26 3d f7 26 46 3d 0c 72 13 3d
       0.077199005 0.0406925 0.048377004 0.035997435
000240 b1 a2 19 3d 51 54 bd 3d 7b 63 04 3e 07 a3 0f 3d
       0.03750867 0.09244598 0.12928574 0.035067584
000250 a7 78 aa 3c d0 3b c6 3c 55 22 02 3d 41 cc 47 3d
       0.020809485 0.024198443 0.031771023 0.048778776
000260 f5 36 6a 3d 04 e0 30 bd ff cd 15 3c 74 02 a4 3d
       0.057181317 -0.043182388 0.009143352 0.080082804
000270 dc 2d e7 3d 95 54 77 3d 6e 62 be 3d 0a a1 47 3b
       0.11288044 0.060383398 0.09296118 0.0030460977
000280 23 e4 c9 3c de 3d 2f bd 15 dc 23 bd fa 98 31 3d
       0.024644917 -0.04278361 -0.04000481 0.04335878
000290 43 8d 62 bc 70 16 75 3c ac 0b 02 3e 5e 60 0f 3c
       -0.013827625 0.014958963 0.12699765 0.008751003
0002a0 d8 26 fa 3b 9f b2 dd 3d 9e 57 34 3d a8 12 f8 3c
       0.007634025 0.10825085 0.04402887 0.030282333
0002b0 34 6b 54 3d 33 c0 18 bc 34 c2 25 3d 85 5c ba 3d
       0.05186005 -0.009323168 0.04046841 0.09099678
0002c0 f3 2e f4 bc 2c 3f 69 bd e5 f4 61 3d 43 af d4 3c
       -0.029807543 -0.05694501 0.05516519 0.025962478
0002d0 41 6a c4 3c 78 df 6c 3d fe a9 a1 3b 00 83 83 3d
       0.023976447 0.057830304 0.0049335947 0.06421471
0002e0 ef ed a2 3d 1d d5 81 3d a1 59 0c 3e b5 08 81 3d
       0.079555385 0.06339476 0.13706066 0.06300489
0002f0 0c 8b 28 3b 71 ee 83 3d d8 d2 09 3d 12 33 1e 3d
       0.0025717644 0.064419635 0.033648342 0.038622923
000300 b0 8d 6e 3d cf c8 6f 3d a2 a0 89 bd 96 4c ca 3d
       0.058240592 0.058541115 -0.067200914 0.09877889
000310 5c 14 6c 3d 68 cd 70 3d a2 f2 17 3e dd 21 82 3d
       0.057636604 0.05878964 0.14838651 0.06354115
000320 96 32 fd 3d f2 cd db 3d 45 47 1d 3d 36 fb 4f bd
       0.12363164 0.1073264 0.038398046 -0.050776683
000330 d0 8b 0a 3d b8 d2 cc 3c 55 04 82 3d 3e 20 b0 3d
       0.03382474 0.025002822 0.063484825 0.085999
000340 46 6d 9d 3d d8 ba 47 3d 3a 0f ca 3c b9 8c 0f 3c
       0.07686858 0.048762172 0.024665464 0.008761578
000350 bd ff 70 3c a0 03 9b bc ce 6d 7c bc bd 3e 5d 3d
       0.01470941 -0.018922627 -0.015407039 0.05401491
000360 cb 96 b0 bc 88 1c a5 3d 28 77 2e 3c 5a 02 4b 3d
       -0.021556279 0.080620825 0.010648526 0.04956279
000370 4e 16 92 3d 0f a9 c2 3d 1f 3a 8c 3d 47 f1 5f 3d
       0.071331605 0.095049016 0.06847023 0.05467346
000380 86 45 ff 3d 4d 41 1e 3e 84 90 89 3d be 41 62 3d
       0.124644324 0.15454598 0.06717017 0.055238478
000390 f7 ee 52 3d 78 97 0c 3e 1b 88 0c 3d 07 91 3e 3d
       0.051497426 0.13729656 0.034309488 0.046525028
0003a0 51 c1 69 3b 47 86 89 3d 1f fb 0d 3e 7a 8d 2b 3d
       0.0035668204 0.067150645 0.13865326 0.04188297
0003b0 a7 11 2a bd d4 62 45 3d 5b bf 41 3d 4a 1f 36 3d
       -0.04152074 0.048189953 0.04730163 0.044463433
0003c0 ca ba 10 3d c0 a5 e1 3d 3e f1 50 3d f9 78 fb 3b
       0.035334386 0.110179424 0.051011316 0.007674333
0003d0 e8 16 a8 3c 4e bd c5 3d 7b 9b 57 3d 62 d7 fb bb
       0.020518735 0.09655248 0.052638512 -0.0076855877
0003e0 7d 25 ad 3c ae 59 8d 3d 29 02 7e bd e3 e0 aa bd
       0.02113604 0.06901871 -0.06201378 -0.08343675
0003f0 c5 b4 7f 3c 20 d1 90 3d fe db 9f 3d 8f 43 18 3e
       0.015607064 0.070711374 0.07805632 0.14869522

network_body._body_endoder.seq_layers.0.bias f4 [256]
000000 7c 4c 49 3c 0b 81 1c b8 70 c3 15 3d 5e 79 d0 3c
       0.012286302 -3.731348e-05 0.036563337 0.025448497
000010 18 cb 2b 3c 25 16 82 bd 36 f9 4e bc 42 de 40 bd
       0.010485433 -0.0635188 -0.012632659 -0.04708696
000020 b5 92 1a 3d d3 0a fe bc bf 44 c9 bb 56 d2 c0 3c
       0.037737567 -0.03101102 -0.0061422284 0.023537796
000030 3c 79 e9 3c 6a 95 ab bd 1b 1f 7c bd 5e 09 d8 b9
       0.028500192 -0.08378108 -0.061553102 -0.0004120571
000040 4e 53 b2 bd 95 bd 6a bd 30 52 88 bd 3b c7 d6 bb
       -0.08707295 -0.057309706 -0.06656301 -0.006554512
000050 cb 6c d4 3c a2 fc 46 bd dc ff 03 bb 84 27 a2 3c
       0.025930783 -0.048580773 -0.0020141518 0.019794233
000060 d8 a0 bd bd ca 77 6b bd 0d e3 73 bd 9a 67 1d bc
       -0.09259194 -0.057487287 -0.059542704 -0.00960722
000070 43 ca fd bc b9 9d f8 bc 8e 19 ba bd 3d 20 30 3c
       -0.030980235 -0.030348646 -0.090869054 0.010749874
000080 76 69 4f 3d de af e4 3b 18 07 97 bd 8d 17 95 bd
       0.050637685 0.006978973 -0.073744 -0.072798826
000090 9c b7 1b 3d cb b9 4a bd 10 55 cf 3c 03 c3 06 3c
       0.0380169 -0.049493592 0.025309116 0.008225205
0000a0 c9 d5 9c bd a1 b3 43 bd ca c9 79 bd d9 19 f3 3b
       -0.07657964 -0.04777873 -0.060983457 0.0074188528
0000b0 30 c4 1d be 1b 26 87 bd 90 f3 1c bd 62 70 9d bd
       -0.15406871 -0.06599065 -0.038318217 -0.07687451
0000c0 51 0d 71 bd ed 7d 5d bd b7 48 70 3c 02 f8 cf bd
       -0.05885059 -0.05407517 0.014665774 -0.101547256
0000d0 ad 5a ce bd 1f 8b 6b ba b5 03 0e bd cf ea 9c bc
       -0.10075889 -0.0008985269 -0.034671504 -0.019154934
0000e0 bc c7 22 bd 88 0c ec bd 0f 54 ff 3c 60 52 7a bc
       -0.039741263 -0.11525828 0.031168012 -0.015278429
0000f0 fe 97 3c bd 1c 7b 3b 3d ee 33 5c bc d3 87 c4 bc
       -0.04604339 0.045771703 -0.013440115 -0.023990547
000100 5b 0a 93 3b a3 2a 26 3d f4 ec ce bd 67 ab 32 ba
       0.0044873185 0.040568005 -0.10103789 -0.0006815702
000110 6f 3f c5 bd 60 dd 9c bd a0 99 76 bd cd 66 8e bd
       -0.096312396 -0.076594114 -0.060205102 -0.069532014
000120 c2 5b 3f bd ac 52 8a bd 91 5c 93 3a cb 56 5c bc
       -0.046718366 -0.0675405 0.0011242797 -0.013448427
000130 c1 79 5e 3d c7 a8 5f bd b3 6b 65 bd 30 77 95 bd
       0.054315332 -0.054604318 -0.056010913 -0.07298124
000140 af c1 8a bd 19 bf 4b bd e6 6d 07 bc a7 cd 81 bd
       -0.067752235 -0.04974279 -0.008265948 -0.06338053
000150 53 33 35 bc 9c 93 62 bd d0 ad 00 be 67 0e 17 bd
       -0.0110596 -0.055316553 -0.12566304 -0.03687897
000160 29 42 ed bc d8 a4 bf bb 1b 37 4e ba fa 82 e2 3a
       -0.028962212 -0.0058485083 -0.0007866488 0.0017281466
000170 0d fd 9a bd be 00 15 3c 1e 06 9a bd 42 7b 38 3d
       -0.07567797 0.009094415 -0.07520698 0.045039423
000180 81 1a 93 bd d9 b4 89 bd 10 af bb bc 8f 9c 29 3d
       -0.071827896 -0.06723947 -0.022910625 0.04140907
000190 76 ba 80 3d 85 fe 8b 3d 2e 0f b9 bc 27 66 d3 bd
       0.062855646 0.06835655 -0.022590246 -0.103222184
0001a0 fb a8 b5 bd 3c f0 1b 3c f8 33 8b 3c b3 7a 05 bd
       -0.08870121 0.009517726 0.016992554 -0.03258772
0001b0 f6 dd 1f 3d 26 2f d8 bd c2 71 f0 bd 6d 21 48 3c
       0.039030038 -0.10555868 -0.117404476 0.012215001
0001c0 c9 4b 33 bd 25 cc 05 bc a9 3e 06 bd 62 36 dc bc
       -0.043773446 -0.008166348 -0.0327746 -0.0268814
0001d0 60 33 2b bd 2d 10 20 bc a0 7c 45 bd 3e f6 ab 3d
       -0.041797042 -0.009769482 -0.048214555 0.08396576
0001e0 d0 37 26 bd 5c 41 b6 3d 66 59 a4 bd 3f 25 c5 bd
       -0.04058057 0.08899185 -0.08024864 -0.09626245
0001f0 66 df 34 3d 51 35 9e bc 0a 34 3b bd aa 0b f7 3c
       0.04415836 -0.019312533 -0.045703925 0.030156929
000200 f5 8e b1 bd ad 68 a8 bd 9b 44 2f 3d 23 46 31 3d
       -0.08669845 -0.0822309 0.042790037 0.04327978
000210 5a 27 74 bd f0 0f 8c 3c f5 25 8a 3d d4 f6 30 3d
       -0.05960784 0.017097443 0.06745521 0.043204144
000220 6b 5c 5f bd af 8e 98 bc c3 2a 26 bc 6f f3 67 3d
       -0.054531496 -0.018622724 -0.010142031 0.05662864
000230 be f0 c4 bd f3 be 95 bd b9 2a 03 3c 03 86 0a bc
       -0.096162304 -0.07311811 0.008005791 -0.008454802
000240 32 29 32 3c 0e 11 65 bd ba 0f 3c bd 62 d1 52 3b
       0.01087408 -0.055924468 -0.045913436 0.003216826
000250 7c 3a 64 bd e1 63 d8 3d bd f1 cc 3c 57 a9 db bc
       -0.055719838 0.105659254 0.025017614 -0.026814146
000260 ce f8 3b bc fa 52 c1 bc 8a 22 70 bd 80 ff 89 bd
       -0.011472894 -0.023599137 -0.05862669 -0.06738186
000270 b1 1a f2 bd e0 97 72 bd d0 89 85 3d 5a e6 41 bd
       -0.11821497 -0.05922687 0.06520426 -0.04733882
000280 24 96 73 bd c9 8d 8f 3c d4 c9 21 3c 1b 3f f3 bd
       -0.059469357 0.017523663 0.00987478 -0.11877271
000290 9e 1d 94 3c de 36 20 3d 0a 95 8a bd 8b a9 9e 3d
       0.018080529 0.039114825 -0.06766708 0.077471815
0002a0 ea a9 93 3c 20 0a d8 bc a5 24 c1 bb f5 f5 65 bd
       0.018025357 -0.026372015 -0.005894261 -0.056142766
0002b0 bd e8 4a bc c7 8c 24 bd d3 20 a9 bd 58 ba 9f bd
       -0.012384591 -0.04017332 -0.08258214 -0.07799214
0002c0 a1 7c 3e bd bc e0 81 bd 92 b9 58 bd ed 81 06 bc
       -0.046505574 -0.06341693 -0.05291135 -0.008209688
0002d0 f5 45 93 bd 99 0b 0e 3c 72 56 6e bd 52 09 5b 3d
       -0.071910776 0.008669757 -0.05818791 0.053475685
0002e0 66 1a ce bd 43 d7 02 bd 66 69 86 bd 88 13 a3 bd
       -0.10063629 -0.03194357 -0.06563072 -0.0796271
0002f0 bc 8a ad bd 55 28 5d bd 21 ac a9 3c 3d 6e 70 bd
       -0.08473727 -0.05399354 0.02071196 -0.05869888
000300 a7 c1 9a bd 82 74 64 bd c6 5e 97 bd d4 f7 83 bd
       -0.075564675 -0.055775173 -0.073911235 -0.06443754
000310 29 e1 80 3d 44 15 31 3b 25 6d 97 3d 24 e3 8b bd
       0.06292946 0.0027020732 0.073938645 -0.06830433
000320 7e ac b5 bd fb ac bd 3d 6e 95 57 bd 58 00 b5 bd
       -0.08870791 0.09261509 -0.05263274 -0.08837956
000330 ab d9 d0 bd 6f dc 8b bd 32 91 09 3c 56 7a 21 3d
       -0.10197767 -0.06829154 0.008396434 0.03942331
000340 70 ab 32 3d 52 7f e9 bd 52 16 9b bc bd bb 6c bd
       0.043620527 -0.114012375 -0.018931542 -0.05779623
000350 33 a8 65 bd 0f 89 b7 bd 1f ab aa bd 30 22 86 bd
       -0.05606861 -0.08961689 -0.0833342 -0.065494895
000360 4e 27 76 bc 0e 17 0a 3d 68 27 54 bd 85 ae 01 3b
       -0.015024019 0.033713393 -0.051795393 0.001978786
000370 39 22 52 3d d3 2c 42 ba cb cd 89 bc f3 2b 36 bd
       0.05130217 -0.0007407192 -0.016821763 -0.044475507
000380 47 0c 4c bd b8 2b b4 bc 06 80 0d bd 4c 56 d3 bc
       -0.049816396 -0.021993503 -0.03454592 -0.025797985
000390 72 a2 b3 bd dc c8 6e bc 7b dd 71 bd f0 4b ca 3b
       -0.08771218 -0.014574256 -0.05904911 0.0061736032
0003a0 6a 0d 2a 3c ce 43 25 3d a2 59 38 3c f2 63 c3 bd
       0.010379175 0.040347867 0.011251839 -0.095405474
0003b0 ce e2 de bc 0d 80 3f bd 71 4a 67 bd 6d 1f 56 bd
       -0.027207758 -0.046752978 -0.056467477 -0.052276064
0003c0 1c f0 3a bd 4d 58 e2 3c cf dc 04 bc a8 ef 0d bc
       -0.045639142 0.027629996 -0.0081092855 -0.0086630955
0003d0 60 b7 b1 bc 36 ea 61 bd 06 59 a0 bd 69 56 72 bd
       -0.021693885 -0.055155 -0.0782948 -0.05916444
0003e0 c6 fc fb 3c 77 6b e6 3c 36 e1 4e bc 36 52 a9 bd
       0.03076018 0.028127415 -0.012626937 -0.082676336
0003f0 be c5 23 bd e0 be bd bd f2 39 8f bd f3 83 d9 bb
       -0.039983504 -0.09264922 -0.06993474 -0.006638044

network_body._body_endoder.seq_layers.0.weight f4 [256, 16]
000000 27 05 1d bf 12 11 2a 3e 36 8b e3 be 79 ba c4 be
       -0.61335987 0.16608074 -0.44442147 -0.38423517
000010 6c 7d 1c bd 02 a1 45 bd 56 c7 c1 bd bd 92 22 3e
       -0.03820555 -0.048249252 -0.094618484 0.15876289
000020 d3 53 1e bc b4 2d f1 bd f7 a6 5b 3e d3 f9 9d be
       -0.00966354 -0.11776295 0.21450411 -0.30854663
000030 76 23 64 be e9 c8 05 be bc dc 35 be df 95 44 3d
       -0.22279152 -0.13064922 -0.17759985 0.04799449
000040 85 bb ea bd ba 67 43 3e de 4e f1 3d 0f 4b 72 be
       -0.11461548 0.19082537 0.11782621 -0.23661445
000050 2d b2 4a bd b4 b6 c8 be b5 f9 86 bb 58 86 e0 bb
       -0.049486328 -0.3920189 -0.004119123 -0.0068519525
000060 36 5e 69 3e 6b 21 01 3e 13 3a 5f bc 41 64 99 3e
       0.22789845 0.12610404 -0.013624686 0.299593
000070 74 eb 32 bd 39 e7 82 3e 10 8d 16 be 7c db e4 bd
       -0.043681577 0.25567034 -0.14702249 -0.11174676
000080 36 a6 84 be 93 eb ad be ca 38 1f 3d 0a 6e b0 3d
       -0.2590806 -0.3396879 0.038872518 0.08614738
000090 08 e7 8e 3e 97 11 ed 3d 67 96 54 3a b3 de d9 bd
       0.27910638 0.115756206 0.000810957 -0.1063818
0000a0 c8 51 49 be 17 3a fd bd f4 e7 6f be 9d 44 61 bc
       -0.19660103 -0.123645954 -0.23428327 -0.013749269
0000b0 65 4a c7 bd 95 b9 b6 3e c7 dc dd 3e 96 41 fc 3c
       -0.097309865 0.35688463 0.43332502 0.030792993
0000c0 65 4f 1e 3e 56 68 ca ba d5 22 57 bd ac 64 54 be
       0.15459974 -0.0015442471 -0.052523453 -0.20741528
0000d0 11 a5 40 be 10 33 ef 3e d5 2d d5 bd d2 d5 12 bd
       -0.18812968 0.46718645 -0.104091324 -0.035848446
0000e0 a6 1a 56 be df 47 56 be 71 3a 89 3e 0e 9c 3f 3e
       -0.20908603 -0.20925854 0.268024 0.18711874
0000f0 ec 61 61 bd 73 3b c8 3d 1b 15 ad 3a 2c b6 49 3d
       -0.055025026 0.09776964 0.0013205142 0.049246
000100 b5 5f a8 be 4b d6 c8 be db 2d 41 3e 66 92 85 be
       -0.3288552 -0.39225993 0.18865149 -0.26088256
000110 b8 12 c4 bd 06 5e 6b be 78 0a b2 3d 4b df 83 be
       -0.09573883 -0.22985086 0.08693403 -0.25756297
000120 90 27 48 be 70 8c fa bd 72 1c 56 3e 2b f0 2d be
       -0.19546342 -0.122338176 0.20909289 -0.16986148
000130 8c 35 f1 be 08 ec cd bd 87 62 4c be 45 21 c2 3d
       -0.47111166 -0.10054785 -0.1995946 0.09479002
000140 e0 c2 99 bd fc 89 74 3e f6 d4 31 be 50 c4 d9 bd
       -0.075078726 0.23880762 -0.17366394 -0.10633147
000150 e9 8e 17 bf 68 54 e0 3d 96 e2 62 be 4d 1c a7 be
       -0.5920244 0.10953599 -0.22156748 -0.3263878
000160 cc 87 17 3e 73 a9 4b be 37 8b 7a be 32 f8 b9 bc
       0.14797896 -0.19888858 -0.24467169 -0.022701357
000170 86 cb 23 bc 85 58 04 be 12 4e 70 be 91 c2 61 be
       -0.009997254 -0.12924393 -0.23467281 -0.22046877
000180 54 6d 13 3d 4d 09 03 3f 9f 0d 0a 3e 64 19 43 be
       0.035992935 0.51186067 0.13481759 -0.19052655
000190 f0 de 05 3d 0b 1a 51 be 9b b0 37 3e b7 e4 2b be
       0.032683313 -0.20420091 0.17938463 -0.16786467
0001a0 b9 57 a5 3c 80 4f 80 3e c9 fe c0 3d e2 da f9 be
       0.020183431 0.25060654 0.094235964 -0.48799807
0001b0 26 38 8b be dc b0 0c be c3 10 81 3d f5 3f c9 bd
       -0.27191275 -0.13739341 0.06302025 -0.09826652
0001c0 ad 09 0d be db 61 a2 be 58 74 f5 3d e7 11 a5 bd
       -0.13773222 -0.31715283 0.119850814 -0.08060055
0001d0 8a 05 a8 bd e2 64 c2 3d e2 01 da 3d 8c e8 39 3e
       -0.082041815 0.09491898 0.1064489 0.18155116
0001e0 e1 1b ec 3d 37 ca 25 be c6 87 bf 3e 2f 9d 8a 3e
       0.11528755 -0.1619042 0.37408274 0.27073047
0001f0 4f 70 ae 3d 04 7d 9f be 45 45 04 3f 84 4f d7 3e
       0.08517515 -0.31150067 0.51668197 0.42052853
000200 ac 9c c9 3e 5b d6 33 3d ed 5c 39 be 1e 44 8c bd
       0.39377344 0.043905597 -0.18101855 -0.0684893
000210 21 d5 0f be cb 18 a5 bd 3a b3 1e bf a5 d9 10 be
       -0.14046146 -0.080613695 -0.6199223 -0.14145525
000220 10 cf b8 3d 7a 7e 16 3e 7f bd a2 bd 35 cc 0c 3e
       0.09023869 0.14696684 -0.079463 0.13749774
000230 34 c2 a2 3c 1c ce 2d 3e ab 48 d2 3e 65 53 08 be
       0.019867994 0.16973156 0.41071066 -0.13313062
000240 dc a7 b2 3e 77 cb 7f be 8a de 9a bc a9 63 fc bd
       0.34893692 -0.2497996 -0.018904943 -0.12323696
000250 17 4d 17 3e 2f 23 40 3d bf 89 06 3f f6 bf 35 3f
       0.14775501 0.046908554 0.52553934 0.70996034
000260 21 21 78 bc 6b ab be 3d bd 7d b6 be b7 26 24 be
       -0.015144617 0.09310039 -0.35642806 -0.16030394
000270 ef 60 3d be f2 a1 a2 be b2 6f e2 be 00 b5 5c bc
       -0.18494008 -0.3176418 -0.44225842 -0.013470888
000280 df 08 cc bd 0e b0 cb bd 34 b3 78 be 3b 1c 83 be
       -0.099626295 -0.09945689 -0.2428711 -0.25607476
000290 1d ab ab 3e ee f8 b9 be 69 9e ce bc 87 f6 f3 bd
       0.33528987 -0.3632273 -0.02522202 -0.11912256
0002a0 b6 4a dc be 2b 6c db be 5d 91 c0 bd dd be 12 be
       -0.4302575 -0.42855963 -0.09402726 -0.14330621
0002b0 b6 ab 43 be 3b 14 0e be 1c 86 c5 3d 35 75 80 3e
       -0.19108471 -0.13874905 0.0964472 0.25089422
0002c0 60 17 d4 be 3c c2 a3 be fd 51 0b 3d a5 4c 28 3f
       -0.41424084 -0.31984127 0.034013737 0.6574195
0002d0 eb 70 a7 bd 80 7c 61 3e d5 39 2a bf c9 44 64 3d
       -0.08175834 0.22020149 -0.66494495 0.05572966
0002e0 59 6f e6 bd b8 fc d7 3e f9 7f 93 3e 42 0e 91 be
       -0.11251707 0.42184997 0.28808573 -0.2833119
0002f0 c2 ba cc be 7b 39 2e 3e ab ff 90 3e 7c b1 96 3e
       -0.39986235 0.17014115 0.2832006 0.29432285
000300 86 fa 60 be 8b 08 76 bd 8d 4b 60 be 65 48 91 be
       -0.21970567 -0.06006674 -0.2190382 -0.28375545
000310 94 a7 9a be 78 74 14 3e 4f 6a 30 3d 93 b4 1d 3f
       -0.30205977 0.14497554 0.043070134 0.6160366
000320 52 f2 a5 3d 77 a2 b4 bd c4 5f 28 bd d4 47 23 bf
       0.081028596 -0.0882005 -0.041106954 -0.63781476
000330 7f cd 0e 3e f1 96 14 be f2 60 65 3e 36 20 c5 3d
       0.13945578 -0.14510705 0.22400263 0.096252844
000340 d6 41 95 3d 7d a2 1b be 15 53 03 be d8 ff f6 be
       0.07287948 -0.15198703 -0.12824662 -0.48242068
000350 9f 55 90 3e 72 49 4c be 84 a1 65 bc 88 ae 20 be
       0.28190324 -0.19949892 -0.014015559 -0.15691578
000360 65 85 1d 3e 3f 33 52 3e 74 09 c5 3d fd db aa 3e
       0.15382917 0.20527361 0.09620944 0.33370963
000370 d8 dd 68 3e b8 bf 1f be 91 79 24 3e 9a 3f 01 3e
       0.22740877 -0.15600479 0.16061999 0.12621918
000380 67 5e 1e 3d 8e 67 a8 3e b3 81 d1 3d 99 01 03 bf
       0.038664248 0.32891506 0.10229816 -0.5117431
000390 fa 43 da 3b ee 7d a9 bc 67 c3 c7 3e 08 59 f3 3e
       0.0066609355 -0.02068993 0.39016268 0.47528863
0003a0 47 5c d1 bd 9b 91 f9 3e 51 b7 05 3e 0a 91 91 be
       -0.10222679 0.487439 0.13058211 -0.2843097
0003b0 86 7c 37 3e 97 8e e0 bd 0e 6c 97 3e 1a 74 d2 be
       0.17918596 -0.10964697 0.29574627 -0.41104203
0003c0 b8 1b 9e be f4 9a c9 be e7 71 31 bd b0 2c 3e be
       -0.30880523 -0.39376032 -0.043321516 -0.18571734
0003d0 72 4b 88 be 4b 19 16 3e cd b0 8a 3e 1a 9c a0 3c
       -0.2662006 0.14658086 0.27088013 0.019605685
0003e0 0e 0b fb 3d f3 5c 11 3e 9a 44 6d bd 31 ab 8e 3d
       0.12257968 0.14195614 -0.05792675 0.06966246
0003f0 61 50 bc be ce d4 0f be 6b 66 bc bd f7 fa 1e 3e
       -0.36780074 -0.14046022 -0.09199222 0.15525423

network_body._body_endoder.seq_layers.2.bias f4 [256]
000000 52 2c ac 3c 26 77 84 bd d1 b2 8f bc 17 d1 18 bc
       0.021017227 -0.06468038 -0.017541321 -0.009327195
000010 7a 6c f6 3b 02 7f 41 3c 14 92 91 3d a4 6d 53 3d
       0.0075202556 0.011810066 0.0710794 0.051618233
000020 7e 22 a2 3d 39 c2 2b 3c 84 27 7c 3c 2e 4c 10 3c
       0.07916735 0.010483318 0.015390281 0.008807225
000030 73 84 fe 3b 5b 34 d6 bc 6c e0 9d bb cb 38 8f bc
       0.007767254 -0.026148012 -0.004818013 -0.017483136
000040 44 3c dc 3c 44 a7 71 3c 08 50 94 3d 3b 03 94 3c
       0.026884206 0.014749352 0.07241827 0.018067947
000050 56 f2 0c 3c 19 fa eb 3b e8 7b 7a 3c e7 01 52 3b
       0.008602699 0.007201445 0.015288331 0.003204459
000060 a9 82 13 bb 81 f2 2f bc ed 97 1f bd 6e 00 c2 3a
       -0.00225083 -0.01073897 -0.038963247 0.0014801153
000070 6f 54 a6 3c fd 34 bb bc e3 b6 fe bc 77 93 39 bd
       0.020303933 -0.022852415 -0.031093067 -0.04530665
000080 13 7e 4d bd a1 ae e7 3b ef 3d 2c bd d3 17 35 3c
       -0.050169062 0.007070378 -0.042051252 0.011053043
000090 94 ef 75 b9 ec 00 86 3d 97 5a 3b 3d 58 f4 de 3c
       -0.0002345427 0.065431446 0.04574069 0.027216122
0000a0 8e de 12 bd 56 f5 1a bd 07 39 53 bc 67 16 1d 3c
       -0.035856776 -0.037831627 -0.012892014 0.009587861
0000b0 94 0c bc 3b b1 40 17 bd 2e 02 46 3d 96 d0 38 bb
       0.005738804 -0.03692693 0.048341922 -0.0028200499
0000c0 14 90 e0 bc 6b 71 94 3d 11 14 26 3b f0 45 c6 3a
       -0.027412452 0.07248195 0.002534155 0.0015127044
0000d0 20 ed 2f ba 32 16 6a 3d 5c cd e7 bc fb 28 b9 bc
       -0.00067110546 0.057150073 -0.028296165 -0.022602549
0000e0 95 99 43 bd f2 87 0e 3d 43 f1 1a 3d 67 da 5b bd
       -0.04775389 0.034797616 0.03782774 -0.05367508
0000f0 a9 b9 28 bd 19 82 2b bc 96 36 9c bb 84 56 00 3c
       -0.041192684 -0.010468029 -0.0047672493 0.007833127
000100 d2 b4 4d bc d0 4c 2c 3d 39 ad a7 3d b7 15 9c bc
       -0.012555318 0.04206544 0.081873365 -0.019053323
000110 26 89 2d 3d 9d af 30 3c 3c 96 80 3d 6c ea e9 3b
       0.042367123 0.010784057 0.06278655 0.007138541
000120 18 b2 27 3d 24 a1 0b bd ae fe d7 3c 55 35 9b b7
       0.040941328 -0.034089223 0.026366558 -1.8502275e-05
000130 da 0b 05 3d 19 6f 1f 3c 4b 8d 9a 3b f7 8f 36 3c
       0.032482006 0.009731078 0.0047165505 0.011142722
000140 3b a2 81 bc 0b 6d eb 3c 2c 79 dc bb 1a ee f0 3a
       -0.015824428 0.02873852 -0.006728312 0.0018381507
000150 bc 21 d7 3c b7 a7 d7 bc 59 4e 0d 3d 7e 89 a1 bc
       0.026261203 -0.02632509 0.034498546 -0.019718882
000160 36 ef 9e 3c f4 32 34 bd fb 9a 3c 3d fc 35 30 3d
       0.019401174 -0.043993905 0.04604624 0.043020234
000170 0c c1 85 3d 3b e7 38 3c 00 c0 16 3d 6b bb 28 3c
       0.065309614 0.011285598 0.0368042 0.01029859
000180 93 54 5f 3d 9b 6f b7 3c 66 aa b7 ba b7 b9 f3 3c
       0.054524016 0.022392085 -0.0014012575 0.029751642
000190 b3 73 96 3c c3 83 70 3d 8a 46 4b 3a 7a e2 46 bd
       0.018365717 0.058719408 0.00077543466 -0.04855583
0001a0 cf f3 cf 3c f8 7c fa bb 58 b6 1f 3d 18 ff 1b bc
       0.025384812 -0.007644292 0.038992256 -0.009521268
0001b0 54 73 a2 3c 79 27 15 3d c0 ff ed 3c ac 17 03 bd
       0.019830383 0.036414597 0.029052615 -0.032004997
0001c0 6f 17 18 bd 1d b7 90 bd cf bf f3 bc a6 ca 06 3d
       -0.037131723 -0.07066176 -0.029754547 0.032908104
0001d0 b4 8b 82 3c d7 8a 55 bd 62 56 88 3c bc 8d 8d bc
       0.015935756 -0.05213436 0.016642753 -0.017279498
0001e0 ce 55 92 3c 20 68 b9 3c 1e 43 b5 bc 4f 94 86 bd
       0.01786318 0.022632658 -0.02212673 -0.06571256
0001f0 97 c3 f3 3b fa d1 dd 3b 0b 03 1e bd 0f eb 73 3d
       0.0074390876 0.006769416 -0.03857712 0.05955034
000200 9e d1 37 3a cf d5 b1 3b 1c a8 7e 3c b3 4b f9 3c
       0.00070121314 0.0054270993 0.01554301 0.030431604
000210 e4 5e 7e bd 84 d2 88 3d 4f 43 55 3d b5 49 1d bd
       -0.062102214 0.06680778 0.052066144 -0.03840037
000220 ce f5 56 bd dd 2b 0e 3c e0 6a d0 3c be 68 17 3d
       -0.05248051 0.00867745 0.025441587 0.036965124
000230 18 6c 31 3d 4d 94 1c bd 62 4a e4 bc d1 fe 84 bb
       0.043315977 -0.03822737 -0.0278675 -0.004058697
000240 e0 ce 8e bd bf dd 76 3c 5e a4 05 3d f7 7a 11 bc
       -0.06973052 0.015067517 0.032627456 -0.008879415
000250 f9 cc 78 3c 22 d4 9d 3d 8d 31 48 3d 32 0f e2 b9
       0.015185588 0.07706477 0.04887538 -0.000431174
000260 09 b1 b3 3b 22 9e 0b 3c c2 a0 20 bd c6 32 c4 bc
       0.0054837507 0.0085215885 -0.03921581 -0.023949992
000270 8d d4 16 3d 1d 05 20 3d 18 bf 91 3b ff ed 98 3b
       0.036823798 0.039067376 0.004447829 0.004667043
000280 62 99 0f bc 2a f2 d8 3b 25 1f 70 3c 23 f6 85 bd
       -0.008764597 0.006620665 0.014655863 -0.065410875
000290 74 82 57 3c 8d 07 96 bc ba 01 c5 3c cc 63 e2 3a
       0.013153661 -0.018314147 0.024048675 0.0017272173
0002a0 6f 3c ec bb 1a 00 2c 3c b5 81 cd 3b 36 77 66 bd
       -0.0072093527 0.010498071 0.006271566 -0.056266032
0002b0 54 2e 68 bc fb 9a 09 bb 49 09 12 bd 9d 16 08 3d
       -0.014171202 -0.0020996917 -0.035653386 0.03322469
0002c0 1f 6b b4 3c 65 93 26 3c 91 5a 4e 3d e3 a0 34 bc
       0.022023736 0.0101669775 0.05037934 -0.0110246865
0002d0 7e 6e 2d bd df b9 52 bd cf e1 1e 3c 41 2e af 3c
       -0.0423417 -0.05144679 0.009697392 0.02138436
0002e0 56 8d e6 3c df da ae bc 1a ce 36 3d b1 35 e7 bb
       0.028143566 -0.0213446 0.044630148 -0.007055961
0002f0 26 a5 0a 3d ab 3e 24 bb 63 3e f7 bb 47 10 b0 3b
       0.033848904 -0.0025061767 -0.007545279 0.005373034
000300 3c 86 2e bd 8f ab 1b 3d f6 ef 10 3d 72 67 92 3c
       -0.042608485 0.038005408 0.035385095 0.017871592
000310 cc 46 9e bc 1d 06 ea 3b 08 69 c7 3c 28 21 67 3c
       -0.019320868 0.007141842 0.024342075 0.014107026
000320 d6 53 8b 3c 84 24 69 3c a4 bc 3f bd 84 3b be 3c
       0.01700775 0.014229897 -0.04681076 0.023221739
000330 85 6c 49 3d 70 59 5c bc 5a 4d b0 bc e8 bc ce bb
       0.049175758 -0.013449058 -0.02152126 -0.0063091405
000340 0c 44 a2 3c 7c 40 67 3d 6b 3d 24 bd c3 e6 16 3d
       0.019807838 0.05645798 -0.040097635 0.036841165
000350 30 b0 13 bc b4 4c 33 bb 3f 94 68 bb 05 e5 b6 3c
       -0.009014174 -0.002735895 -0.0035488752 0.022326002
000360 a6 26 56 3c 4c cd cd 3a 37 79 b9 3d a4 c9 98 3c
       0.013070738 0.0015701442 0.09056323 0.018650837
000370 73 1a 18 3d 9f ce 68 3c 55 cd 8f bc e3 62 04 bd
       0.0371346 0.014209419 -0.017553965 -0.03232087
000380 46 c6 5b 3c c4 52 d4 3c 7b 28 2b 3c c3 97 69 bd
       0.013413971 0.025918372 0.010446663 -0.057029497
000390 8c 95 c4 bc 1b 85 b1 3c 8e 56 fe 3b ee 03 27 bd
       -0.02399709 0.021669915 0.007761783 -0.040775232
0003a0 90 f4 5f bd ec c6 b0 bc 01 0d ac 3c 29 af 18 bc
       -0.054676592 -0.021579228 0.021002294 -0.009319105
0003b0 1a b9 57 3c 33 6f 62 bd 74 73 39 3a 12 a5 85 3d
       0.01316669 -0.05528183 0.0007074394 0.06525625
0003c0 a3 7d 2c bd 9b 8a 77 3c 84 c7 18 bd b7 78 7a 3c
       -0.042112004 0.01510873 -0.037299648 0.01528757
0003d0 b5 fd 16 bd 84 8f 08 3d 45 a0 b3 bb 9a 6a b1 3c
       -0.036863048 0.033339992 -0.005481752 0.021657277
0003e0 fd 6e 83 bc 15 47 bc 3c 49 13 09 3c 13 97 8f 3d
       -0.016044134 0.022983113 0.008366414 0.07011237
0003f0 b0 a1 97 3d b7 26 fa 3c 87 a0 3a 3b a0 3f aa 3c
       0.07403886 0.030536039 0.002847703 0.020782292

network_body._body_endoder.seq_layers.2.weight f4 [256, 256]
000000 b5 b4 53 bc 46 6e be 3d 4c 52 fb 3d 81 58 d9 3d
       -0.012921502 0.09298377 0.12271556 0.10612584
000010 b1 a0 a9 bd 5c 16 2f 3d 76 d6 a0 3d e2 f3 a6 3d
       -0.082826026 0.042745933 0.07853405 0.08151986
000020 61 13 d1 3d 66 38 c8 3d 3a a0 0c bd 01 ee 1d bc
       0.10208774 0.09776382 -0.03433249 -0.009639264
000030 65 5c 42 3d b6 6a 23 3e c5 63 0e 3d 2f 32 6f 3d
       0.047451396 0.15958676 0.034763116 0.05839747
000040 57 df 3b bc e9 fb 84 3d e7 da 44 bd ac af 8b bd
       -0.011466823 0.064933605 -0.048060324 -0.06820616
000050 bb 73 7d bd 84 4a 26 3d 21 f2 b0 bc 6d 16 d2 bc
       -0.061877947 0.040598407 -0.021599831 -0.02564546
000060 cb d2 00 bd 17 f9 90 bd f2 13 37 3e 22 25 0f bc
       -0.031451028 -0.0707876 0.17878702 -0.0087368805
000070 3d ce dd 3d 58 57 05 3e 59 90 ab 3d 98 34 9b 3d
       0.108303525 0.130216 0.083771415 0.07578391
000080 4e 05 20 3b 9e 27 2a 3d 79 cb 86 3c e5 66 76 3e
       0.0024417224 0.04154169 0.016454445 0.24062689
000090 07 69 08 be a2 f6 63 bd a9 14 c0 3d d8 48 f8 3d
       -0.13321315 -0.05565513 0.093789406 0.12123269
0000a0 19 20 c3 39 9a e1 80 bc 0f ab 2f 3d ed 5a ac bd
       0.00037217213 -0.015732575 0.042887744 -0.0841578
0000b0 29 8f d1 3d d8 c2 7f 3c 45 7e 50 3c c3 b8 94 bd
       0.10232384 0.015610419 0.0127254175 -0.07261803
0000c0 47 d1 e0 3c b6 ca 23 3c 51 19 30 bd ac 7d 85 3d
       0.027443541 0.0099970605 -0.042992894 0.06518111
0000d0 ff 5b 97 bc b2 55 17 3e f1 5e 02 3e b3 c3 fb 3b
       -0.018476484 0.14778784 0.1273153 0.0076832413
0000e0 3d 9d 17 3e 9d 16 7d 3d b2 1b 8c 3d 60 75 96 3d
       0.14806075 0.061789144 0.0684122 0.07346606
0000f0 72 28 4e 3e 4e cf 0f 3d 0e d0 4b 3c a2 8c 81 bc
       0.20132616 0.03510981 0.012439741 -0.01581413
000100 eb 22 a2 bd 81 43 77 bd 3c f6 de bd 83 c3 39 bd
       -0.07916816 -0.06036711 -0.10886809 -0.04535247
000110 cb c7 14 3d 59 ca 5e 3d f7 7e a8 3d 9e 34 94 3d
       0.03632335 0.054392193 0.082273416 0.072365984
000120 4b 45 62 bd dc ad b0 3d fa a8 15 be b9 21 0f 3e
       -0.055241864 0.08626911 -0.1461524 0.13977708
000130 49 38 01 be de 04 af 3c 68 36 b2 bd d5 61 65 3d
       -0.12619127 0.021364626 -0.087017834 0.056001503
000140 51 5d 48 bc f9 58 00 bc 66 91 41 3e 38 c1 c8 3d
       -0.01222928 -0.007833713 0.18903121 0.098024786
000150 a8 e3 0f 3e 64 49 43 3e e4 70 bf 3c f6 e6 5c 3d
       0.14051688 0.19070965 0.02336926 0.0539312
000160 e0 fb a1 bc c4 25 c7 bd 28 18 85 3e 83 9c e0 3d
       -0.019773424 -0.09724 0.25994992 0.10967352
000170 ca 2c ca 3d 3e b0 0e 3e 33 1c 69 bc 34 06 76 3d
       0.09871824 0.13934419 -0.014227915 0.06006451
000180 b9 92 d5 bc 44 c6 88 3d f5 de d9 3b a8 55 09 be
       -0.02607094 0.06678441 0.006648893 -0.13411582
000190 59 74 77 3d e5 af a9 3d 92 d8 e6 3c 0f ac ab 3d
       0.060413692 0.08285502 0.02817944 0.08382427
0001a0 7f 99 71 3d 3e e1 c1 3d 65 b7 34 38 de 07 eb 3d
       0.058984276 0.0946679 4.3086144e-05 0.1147611
0001b0 6e 03 29 3e 0b f3 66 bc 42 b7 b8 3c d0 a7 12 3e
       0.16505215 -0.014096032 0.022548322 0.14321828
0001c0 1b c8 6c 3d 60 c0 12 bb 8e a6 da 3c ef e1 d1 3c
       0.057808023 -0.0022392496 0.026690748 0.025620429
0001d0 85 6e 24 3e 33 f5 e8 bd 33 2b cf 3d 89 05 5f 3d
       0.16057785 -0.11374893 0.101156615 0.054448638
0001e0 4c 52 f8 3c 03 bd c8 bd 85 5d 1a bd 8d 82 d9 3c
       0.03031268 -0.09801676 -0.037686843 0.02655151
0001f0 f8 72 ef 3d 7a 87 41 3e ea 99 9f 3c d9 83 df 3d
       0.116918504 0.18899336 0.019482572 0.1091382
000200 0c 9d e7 bc 27 c7 6f 3d b7 67 b6 3c 00 3c f4 bd
       -0.028273128 0.058539536 0.022266252 -0.119255066
000210 c5 39 e3 bd a1 ab 46 3d c4 d7 8f bd 9b c6 5a 3e
       -0.11095003 0.04850352 -0.07023576 0.21364824
000220 27 14 1f 3e 48 1c 81 bd d1 26 64 bc 5e b4 4b 3d
       0.15535031 -0.06304222 -0.01392527 0.04973256
000230 4c 90 79 3c 79 4d 08 3d 37 4d 5b bd e1 14 3f 3d
       0.015232157 0.03327701 -0.053540435 0.04665077
000240 cd 66 ec bd 6c c5 06 be 43 f2 69 bc 2d 87 1f bd
       -0.11543045 -0.13161248 -0.014278951 -0.038947273
000250 36 8a b6 bd 19 ca 24 be 04 ca f4 bd ae 3f 42 3e
       -0.089130804 -0.16092719 -0.11952594 0.18969604
000260 05 c4 c5 3c f2 8f 0f bd 8f 3a a8 3d e9 2d 3a bd
       0.024141321 -0.035049386 0.08214294 -0.04545394
000270 59 6e 57 3d dd 88 ae 3d a3 67 0b bd 21 96 00 be
       0.05259547 0.08522198 -0.034034383 -0.1255727
000280 df c3 73 be d1 c7 77 3a df 98 d3 3c e0 cd b6 3d
       -0.23805188 0.0009452077 0.02582973 0.08925986
000290 df 28 69 bc 44 92 15 3c e1 d2 c7 3d 76 58 60 3d
       -0.014230936 0.009129111 0.09757019 0.054771863
0002a0 da bd be 3c 77 81 8e bc 8a 5c b3 be 82 05 76 3d
       0.023283888 -0.017395718 -0.3503154 0.060063846
0002b0 60 66 15 3e 64 77 eb 3c 6c 45 f7 bc ad 18 b1 bb
       0.14589834 0.028743453 -0.03018447 -0.005404553
0002c0 57 fe 92 be b0 8d bb bd 0d 2e ab 3d af 5d 08 be
       -0.2870967 -0.09157884 0.08358393 -0.13316987
0002d0 96 52 f2 bc 85 52 ed 3d 73 ce 82 3c 0f aa 8e 3d
       -0.029580396 0.11588005 0.015967583 0.0696603
0002e0 74 0c c9 bc 31 09 51 bb 6d 39 81 3d 36 d6 0f bd
       -0.02454207 -0.0031896348 0.06309781 -0.035116397
0002f0 4e 16 e4 3d bb 1a 2f 3d c2 84 47 3c 3c 6d 4d bc
       0.11137067 0.0427501 0.012177648 -0.012538251
000300 92 35 f1 bb 9c b9 7b bd e2 b5 2a bc 55 b0 09 3d
       -0.0073611224 -0.061456308 -0.010419341 0.03361543
000310 e2 17 e4 bd 4e 50 7c 3d f1 b7 f8 bb 08 0c a1 bd
       -0.11137368 0.061600022 -0.007590287 -0.07863623
000320 3a d8 85 bd 36 f4 02 bd 19 35 ec bd 44 62 5a 3c
       -0.065353826 -0.03197118 -0.11533565 0.013329092
000330 81 1d 36 bd c6 c5 26 3a bc 74 52 be cf 19 8e 3c
       -0.04446173 0.0006361868 -0.20552343 0.01734629
000340 26 48 19 3d e9 2f 29 bb 52 f8 f1 bc 1a 46 2c bd
       0.03742232 -0.002581591 -0.029537354 -0.04205904
000350 0e 08 c1 3c 28 c6 1f 3d 3c 75 eb ba d7 66 f6 ba
       0.023563411 0.039007336 -0.0017964016 -0.0018798959
000360 97 51 b9 3c 35 bf 85 3d 14 70 7b bd 8e 39 a6 bc
       0.022621913 0.065306105 -0.061386183 -0.020291116
000370 36 5a b6 bc 0a 09 05 be ef e4 0b 3e 0a 67 c3 3d
       -0.022259813 -0.1299173 0.1366155 0.095411375
000380 bf 12 77 bd 68 9b 19 3e 9d a8 4b 3e 46 33 30 bd
       -0.060320612 0.15000689 0.1988854 -0.04301765
000390 dc 6d d9 bd 31 fd 24 3d c7 86 86 3d f0 60 3f 3d
       -0.10616657 0.040280525 0.065686755 0.046723306
0003a0 e2 a2 11 3e d2 03 c4 bc 77 38 c8 3d 81 e3 65 be
       0.14222291 -0.023927603 0.09776395 -0.22450067
0003b0 d5 59 1b bc e2 91 42 3d 1a ad 06 3e fe ca d6 3c
       -0.009481867 0.047502406 0.1315197 0.026219841
0003c0 b2 92 f3 3d ca dd 2f bc 7c 50 47 3e 27 3b 9f 3d
       0.11893214 -0.010734031 0.19464296 0.07774954
0003d0 14 2c 6c 3e 11 db 6f bd 46 17 95 3d 42 8f a5 bc
       0.2306369 -0.058558527 0.0727983 -0.020209912
0003e0 95 de fa 3c 40 6d 81 bd 04 7e ca bd 06 c9 e2 3d
       0.030623714 -0.06319666 -0.09887317 0.110734984
0003f0 ad e6 a8 be 63 f4 59 bd 84 cb 44 3d 7f fb 0a 3e
       -0.32988492 -0.05321158 0.04804565 0.135725
