results/LevelGen_SAC_NRS_001/LevelGeneration/LevelGeneration-499995.onnx (onnx, 286641 bytes, 6 tensors)

action_model._discrete_distribution.branches.0.bias f4 [4]
00000000: 8db8 383e b1ac 4c3d 6861 75be 8410 2b3d
0.1803915 0.04996938 -0.23962939 0.041763797

action_model._discrete_distribution.branches.0.weight f4 [4, 256]
00000000: 16f0 7cbc 1ab6 4fbd 037b 953d 7603 9fbc
00000010: 541c 40be 37f1 833c bf45 06bd ccfb 993d
00000020: da49 d7bc 8b8c 7ebd 908c 24bd c952 10be
00000030: 555b 1a3d 9d06 c5bd 8c1c 693c cb11 6e3c
00000040: 9575 07bd 86ee c23d 3dbd 3ebd 8864 fbbd
00000050: af53 a4bd eabb 74bc 89f3 a73a 550b c3bd
00000060: abc9 55bd 9eef 0e3c 4f3d 22bc e563 cebc
00000070: ab82 9ebd f848 343d 7ac2 acbc 86a2 16bd
00000080: b31b 2bbd 9ee2 1f3d ff2d 873d eeb6 22bc
00000090: 5e30 793d 55b5 47bd 4b00 f4bc b5e5 933c
000000a0: 487a 55bc 552d 2ebd 4428 823d 5e7e 9b3d
000000b0: 3a0b 473d 8c69 653c db24 cfbc d172 bebc
000000c0: 919c 31bd 159b 48bd e4c0 9cbc f795 ebbb
000000d0: b2bb 2a3c abb4 aabc c507 483d e47e e7bd
000000e0: 1f64 a6bc 0a0a 15bd da52 a7bd c73a 063c
000000f0: 182d 05bd 9b81 debc 2d98 ba3c ce57 183d
00000100: 2bd2 89bd 90de 6aba 5030 b0bc 7d74 55bd
00000110: ab4e 373d 122a abbd 7f4a ea3a 3292 c9bc
00000120: f440 213d c5a9 e23d d9ce 283d 2e43 52bd
00000130: b11b 3dbe 34d2 37bb 108c 83bc 016f 1c3d
00000140: edfc 473b 30b6 a93b f6ab d13c a60a 47bd
00000150: 842c 463d 0d50 afbb ac1c f3bb 6c82 353d
00000160: 1f65 2cbd 1321 e23b 9a18 4c3d 2209 96bd
00000170: 4ab3 36bd 0194 353c d7fe 963c 39c5 9fbc
00000180: c997 6abd 9d24 8abc 93a8 67bd 75c3 e2bd
00000190: 4d3b f9bc 5126 683c 853f b4bc 673e 4dbc
000001a0: 028b cc3d 5ac4 183d 81bf 7fbd d50c 6abc
000001b0: fa86 a8bc 9c92 c03a d13f adbc 3be5 1b3e
000001c0: 106c 1bbe 663a debc dd69 f2bb 0ede d4bc
000001d0: 813c 25bd 7043 ff3d d3cd 393c bd0a 75bd
000001e0: 9329 fa3d ecc2 84bb dbaf 30bd 25fa 0abc
000001f0: f1a5 4d3d bdff 84bc 2858 7fbd 14f4 5fbd
00000200: d620 5ebd f0b2 86bd 41b3 09bd cf0d 12be
00000210: e2ba 01bd dbea 64bc ee90 b83c d9b4 e43d
00000220: ad01 b7bd c062 21bc 32cb 453d 99bf 0bbd
00000230: 03ef 433d 1100 6c3c 323f b13b f4f6 89bd
00000240: 2e1e 9abd e9ff c6bc b04a eabc 4625 6cbb
00000250: aaf5 10bc 1693 4abe c891 fa3d 0f68 e1bc
00000260: f529 de39 86b6 833b 2a4e 4ebd e753 533d
00000270: 71b6 02bd 5609 f5bb cf1d abbc 9baa 40bd
00000280: 7ac8 ae3b 5332 483c 98d1 fa39 95fc 4fbc
00000290: b3e9 3abd 0113 0dbe 3181 88bd 2dc5 bfbc
000002a0: bd65 02bd b487 8a3c aa03 88bb 08b0 393c
000002b0: 630f a8bc 61e3 063d de05 1ebd 5d6d e5bc
000002c0: f8ab 7e3c 3c1a e6bd dd6e 68bd 5455 85bc
000002d0: e629 1bbd 7984 0b3d ff9f 663c 897f dcbc
000002e0: b92d 2d3b 4214 46bd 38de 30bd e4e3 5bbd
000002f0: 964b a5bd 1167 99bd 5a2d 503e 3f65 00bd
00000300: 4038 3dbd 368f 18bd 1ec0 8ebc bb44 bbbc
00000310: 7d56 e9bd 307d b6bc df2a ccbc a7f6 abbc
00000320: c0c0 1c3b 5643 55bc 5675 783b b16d 093e
00000330: 194c dfbd cafb 4d3c d712 9a3b 632a 00bd
00000340: 6d31 553b a568 373d d2d4 9d3d de75 403b
00000350: dfd2 da3b fdda e1bc af29 8ebd e12f 43bd
00000360: 04ab ef3c 552d 1ebd 5542 29bd d8b9 02be
00000370: c944 8a3d 2b9f e73b bbf7 7ebd ce06 87bc
00000380: d619 13ba 73aa e13c f10c 053d 9eb3 f2bb
00000390: 4a52 f9bc 81b9 e8bc 5d20 a33d e60c 033b
000003a0: dbe4 133d aa71 bcbb 90ec cebb f58a b53d
000003b0: d119 713d ac60 eb3c 7095 18bd ebde 823d
000003c0: 4b6d dd3b 107b 2dbd 7bca 343d 70d5 75bc
000003d0: 96c1 17bc 88fc 393d 4482 23bc 94c6 54bc
000003e0: a1e0 e1bc f9d6 df3d 09c4 b3bd eaf4 5cbc
000003f0: eb35 0a3d 882b 1c3d 9f8e 9b3a bcbf 613c
-0.0154381 -0.050710775 0.07298853 -0.01941083 -0.18760806 0.016106231 -0.03278136 0.075187296
-0.026280332 -0.06214575 -0.040173113 -0.1409408 0.037684757 -0.09620402 0.0142279975 0.014530609
-0.03307112 0.09518151 -0.04656719 -0.12275034 -0.08023774 -0.01493738 0.0012813668 -0.09523646
-0.05219428 0.008724121 -0.009902312 -0.025194118 -0.07739767 0.0440149 -0.021088827 -0.03677609
-0.041774463 0.03903448 0.0660057 -0.009931309 0.060837142 -0.048756916 -0.029785296 0.018053869
-0.013029642 -0.0425237 0.06355336 0.07592462 0.04859469 0.014002215 -0.025286129 -0.023248108
-0.043362204 -0.048976023 -0.019134946 -0.007189508 0.010420727 -0.020838102 0.048835535 -0.11303499
-0.020311413 -0.036386527 -0.081700996 0.008192725 -0.032513708 -0.02716141 0.022777641 0.037193112
-0.067295395 -0.0008959556 -0.021507412 -0.052113045 0.044752758 -0.08357634 0.0017874985 -0.024605844
0.039368585 0.11067537 0.04121289 -0.0513336 -0.18467595 -0.0028048875 -0.016057998 0.0381918
0.0030515746 0.005179189 0.025594693 -0.04859414 0.048382297 -0.005350119 -0.0074191894 0.044313833
-0.042088624 0.0069009154 0.04982815 -0.07325961 -0.044604577 0.01108265 0.018432064 -0.019503223
-0.05727366 -0.016863162 -0.05655725 -0.11072437 -0.030423785 0.014169292 -0.022002945 -0.012527085
0.09987451 0.03729663 -0.06243849 -0.014285286 -0.020572174 0.001469213 -0.021148594 0.15224163
-0.15177941 -0.027127456 -0.007397874 -0.02598479 -0.040340904 0.124640346 0.011340576 -0.059824694
0.12214961 -0.004051557 -0.04313646 -0.008482491 0.050207082 -0.016235227 -0.06233993 -0.05467613
-0.054230534 -0.06577098 -0.033618215 -0.1426308 -0.031672366 -0.0139720095 0.022530045 0.111673065
-0.089358665 -0.009850204 0.048289485 -0.03411827 0.04783536 0.014404313 0.005409145 -0.06736556
-0.075252876 -0.02429195 -0.028600067 -0.003603296 -0.008847633 -0.19782671 0.12234837 -0.02751544
0.000423744 0.004019561 -0.05036751 0.051593687 -0.03191227 -0.0074779196 -0.020888237 -0.047037702
0.0053339573 0.0122190295 0.00047839875 -0.012694498 -0.04563303 -0.1377678 -0.06665266 -0.02340945
-0.031835306 0.016910411 -0.0041508274 0.011333473 -0.02051515 0.03293169 -0.038579814 -0.02800625
0.01554393 -0.112354726 -0.056746352 -0.01627604 -0.037881754 0.034061883 0.014076232 -0.026916282
0.0026424958 -0.048359163 -0.043180674 -0.05368413 -0.080710575 -0.074903615 0.203298 -0.031346556
-0.046196222 -0.03724595 -0.017425593 -0.022859922 -0.113934495 -0.02227649 -0.024922786 -0.020991636
0.00239186 -0.013016542 0.0037911735 0.1342075 -0.10903186 0.012572238 0.004701953 -0.031290423
0.003253068 0.04477753 0.07706608 0.002936713 0.00667797 -0.027570242 -0.06941544 -0.047653083
0.029256351 -0.03861745 -0.041323025 -0.12766206 0.06751401 0.007068535 -0.062247973 -0.016482737
-0.0005611455 0.027547097 0.032483045 -0.007406666 -0.030434746 -0.028408768 0.07965157 0.0019996702
0.036106925 -0.0057508545 -0.0063148215 0.088643946 0.05886251 0.02873262 -0.03725189 0.063901745
0.0067574135 -0.04235369 0.044138413 -0.015004501 -0.009262463 0.04540685 -0.009979788 -0.012986798
-0.027572932 0.10929675 -0.08777625 -0.013486126 0.033742826 0.038127452 0.0011868066 0.013778623

network_body._body_endoder.seq_layers.0.bias f4 [256]
00000000: d432 e33d 5b69 ed3c a05e a8bc 10ae 273d
00000010: 3128 333b 54b0 b3bd 5acf 28be 30fc 3e3e
00000020: 21b7 0fbb 8672 95bd 0d6a af3d 9274 2b3c
00000030: c436 dcbd 6124 9a3c 817b 83bc 084d c1bc
00000040: 339b 693d f27b 48bd aa74 cf3d a8dc 3cbe
00000050: 2930 56bd 67ed 9a3d 9c44 083d 468f 0c3e
00000060: be03 d9bc b92a 75bc 76f8 dd3d 0df7 9a3d
00000070: 8c51 513c bb70 ec3d ab8b ecb9 6623 2f3e
00000080: 2702 9e3d d11e 9cbb 7a46 043e 9813 bebd
00000090: ad52 c43d 71db 18be f9fd c23d 62db a73d
000000a0: 7847 5bbe f171 9c3d 5a04 233e 97f0 ebbd
000000b0: 2a41 453e 79c4 a3be 9e2c 03be 430d 803d
000000c0: e387 103d 77ea a53c c66c 8f3d 7291 53bc
000000d0: a916 7f3c e4ca 54bc b889 283d 78f8 bbbd
000000e0: e84a 823d 9b75 243d 9d60 0bbd 677b 0dbb
000000f0: d8e4 373e 10ba 323e 8a87 f1bd 683c ca3d
00000100: e4f3 963c c638 203d b202 16be 1707 823d
00000110: b716 333d a11e aabd b82f b5be ec16 64bd
00000120: 2232 093d 1d12 b4bd e3e0 2c3b ec49 1bbe
00000130: 5952 0dbe 0321 173e cd3f 213c 8d86 d63d
00000140: 6a3b f23d 2031 b53d b72d 40bc 0355 823d
00000150: eee3 4c3d 4821 d8bd 8c53 a53d e145 adbc
00000160: ab92 1c3e a56c 29ba 6cf7 8abd 3000 e0bc
00000170: d13b 143e 7c0f e93b b223 13bd f8a0 4fbd
00000180: 0c4d 3d3e 7dd7 963d 6201 3c3e 45dd 8bbd
00000190: f0b1 90bd 71ad 2a3e 93be b4b9 06d5 0b3d
000001a0: d2c9 48be 5838 9a3c 21d5 b7bd 09cc cd3d
000001b0: cec8 8e3c 1c93 bf3d 1d79 22be d9f4 fabc
000001c0: a115 50bd b26b a13d 0c5b 453d f9f1 aabc
000001d0: 0566 293d 1fd6 b5bd 83d8 c83d 4bb3 2cbe
000001e0: 52c9 6c3d 4f48 053e acbe e33d 80e9 cfbd
000001f0: a201 83bb a7cc 253c 411d 0fbd d1ec 3c3d
00000200: 04b8 53bd f5c5 4dbd a60c 3b3e 7945 38bc
00000210: c5fa 1bbe a43c cf3d aad2 c0bd 5be9 13be
00000220: 5088 2ebe 5e3b 2e3e e25e 11be 0dd6 393d
00000230: 61b3 623d 7e7d c53d 1936 9c3d 4ff1 3e3d
00000240: a516 1b3d bc41 31be 5d3b 9f3b af36 133b
00000250: 0b6a 36bd a53e 203e e251 053e 086b afbd
00000260: c45e 1bbc fa85 66bd 3763 253c 4d2f 993c
00000270: 3033 6b3e 988c 93bd fe3c 3c3d 5bfe fdbc
00000280: ab73 083c 202c 033d 18df 96bd 5db4 32bd
00000290: a77e 0bbd 33a1 e1bc a59b 8b3d 8d4d b7be
000002a0: 14de 033e cd9e e33d 8397 e0bc d9dc e03c
000002b0: 1e51 8b3d 022d 4ebd 038d ed3c 45a7 17bc
000002c0: 5ee5 8a3d fdd8 26be bc8e 02be 78f1 fc3c
000002d0: 80a8 01be ae1e a93d 7b08 773d 1590 183d
000002e0: 7643 413e e47d 10bd 2d05 73bd fbc7 1dbb
000002f0: fd94 06be 8856 c63d 5a0f fa3b 3a81 22be
00000300: 9445 0cbd 120c 85bd 0d49 a53d 8720 b23d
00000310: 8041 ae3d 4f2d 833d 1bf7 af3c e498 febe
00000320: 62ee 1e3e 7fbb 943d 854e 61bd f994 c8be
00000330: 0c3f acbd 5014 0a3c b1d5 82bc 287f b63d
00000340: 845b 40bd fd00 753d 35b5 683d 581f 51bd
00000350: 9993 113e 7362 043e 1473 48bd 6812 cc3d
00000360: 61a7 8dbd 17fc b83c 96c4 5ebc 5669 a63d
00000370: 249b 7cbc 5fbe ec3c 431d e03b 58ef 0ebb
00000380: 22eb 80bd ac19 a9bd 7bcc 0a3d f8da 1b3c
00000390: f51f c5bc db32 533d 48af 21bd 81db 27be
000003a0: 3751 fdbd a80f 7fbe 6c3c 223d cb54 973d
000003b0: db45 273d 7208 a83c 7ee7 9b3c 348e 963d
000003c0: cf45 4ebe e17f 893d cee8 493d 21bf 903d
000003d0: d601 c23d 18d2 4d3d 69d0 bc3d 26a2 42bd
000003e0: b45f c73d 36f5 b1be 23da d9be 14da f03d
000003f0: 51a2 f33b 8ecf 853d ed14 cd3c f1df 363d
0.11093679 0.028980901 -0.020552933 0.040937483 0.0027337188 -0.08773866 -0.16485348 0.1865089
-0.0021929222 -0.07297234 0.085651495 0.010464804 -0.10752633 0.018816175 -0.016050102 -0.023596302
0.057032775 -0.04894633 0.10129674 -0.18443549 -0.052292023 0.07564812 0.033268556 0.1372653
-0.026491042 -0.014963799 0.10838406 0.075666524 0.01277579 0.11544939 -0.00045117488 0.17103347
0.07715254 -0.004764416 0.1291751 -0.09281081 0.09586082 -0.1492746 0.09521098 0.08196141
-0.21413982 0.0763892 0.15919629 -0.11520498 0.1926314 -0.31985834 -0.12809989 0.062525295
0.03528584 0.020253403 0.07003169 -0.012913095 0.015569367 -0.012987826 0.041146964 -0.09178251
0.063619435 0.04015122 -0.034027684 -0.0021588446 0.1795839 0.1745379 -0.1179343 0.09874803
0.018426843 0.039116643 -0.14649466 0.063490085 0.043722834 -0.08306623 -0.3538797 -0.055685923
0.033495076 -0.08792517 0.002637916 -0.15164918 -0.13800944 0.14758687 0.009841871 0.10474882
0.118277386 0.088472605 -0.011729649 0.06363871 0.05002206 -0.10553223 0.08072576 -0.021151485
0.15290324 -0.00064630277 -0.06785473 -0.02734384 0.14475943 0.0071124416 -0.035922714 -0.05069062
0.18486422 0.0736532 0.18359903 -0.06829313 -0.07065189 0.16667725 -0.00034474264 0.0341387
-0.19608238 0.018825695 -0.08976198 0.10048682 0.017429736 0.09354231 -0.15866514 -0.03063433
-0.050801877 0.078818694 0.048182532 -0.020867335 0.04135706 -0.08878731 0.09806921 -0.1686527
0.05780918 0.13015865 0.11120352 -0.101519585 -0.0039979974 0.010119594 -0.034940008 0.046124283
-0.051689163 -0.050237615 0.18266544 -0.011247032 -0.1523238 0.10118988 -0.09415181 -0.14444487
-0.17044187 0.17014834 -0.14196351 0.04537015 0.05534685 0.09643076 0.07627506 0.04661685
0.037863392 -0.17310232 0.0048593716 0.0022463014 -0.044534724 0.15648897 0.13019517 -0.085653365
-0.009483043 -0.056280114 0.010094455 0.018699313 0.22968745 -0.072045505 0.045956604 -0.031005075
0.008328359 0.032024503 -0.073667705 -0.04362904 -0.034056332 -0.027542686 0.06816796 -0.35801354
0.12877685 0.11114273 -0.027415996 0.027449058 0.06802581 -0.05033589 0.028997904 -0.009256189
0.067820296 -0.16293712 -0.12749761 0.03087686 -0.12661934 0.08257805 0.060310822 0.037246782
0.1887339 -0.03527631 -0.059331108 -0.0024075496 -0.13142772 0.09684473 0.0076312246 -0.15869609
-0.034246042 -0.06496443 0.08070574 0.0869761 0.08508587 0.06405126 0.021480134 -0.4972602
0.15520623 0.072623245 -0.055006523 -0.39176157 -0.08410463 0.008427694 -0.015971037 0.08910972
-0.046962276 0.059815396 0.056813437 -0.051055282 0.1421646 0.1292818 -0.048937872 0.09964448
-0.069166906 0.022581143 -0.013596674 0.0812556 -0.015417848 0.02889937 0.006839426 -0.002181014
-0.06294848 -0.0825685 0.033886414 0.009512655 -0.02406309 0.05156217 -0.0394738 -0.16392328
-0.12369006 -0.24908316 0.039608404 0.0738922 0.040838104 0.02051184 0.019031283 0.07351342
-0.20143817 0.06713844 0.049294285 0.07067705 0.094730064 0.05024919 0.092194386 -0.047517918
0.09735051 -0.34757394 -0.42549238 0.11760345 0.007435121 0.065337285 0.025034392 0.04464716

network_body._body_endoder.seq_layers.0.weight f4 [256, 16]
00000000: b142 b5be 9c1f 3abe 5ba3 3abe 8581 353e
00000010: 4c97 e63e 2d6e 3fbe b8d8 6dbe 51e7 81be
00000020: 419e 39bf e3e6 ff3d 384d 46be 9c7e 803e
00000030: 5f40 37be 37cf fdbd c35a b7be 7326 9cbc
00000040: fa05 3d3e c34a 6fbe ff36 4f3e 7202 fc3e
00000050: 2690 8a3d 30b5 033f 649c a93d 000a 893e
00000060: 2a09 55be faf5 4fbc c50f 2abe 4eaf 93be
00000070: ca5b fdbe e7c1 2dbf bd76 21be b4b0 4c3e
00000080: cf2c e5bd d8b1 423d 959a 52be 6f0a 55be
00000090: 4e3f dcbe 279b 29be a92c 083d 3959 c7be
000000a0: ca0c 58be f6e5 433d b13a 14bf ae1b 51be
000000b0: e323 4dbd da16 09bd 7856 6b3e 5826 27bd
000000c0: ceae 74bd 4bfe 63be 60ba 6d3e 7621 6e3e
000000d0: f22d 5abe 7f2a f7bd debd 833e d8e3 42bd
000000e0: a1c6 e3be da1e dd3e c709 e6bd 7c65 94be
000000f0: 728c a73e 73e3 6ebe b34c a03e 2762 4d3d
00000100: 89b8 69be f7b7 4dbe 63b7 23be fdc1 ccbe
00000110: 4a6e c13e 6571 2dbe d52e 13bf 788a fe3d
00000120: a77e b0be 2924 a4be f0c1 6cbd 5cf2 a83e
00000130: 057e f6bd d8b5 0ebe 5e45 adbe fb92 b4bc
00000140: e4de c13d 9b5a 283e d075 303e b34b 223c
00000150: 97c4 b9be 75a4 823e ec21 9d3d a13d 48be
00000160: 3dcb 323e d7cc 3ebe acdc d5bd be68 363e
00000170: 95ef 153c 63b3 313e 8602 27be 4709 02bf
00000180: 0d60 9dbd 1e1b c33e d66a f3bd fbb7 043e
00000190: acbb 42be ff62 e53d 349f b83e 2b26 9b3e
000001a0: d79b e5be 1180 41be 5eeb 063e e095 dfbd
000001b0: ccef 9b3e bf2a b6bd c547 85be ec87 7cbe
000001c0: 163d eb3c 0ae3 d93b bab4 de3d 65bb 60be
000001d0: b4e5 cf3d 4d91 7cbe e87a 8cbe 0da8 e1be
000001e0: 5a6c 51bd 485e 00bf c283 b1be c99e 473e
000001f0: c70a bc3d ec33 2fbf df24 473e 760c 9b3e
00000200: fa3b dfbd 0c1c e33d 8805 88bd 9c3e 983d
00000210: 38d4 653e 65cf 993e 58e9 303e 8648 4d3e
00000220: caf9 c0b8 49fa bfbe 0d92 a3be 9a74 65be
00000230: aede 41be 5fd9 a8be 7f33 afbc 0479 e2bc
00000240: 3b3a b2bd b43c 26be c9a2 643e 3af6 8cbd
00000250: 9f39 383e e7ef 453c 0545 13be 3850 45be
00000260: 1fe0 e33d 386e c23e e2c2 c33d 281e 27be
00000270: 3f10 02bd f467 f53d cdcb fd3c 77d1 fcbe
00000280: 1f70 3fbe 83ae 1cbf ef95 c53c 618c 603e
00000290: 499c 82bf ca19 b13d ccc5 3a3f 598a 023e
000002a0: 54fc ad3e 3b4e 0a3f d7a8 743d 877b b13e
000002b0: 6d99 b23c 176f 16be 58ca eebe ca2e 243d
000002c0: 1288 0ebe 634e fdbd c111 bfbe 077b 123e
000002d0: 72e2 cfbb 761e f0be c08f acbd b649 babe
000002e0: c534 8abe 134c 633c 7cbf a8be 447d 0cbc
000002f0: 6004 ae3d b866 34be 4198 45bd 4539 d8bc
00000300: 062e 943d 0021 593d 91ab 0e3e 85f2 023e
00000310: 1ed3 b7bd caa5 a73e 5d44 df3d e961 0e3e
00000320: 5b22 d2be 10e6 8f3e 86ae b93e 584d f9bb
00000330: c1c5 9bbe 88d2 6d3e 1bf1 323e 1ff4 93bd
00000340: 4e6f cd3e 3572 77be bc42 413e 7f57 a6be
00000350: e581 873e 3c3b 22be 1764 313d 5471 c23e
00000360: 1db5 e83d b26d 303d e002 63bf a1fb 57be
00000370: f5f6 a93e 97ba d4be 13d5 b6bd 9fc7 eebe
00000380: 16a6 b03d ae19 b83d 818b 073d 8045 0fbf
00000390: f15e 44be 0e72 2ebe b5b7 e7bd 34d9 d1bd
000003a0: 1165 38be 5854 23be 133b c8bd 8933 1bbc
000003b0: 9b26 a9be c90c a8be bdc0 e1bc 2a6c 83be
000003c0: e28b ce3d 4faa 36bc 90cc 87be f441 a13e
000003d0: 22af 3abe 5cfc 813e cec7 763e b0e4 233e
000003e0: 38f5 04bf 9bc0 99bd 5ec0 c63e 3a05 1cbe
000003f0: 1cae fb3e b80b ffbe 0393 8fbd 7abf 6fbe
-0.35402444 -0.1817612 -0.18226378 0.17725189 0.45037305 -0.18694372 -0.23227203 -0.25371793
-0.725071 0.1249521 -0.19365394 0.25096595 -0.1789565 -0.12393039 -0.35811433 -0.019061303
0.18459311 -0.23368363 0.20235823 0.49220616 0.067657754 0.51448345 0.08281782 0.26765442
-0.20804277 -0.012692923 -0.16607578 -0.28844684 -0.49484092 -0.67873996 -0.15767951 0.19989282
-0.11190187 0.047532886 -0.20566781 -0.20804761 -0.43017048 -0.16563092 0.033245716 -0.3893526
-0.21098629 0.04782673 -0.57902056 -0.20420715 -0.050083052 -0.03346906 0.22982204 -0.04080805
-0.05973702 -0.22264974 0.23215628 0.23254952 -0.21306589 -0.12068652 0.25730795 -0.04758057
-0.4448748 0.431876 -0.11232334 -0.28983676 0.3272434 -0.23328952 0.31308517 0.050142433
-0.22824301 -0.20089708 -0.15987925 -0.3999175 0.37779456 -0.16937788 -0.57493335 0.124287546
-0.34471628 -0.32058838 -0.05780214 0.32997406 -0.12035755 -0.13936555 -0.33841985 -0.022042742
0.09466341 0.16440813 0.17232442 0.009905743 -0.362828 0.25516096 0.07672486 -0.1955476
0.17460342 -0.18632828 -0.104424804 0.17813393 0.009151359 0.17353587 -0.16309556 -0.50795406
-0.07684336 0.38106626 -0.11885612 0.12960808 -0.19016904 0.11200523 0.36058962 0.30302557
-0.4484546 -0.1889651 0.13175723 -0.10917258 0.30456388 -0.08894872 -0.26031318 -0.24661225
0.028715651 0.0066493796 0.108743146 -0.21946485 0.10151234 -0.24664803 -0.2743752 -0.44073525
-0.051128723 -0.5014386 -0.34670836 0.19494165 0.09181743 -0.684386 0.19447659 0.30282944
-0.109001115 0.11089334 -0.0664168 0.07433817 0.22444236 0.30041042 0.17276514 0.20047197
-9.2018e-05 -0.3749564 -0.31947365 -0.22407761 -0.18932602 -0.3297834 -0.02138686 -0.027645595
-0.08702513 -0.16234094 0.22327723 -0.068829015 0.1799073 0.012081123 -0.14381798 -0.19268882
0.11126732 0.37974715 0.09558655 -0.16320097 -0.031753775 0.11982718 0.030980969 -0.4937856
-0.18695115 -0.61203784 0.024119345 0.2192855 -1.0203944 0.08647497 0.72958064 0.12748088
0.33981574 0.5402562 0.05973133 0.34664556 0.021801675 -0.14690815 -0.4663875 0.040083684
-0.13919094 -0.12368467 -0.37318233 0.14304744 -0.006344133 -0.4689824 -0.08425856 -0.36384362
-0.26993385 0.013873118 -0.3295859 -0.0085747875 0.08496928 -0.17617309 -0.048240904 -0.026394496
0.07235341 0.053009987 0.13932635 0.12787826 -0.08975814 0.32743675 0.10901711 0.13904537
-0.41041836 0.2810521 0.36265963 -0.007608097 -0.30424312 0.23224843 0.17474787 -0.07224297
0.4012398 -0.2416466 0.18873113 -0.3248863 0.2646629 -0.15842909 0.043308344 0.37977087
0.113626696 0.043073364 -0.8867626 -0.21092083 0.33196226 -0.41548607 -0.089273594 -0.46636674
0.086254284 0.08989273 0.033092026 -0.55965424 -0.19176842 -0.17035696 -0.11314336 -0.10246506
-0.18007304 -0.15950143 -0.097768925 -0.009472736 -0.33037266 -0.32822254 -0.027557725 -0.2566846
0.10085274 -0.011149003 -0.26523256 0.3149563 -0.1823087 0.25387847 0.24099657 0.16005206
-0.51936674 -0.0750744 0.3881864 -0.15236369 0.49156272 -0.49813628 -0.07010462 -0.23412886

network_body._body_endoder.seq_layers.2.bias f4 [256]
00000000: 9f7a 06be 7959 8dbe 3f69 dabd 4ee6 dbbc
00000010: 74da 49bc 4824 efbd a5fa 67bc 5218 19be
00000020: 0d2f 87be 3deb b4be fedf c9be d26b a3bd
00000030: 2f14 1abe 37db 7bbc 4acc 93be 61f5 44bd
00000040: c054 d1be d2bf 80bd cdbb 9abe 85e0 09be
00000050: 8094 babe d72a 25be 179d 47be 4e18 42bd
00000060: 1316 afbe 4c37 53be f993 59be 09e5 bdbe
00000070: d654 b9be 760a 18bd 6e3e a0be d5f6 61bd
00000080: 16a9 4fbe a84b a5bd ff6d 6cbd 005e bdbe
00000090: c2c4 3cbe 84c8 93be aabb 5dbe 7a31 4abe
000000a0: 88e1 a5be 1091 bbbe be92 b7bd a1f3 92bc
000000b0: 221c 44be 22a4 2fbe 6602 a1be 7f46 a6be
000000c0: daf0 9ebe 0c8d c3be babe 59be da56 c9bd
000000d0: 2dd2 45be c389 a7be 20f0 fbbd 7064 4fbe
000000e0: 912c eebd f0d4 a4be 8b35 c3be 57da 63be
000000f0: ea5b a8be 749e c6be a4de 61bd e56b 05be
00000100: 4f06 9cbe 410c 85bd 6871 78be 41de b5be
00000110: 6030 82bd 9c32 cdbe 82dc ecbd 9040 1ebe
00000120: 0898 bebc 4afd 2bbe 83c3 88bc 6fa6 bcbe
00000130: ef33 11be c72b a1bd eecf e8be 075d 49be
00000140: 3482 55be d580 82be 8307 8abd 021d ca3b
00000150: 8d54 46bd c26f e2bd ce01 5fbe 4c6c 69bd
00000160: 08de 4fbe 6e85 48be 8ab6 59be cbbd b9be
00000170: 434a 6ebe 2bf0 4fbe 4e79 61be 53c7 52be
00000180: abf9 cebe eed4 fcbd a233 4dbe bf9d 81bd
00000190: 4131 a2be adfa 62bd ddf0 8ebe 2f00 97be
000001a0: aa09 78be dfd3 d9bd bce5 bdbd f8ef 38be
000001b0: 2b88 aabe 5dcd 36be b4d9 34be b2fd 9a3d
000001c0: ed75 46bd 50f4 b5be 69a8 73be 4eff 50be
000001d0: b61e 80bd d546 43be 1cbd 56bd 285a 83be
000001e0: 168a 343c 48d4 82be d42e 9dbe b5dd cbbc
000001f0: 29ab c5bd 17bf f9bd 2441 d7be d9ab cbbe
00000200: 0cfe 68be a38a c9be 0223 c8be ccee 6cbc
00000210: bdab 76be 513b a9be bdec 37be 8df1 a5bd
00000220: 7441 babe aa9e 78be 8ed5 5bbd b911 90be
00000230: 70bc 78be 5519 70bc 0cd5 56be c05a c3be
00000240: cd8d c2be c32b 50bd 0afe 84be 805b 333c
00000250: b8db 48be 5707 bebd d3dc 943c 9745 acbe
00000260: 86ba 8fbe ebe2 a6ba d07e b8be e33c 25bd
00000270: dd82 9abe fd3c e2be 8219 51be 11af 54be
00000280: a80b 0abf 4685 37be 2025 81be e508 30be
00000290: 0974 59be cb64 cbbd 3566 c7be cafb 00bd
000002a0: 2339 bdbe 99eb 09be 1882 5cbc 087a 8abd
000002b0: 92b7 04bc 8138 53bd cf9e a6be b691 39be
000002c0: f27c 00be 8e28 8dbe 77c7 c4be 0040 8ebd
000002d0: 33e2 38bd 5640 abbd 2e98 8fbe d947 70be
000002e0: aac5 86bd d6c0 57be 625c a8be ee57 61be
000002f0: 6400 c2be a3da adbd df8d 1bbe 8dfd 9cbe
00000300: cb0b 76be d19e a1be 8edc b8be 44ad 94be
00000310: deaf b5bc 6fdd dcbd 82ff 24bd d80d c6be
00000320: 7ce1 c1be b324 7ebe 9aba cebd 4e8d 2cbe
00000330: f3bf a6be b5a2 6fbd 3cb2 b5bd 6a7c 523b
00000340: bdb2 0dbd 02b7 96bd d59d 38bd 57e3 6dbd
00000350: 1ff2 aabc f52c 9dbe db25 4bbc 8b78 a1be
00000360: 14a9 09bd 4b32 31be c703 c9be 18be 82be
00000370: 60d5 18be 4a9c 3cbc 6e31 d0be 8fe5 96be
00000380: 7fc9 39bd 393b 29be ef95 6bbd 810b 5dbe
00000390: 8ae3 dcbe faa0 0cbe 8af2 9bbd ff69 bdbc
000003a0: ca4c f8bd 5aad 96be d690 a1be 4d99 24be
000003b0: b08b 0dbe a921 73bd 61a6 87be f2b9 eabc
000003c0: 5093 84be 0a13 b1be 19a5 82bd 2664 b0be
000003d0: d8f9 7fbe b55b 4ebe 7f8d a4be a3e1 90be
000003e0: 867c 89be 4927 09be 5e00 6dbe c5b3 2abe
000003f0: ad7f 13be b713 82bd c7e4 58be 63de 12bc
-0.13132714 -0.27607325 -0.10664605 -0.026843216 -0.01232015 -0.11676842 -0.014158879 -0.14950684
-0.26403084 -0.35335723 -0.39428705 -0.079795495 -0.15046762 -0.015372089 -0.28866798 -0.048085574
-0.40884972 -0.06286587 -0.30221406 -0.13464554 -0.36441422 -0.16129623 -0.19493519 -0.04738646
-0.3419653 -0.20626563 -0.21247853 -0.37088802 -0.36197537 -0.03711935 -0.3129763 -0.055167038
-0.20279345 -0.08071071 -0.057722088 -0.3698578 -0.18434432 -0.2886392 -0.2165362 -0.19745436
-0.3239863 -0.3663411 -0.08963536 -0.017938437 -0.19151357 -0.17152455 -0.31447142 -0.3247566
-0.3104313 -0.38193548 -0.21264163 -0.09831019 -0.19318457 -0.3272229 -0.123016596 -0.20253158
-0.11629594 -0.32193708 -0.38126788 -0.22251259 -0.32882625 -0.38792765 -0.055143967 -0.1302944
-0.30473563 -0.06496478 -0.24262011 -0.3552113 -0.06356883 -0.40077674 -0.11565496 -0.15454316
-0.023265854 -0.16795841 -0.01669479 -0.3684573 -0.14179967 -0.07869678 -0.45471138 -0.19664393
-0.2085045 -0.25488916 -0.06739714 0.006168009 -0.048420478 -0.11056472 -0.21778032 -0.056988046
-0.20299542 -0.1958215 -0.2126104 -0.36277613 -0.23270516 -0.2030646 -0.2201893 -0.20583849
-0.40424857 -0.123453006 -0.20039228 -0.06328916 -0.31678203 -0.055414844 -0.2791814 -0.29492328
-0.24222437 -0.10636114 -0.09272334 -0.18060291 -0.33307013 -0.17851777 -0.17661172 0.0756792
-0.048452307 -0.35537958 -0.23794712 -0.20409891 -0.06255858 -0.19069989 -0.052426443 -0.2565472
0.01101925 -0.25552583 -0.3069979 -0.024885992 -0.09651787 -0.121946506 -0.42041886 -0.39779547
-0.22753161 -0.39363584 -0.3908921 -0.0144612305 -0.2408895 -0.33053067 -0.17961402 -0.08102713
-0.36378062 -0.24279276 -0.05367046 -0.2813852 -0.24290633 -0.014654477 -0.20979708 -0.38155174
-0.3799881 -0.050822984 -0.25975066 0.010947108 -0.19615066 -0.09278744 0.018171703 -0.33646843
-0.28071994 -0.0012732422 -0.3603425 -0.04034127 -0.30177966 -0.44187155 -0.20419887 -0.20769908
-0.53924036 -0.17921934 -0.25223637 -0.17190893 -0.2123567 -0.09931334 -0.38945165 -0.031490125
-0.36957654 -0.1346878 -0.013458751 -0.06761557 -0.008100407 -0.05156756 -0.32543036 -0.1812199
-0.12547663 -0.27570003 -0.3843343 -0.06945801 -0.045137595 -0.083618805 -0.2804579 -0.23464908
-0.0658067 -0.21069655 -0.32882982 -0.22006199 -0.37890923 -0.08488967 -0.15190838 -0.30662194
-0.24027936 -0.3156648 -0.3610577 -0.2903844 -0.022178587 -0.107844226 -0.040282734 -0.38682437
-0.37867343 -0.24818687 -0.10094185 -0.16850778 -0.3256832 -0.05850478 -0.08871886 0.0032117614
-0.034594286 -0.07359125 -0.045072395 -0.058078136 -0.020867405 -0.30698362 -0.012399162 -0.3153728
-0.03360851 -0.17304341 -0.39260694 -0.25535655 -0.14925146 -0.011511872 -0.40662712 -0.29472014
-0.045358177 -0.16526498 -0.057516035 -0.2158642 -0.4314235 -0.13733283 -0.0761462 -0.023121832
-0.12124021 -0.29429132 -0.31555814 -0.16074105 -0.13822818 -0.059358273 -0.26494125 -0.028653119
-0.2589364 -0.34584838 -0.06379146 -0.34451407 -0.24997652 -0.20152171 -0.32139203 -0.28297147
-0.26852816 -0.13393892 -0.23144671 -0.16670139 -0.14404173 -0.063514166 -0.21181022 -0.008964154

network_body._body_endoder.seq_layers.2.weight f4 [256, 256]
00000000: d2e2 d03e 579f 4cbe 2514 083e 3cd2 e13d
00000010: 076d ce3e f4d8 dc3c 4e6b 91bd 997b dc3e
00000020: 6a97 eebd 5e9a 1f3c ef62 963c bd3e 8e3e
00000030: 1cbb 9fbb 2895 8ebc e16d f73d 3606 843e
00000040: 9186 ba3d 0bac 743d d8a1 c93e e818 0dbe
00000050: 656d 4ebe e189 703e 55bc 39be 3155 073d
00000060: 2981 f93d 7c76 633d bacd 483c 1b64 183d
00000070: 6e9b 9ebd 5e54 413e 52c3 84bd bceb 76bd
00000080: 1f33 903d a010 a1bd f0a4 983e 2429 ecbc
00000090: 7404 b2bd 167b 28bd eaae 823e d2e8 2abe
000000a0: 96d6 9e3d 41bf e6bd ed07 9a3d da5e b2bd
000000b0: 1b3c ad3d dca1 0a3d 7f7a 19be 344b 65be
000000c0: bde5 0d3d fe70 3dbd 6380 093d a4a4 82be
000000d0: 41b7 1abe 5878 123e e76e 17bc 3eb9 febd
000000e0: 3572 41be 09d5 11be 471f 8a3e 1b06 063e
000000f0: 8508 36bd 3004 34bd 81e0 3cbc 562c 2fbe
00000100: fdb6 bfbd fa26 283e 7ba6 0dbd d40d 1e3e
00000110: 6cb1 903e 181b 93bd 3831 33bc 51a7 003e
00000120: 8226 83be b541 2a3e f81e a13d 3fc3 8e3d
00000130: 2f6a 6cbd 5d10 bbbd 410c 763e b769 353e
00000140: 673a 773d 0f2d 09bb 989f 623d 49b4 3d3e
00000150: 4fb4 493c 3e8b 42bd 9184 c7bd 2bee a43d
00000160: ef7d d03d 52a4 c63d f5cf 6f3e ed16 16bd
00000170: c978 9e3e fd50 72bc e74e a53e 248d 95bd
00000180: 1ccd 913e 4236 313e 7516 bd3e bd20 e03d
00000190: 57ba 20be c688 cebe 2896 aebe 32e9 89be
000001a0: 5e31 36be f4cd b2bd 3702 9b3d 110c acbe
000001b0: ef20 003e c2ce d13e 967d efbc 73b5 45be
000001c0: c793 93be 5078 8b3e 265b 5dbe 9b5b 013e
000001d0: 8285 8d3d 4e7f acbc 5aa7 3c3e 2d6e bebd
000001e0: cfaf 4f3e 86c4 073d 8b86 8c3d 679c b13d
000001f0: 3c07 943e bf49 94be f421 553e f96b 103e
00000200: 905d 403d da08 09be d96b c23d aa0d 69bd
00000210: 2de4 5cbe 1e0c 003e 0fbc 75be cc36 3abd
00000220: bc78 37bb 2851 13be 7e1d 9d3e a0e9 a2be
00000230: 25b7 773e d19a 293e 67e5 143e b509 a83d
00000240: da9c 7ebe 02d7 37bc 45af 263e 1c27 8c3e
00000250: eaf8 df3c 9eff f53d 8c53 1e3e 63e7 7fbc
00000260: f67f 2bbe da23 153e 8040 91bd d4b6 0c3e
00000270: 2ec9 133e f9db a03d c34d 3a3e b056 d0bd
00000280: 73df 82be a5b6 28b9 526e 32be 7ec1 21be
00000290: cc5e 29bd 27d2 97be 5353 573e 7826 1fbc
000002a0: 090e 1f3d 1846 1cbe 0ff1 03be 746a ed3e
000002b0: f486 76bd 9cd4 7d3e 2cac d3bd cda4 18bc
000002c0: 8101 1cbd 2bac 233e 0ce3 6fbc 164f a43e
000002d0: a032 b43d 6759 4d3e 084b 6dbd 6337 52be
000002e0: 6bd8 b1bd 9ef9 aebd bf76 5a3d 9cf1 a33e
000002f0: dab3 96bd e368 b63d ef4a 36be a4ee c23d
00000300: 33aa 84be 1cd2 8c3e d500 cb3d c576 103d
00000310: ede6 edbe 694b 79bd 17d2 60be 9b17 08be
00000320: 9df9 e93d cae2 b1bd 3e44 4dbe 5e21 febc
00000330: 4255 2e3e a476 483d f7de f83d 1a0e 223d
00000340: 875c 2ebe 5b12 603e 6d73 cfbe c1ed a33d
00000350: 50ba 1c3e 6e5a 023e e61e 2a3c 0f5e ea3d
00000360: ea02 083d 5124 583e 4ad2 1cbd 4a8f 61bd
00000370: 165a 753d 83d2 8abc a73a 1e3e 3494 1bbe
00000380: f6a9 88be e1b9 4fbd 7ea4 c5be ff25 883e
00000390: 4618 7abe f693 1d3e 9d70 19bd d2b0 123d
000003a0: c705 31bd 301e 1f3e 15dc 633e e5ad 043e
000003b0: 4538 8fbe f687 06be 0277 c03d a2d4 5c3e
000003c0: cfd1 533b f4b6 993d c797 9f3e 3154 bbbe
000003d0: e511 3a3c 902e 73be 7d45 4bbe 1bc4 f3bd
000003e0: 2725 9b3e 15fb 05be b34f 12be 4ba3 2e3e
000003f0: 7c4b 283e 307c 553d 24dd c7bd 47af 323e
0.4079805 -0.19982658 0.13288935 0.11026427 0.40317556 0.02695892 -0.07100545 0.43063048
-0.11649974 0.009741394 0.018357722 0.2778224 -0.0048746 -0.017405108 0.120815046 0.2578599
0.09107698 0.059734385 0.3938129 -0.13779032 -0.20158918 0.23490097 -0.18138249 0.03304023
0.121828385 0.055532917 0.01225608 0.037204843 -0.077444896 0.1887984 -0.06482567 -0.060283408
0.070410006 -0.07864499 0.29813337 -0.028828211 -0.086922556 -0.04113301 0.25524074 -0.16690376
0.07755773 -0.112669475 0.07521043 -0.08709498 0.0845873 0.033845767 -0.14988135 -0.22391969
0.034642924 -0.046250336 0.033569705 -0.25516236 -0.15108968 0.1430372 -0.00924275 -0.12437676
-0.18891223 -0.14241423 0.26976988 0.13088267 -0.04444172 -0.043949306 -0.011528135 -0.17106757
-0.09361074 0.16421118 -0.034582596 0.15434963 0.28260362 -0.07182902 -0.010937028 0.12563826
-0.25615317 0.16626628 0.07867235 0.06970834 -0.057718452 -0.091339804 0.24028112 0.17716108
0.06035843 -0.0020931398 0.05532798 0.18525805 0.012311055 -0.047496073 -0.09742082 0.080532394
0.1018027 0.0969931 0.23419173 -0.036642957 0.30951527 -0.014789817 0.3228676 -0.07302311
0.284768 0.17305854 0.36931196 0.10943744 -0.15696083 -0.40338725 -0.34098935 -0.26935726
-0.1779227 -0.08730689 0.07568782 -0.33602956 0.12512563 0.40978056 -0.029234689 -0.19307499
-0.28823683 0.2724023 -0.21616802 0.12632601 0.0691023 -0.021056797 0.18423215 -0.09298358
0.2028191 0.033146404 0.068615995 0.086724095 0.2891177 -0.28962514 0.20813733 0.14103688
0.04696423 -0.13382283 0.094932266 -0.056897797 -0.21571417 0.12504622 -0.2399752 -0.045462415
-0.0027995547 -0.14386427 0.30686563 -0.31818867 0.24190958 0.16562964 0.14540635 0.082049765
-0.24864522 -0.011220695 0.16277798 0.27373588 0.027340371 0.12011646 0.15461558 -0.015619132
-0.16748032 0.14564458 -0.070923805 0.13741618 0.14432213 0.078544565 0.18193726 -0.10172784
-0.25561103 -0.00016089769 -0.17424896 -0.15796468 -0.04135017 -0.2965252 0.2102788 -0.0097137615
0.038831744 -0.15261114 -0.12884925 0.4637028 -0.060187295 0.24788135 -0.103355736 -0.009316635
-0.03808737 0.15983646 -0.014641535 0.32091588 0.087987185 0.20053636 -0.057932884 -0.20528941
-0.086838566 -0.085437045 0.0533359 0.3202027 -0.07358523 0.08906724 -0.17802022 0.09518173
-0.25911102 0.2750405 0.09912268 0.035269517 -0.46465245 -0.060862932 -0.21955143 -0.13290255
0.11424563 -0.08685835 -0.20045564 -0.03102177 0.17024711 0.04894127 0.12151902 0.03956423
-0.17027484 0.21882002 -0.4051775 0.08004332 0.15305448 0.12729809 0.010383343 0.114437215
0.033205904 0.21107604 -0.038286485 -0.05506829 0.059900366 -0.016946083 0.15452062 -0.15193254
-0.2669217 -0.050714377 -0.3860206 0.2659149 -0.24423322 0.15388474 -0.037460912 0.03581316
-0.0432184 0.1553886 0.22251923 0.1295696 -0.27972618 -0.13137802 0.09397699 0.21565488
0.00323211 0.07505599 0.31170484 -0.3658767 0.011356805 -0.23748231 -0.19850726 -0.119026385
0.30301782 -0.13084061 -0.14288215 0.17054479 0.16435045 0.052120388 -0.09758976 0.17449676
