results/LevelGen_SAC_RS_001--force/LevelGeneration.onnx (onnx, 286641 bytes, 6 tensors)

action_model._discrete_distribution.branches.0.bias f4 [4]
000000 24 71 b9 bb 46 a5 02 3b 28 d3 9f 3b 33 8e 68 bb
       -0.0056592394 0.0019934936 0.0048774667 -0.0035485148

action_model._discrete_distribution.branches.0.weight f4 [4, 256]
000000 3b 14 01 bc 41 72 db bb 72 64 94 b9 51 bb 77 bb
       -0.0078783585 -0.0066969697 -0.00028303597 -0.0037800858
000010 5b 7a 36 3c c3 2a 07 3b b0 5a 67 bb fe 8c 41 3b
       0.01113757 0.0020624853 -0.0035301857 0.00295335
000020 ff e6 ad bb 96 7f 6c 3b de 32 49 bb fa 08 40 bb
       -0.005307078 0.003608679 -0.0030700485 -0.0029302225
000030 23 25 23 bb 87 3e ac 3a f9 32 26 bb ae 74 b9 bb
       -0.0024893961 0.0013141193 -0.0025359972 -0.0056596613
000040 08 30 c8 3b 88 bc d0 ba 62 94 2b 3a 78 20 f9 ba
       0.0061092414 -0.0015925327 0.0006545243 -0.0019006869
000050 47 4e 2f 3b 7f 14 a6 bb 2f b4 25 39 d7 1e e3 3b
       0.0026749538 -0.0050683613 0.0001580275 0.0069311666
000060 78 68 ea bb e8 60 aa 3b d6 29 5b 3b 03 ee f2 3a
       -0.007153567 0.0051995404 0.0033441684 0.0018534068
000070 99 50 76 bb a1 66 06 bb 43 8e a6 3b 76 48 54 3c
       -0.003758466 -0.002050795 0.005082877 0.012956729
000080 48 f0 dc b9 b1 4e 17 bc 1f 7f e7 ba 4a 38 d4 bb
       -0.00042140693 -0.00923507 -0.0017661786 -0.0064764367
000090 ba bb 0b bc 21 0a 39 bb 15 8d 8f ba 5f 66 f7 ba
       -0.008528644 -0.0028234797 -0.001095208 -0.0018875113
0000a0 9a ab 60 b9 be 2e a9 bb 4d df 4d 3a 9a 03 90 bb
       -0.00021426231 -0.005163043 0.0007853404 -0.0043949606
0000b0 6a cd c9 ba f9 01 b9 3a 8e 30 cf bb 6f de 0f bc
       -0.0015396301 0.0014114968 -0.006322927 -0.00878106
0000c0 f9 9a 96 bb 74 bc 39 bb 53 6e 0b 3a 17 bb 22 3c
       -0.004596111 -0.0028341087 0.0005318869 0.009932301
0000d0 86 1a 22 bd d6 76 59 bc a6 14 d9 bb 6f 82 a3 b9
       -0.039576076 -0.013272962 -0.006624776 -0.00031186963
0000e0 fd a6 ba bb d8 da f4 bb 94 9f d1 bb 10 59 81 bb
       -0.005696176 -0.0074723773 -0.006397197 -0.0039473847
0000f0 f9 78 cf ba fc 17 74 bb 6a 9e 61 3c 7c c3 af bc
       -0.0015828899 -0.003724574 0.013770679 -0.021455519
000100 f0 ba 12 3b af 6f e5 3a 09 ae 12 bb f2 ad 0f bb
       0.0022389255 0.0017504598 -0.0022381565 -0.0021923748
000110 b3 0e 17 3b a8 1f 12 bb f1 5d df bb b1 82 47 bb
       0.0023049533 -0.00222967 -0.0068166186 -0.0030442888
000120 9d e2 f1 bb 0e 4c 94 bb 9f 48 8b 3c 51 5d de bb
       -0.0073817507 -0.004525668 0.017002402 -0.0067860265
000130 8a 52 01 ba b1 de 7e bb f8 e1 af 3a fa 5e e4 bc
       -0.0004933259 -0.0038890059 0.0013418784 -0.02787732
000140 52 4b b4 3b d2 48 80 3a a5 1d e2 3b 39 a0 09 3b
       0.005502143 0.0009787327 0.0069005066 0.002100004
000150 f7 d6 0f 3c b6 22 82 bb d7 de 8d ba b6 2c 16 bb
       0.008779279 -0.003971423 -0.0010823858 -0.0022914833
000160 09 0d 00 3c a6 44 5c bb 17 9f 81 bb 7e cd b9 b9
       0.007815608 -0.0033610254 -0.0039557326 -0.00035439053
000170 09 39 0f bc 71 5a 6e 3b de 19 f6 bb c7 51 f6 ba
       -0.008741626 0.0036369825 -0.007510408 -0.0018792682
000180 f3 f8 1c 3b d3 15 86 b9 ea 01 f0 3a bb c8 8c bb
       0.0023952096 -0.00025574732 0.0018311117 -0.00429639
000190 e0 cb 07 bc 75 8f 35 bc 94 df 09 3c 7c ca d6 bb
       -0.008288354 -0.011081566 0.008415122 -0.0065548997
0001a0 a9 ea c5 3a 84 e2 0a bc b2 f3 4f bc 86 29 f4 3a
       0.0015099841 -0.008476857 -0.012692379 0.0018628098
0001b0 1b 39 83 3b 4d 90 52 bb a5 1a 35 3b 77 4e 08 bb
       0.0040046102 -0.0032129467 0.002763429 -0.0020798722
0001c0 1c 01 b3 3a af 39 c0 3b b7 5d ba bb b8 36 68 bb
       0.0013656947 0.0058662514 -0.005687441 -0.0035433006
0001d0 f0 6c 09 3b 64 20 a6 3b 8f 0d 36 b9 81 7f 2b bb
       0.0020969473 0.005069779 -0.00017361924 -0.0026168528
0001e0 ea f5 67 3a 92 9e 3d 3a d2 2e dc 3b 84 0d 1c 3b
       0.0008848595 0.00072334066 0.0067194486 0.0023811767
0001f0 4f 05 56 ba b1 e6 2c 3c c3 d4 74 bb be 1e 5a 3a
       -0.0008164243 0.010553048 -0.0037358261 0.0008320621
000200 27 de 81 bb 5d 2d da bb 7e f3 34 3b c2 2d 65 3b
       -0.00396325 -0.0066582398 0.0027610953 0.00349699
000210 19 e6 93 bb 9d e1 1a ba 0a de 51 bb 0d 24 8c 3b
       -0.0045135138 -0.0005908253 -0.0032023215 0.0042767585
000220 95 22 03 3c c0 7d 6d bb b9 08 01 3b 9d 7e 68 bb
       0.0080038505 -0.0036238283 0.0019689037 -0.0035475858
000230 77 a1 ea bb 94 58 b5 3a e9 23 f4 3b 1f b0 2e 3a
       -0.0071603614 0.0013835602 0.00745057 0.00066638173
000240 49 fa 0e 3b d5 e0 17 bd 7b f7 2c bb c4 62 78 bb
       0.0021816662 -0.03707965 -0.0026392627 -0.0037900666
000250 2e b0 35 3b d4 55 b9 bb ae 5c 01 bc 9e 8f 48 bb
       0.002772342 -0.0056559835 -0.007895632 -0.003060318
000260 09 2f a2 39 6f d1 16 bb b6 d5 95 bb ab c4 be bb
       0.00030934092 -0.0023013016 -0.0045725955 -0.0058217845
000270 99 fb 9b bb e2 14 2f 38 87 9f 4e 3c 34 8a 79 3b
       -0.0047602174 4.17427e-05 0.0126112765 0.003807676
000280 11 6b 6f 37 ef 1e 5c 3b d5 4c 17 3b c5 3c 99 3a
       1.4270438e-05 0.0033587774 0.0023086567 0.0011691084
000290 c2 7c aa bb ea a6 87 3a 63 8d 5a 3b 67 56 37 3b
       -0.0052028606 0.0010349427 0.0033348433 0.0027975084
0002a0 e9 cc c4 bb 5e 60 c4 bb d3 f6 d4 bb dc 42 16 bb
       -0.0060058725 -0.005992933 -0.0064991503 -0.0022928035
0002b0 6f e8 89 3b 2f ae b4 3a d1 3a 7a bb 75 b5 1d 3c
       0.0042086164 0.0013784821 -0.003818203 0.009625782
0002c0 ed ee 30 ba a4 a3 52 3a 72 ca 36 3b f4 71 99 3b
       -0.000674947 0.00080352486 0.0027891663 0.0046827737
0002d0 25 90 80 3b dc fb e9 ba cc 5b 82 3b 01 49 80 3a
       0.0039234334 -0.0017851549 0.003978228 0.0009787382
0002e0 91 31 bf 3b ca e4 23 3b 17 2d c0 3b 34 49 a0 bb
       0.005834766 0.0025008195 0.00586475 -0.004891539
0002f0 8e aa c9 b9 0e c1 81 bb ac bc 9a ba a9 bc 81 3b
       -0.0003846478 -0.0039597815 -0.0011805496 0.0039592576
000300 32 b7 0b bc a7 3b ce 3a 58 a9 7d 3b 14 df 81 bb
       -0.008527564 0.001573433 0.0038705673 -0.0039633606
000310 ca 77 cf bb ff ad ed 3b bd 58 7d ba f7 64 8a bb
       -0.0063314186 0.007253408 -0.0009664407 -0.0042234617
000320 20 40 80 bb 13 a5 a3 bb ec 6a 4f 3c 08 ff 58 3b
       -0.0039138943 -0.0049940436 0.0126597695 0.0033110995
000330 38 5c 8b bb 68 4a 93 3b 8e 6e bb ba 28 49 59 3b
       -0.0042529367 0.004494954 -0.0014299916 0.0033155177
000340 4b c6 c6 3b 9d 8f fc 3a 64 a1 3d 3b c1 4e c4 bb
       0.006066119 0.0019268874 0.0028935308 -0.0059908335
000350 bb 40 dd bb c1 2b 2a bb bb cf 50 bb d1 4d 85 ba
       -0.0067521012 -0.002596602 -0.0031862098 -0.0010170286
000360 67 50 d5 39 26 58 3a 3b a8 28 8e 3b d4 dc 96 bb
       0.0004068643 0.0028433888 0.0043383427 -0.0046039615
000370 ff 52 ec 3b db 53 33 bb 27 0c 09 b9 89 34 c0 bb
       0.0072120423 -0.0027363214 -0.00013069865 -0.0058656377
000380 a8 4d c9 ba 46 4a 63 3c 01 f7 01 3b 51 bd e3 bb
       -0.0015358226 0.013872689 0.0019831064 -0.0069500585
000390 31 86 d7 3a 13 65 d6 b9 48 53 02 3b 0c f7 63 3b
       0.001644319 -0.00040892567 0.0019886065 0.0034784703
0003a0 e4 45 01 3c 26 77 2f 3c 74 70 5c bc 83 87 27 3b
       0.007890198 0.01070956 -0.013454545 0.002556295
0003b0 0d 0d e4 bb 8a 0d 16 3a 1c fb 05 3b 65 e9 cd 3b
       -0.0069595636 0.00057240634 0.0020443862 0.0062839263
0003c0 07 de 16 3a d7 4c d9 bb 43 e2 19 3b fb e5 9a bb
       0.00057551306 -0.0066314745 0.002348081 -0.004727123
0003d0 38 3d 0e bd 55 df b2 3b b4 cb 0e 3b 95 df ba 3a
       -0.03472635 0.005458752 0.0021788897 0.0014257306
0003e0 52 9c 57 3a 86 3f db 3a 08 07 06 bc ef ca 12 3b
       0.00082248927 0.0016727305 -0.008180387 0.002239879
0003f0 4e 02 dc bb 9a 74 4f bc 65 6e 63 bc b8 bf 1c bb
       -0.006714142 -0.012662077 -0.013881301 -0.0023917984

network_body._body_endoder.seq_layers.0.bias f4 [256]
000000 40 f0 33 3c 6e e0 a8 bc 15 9f 3d bb 2e 83 38 3c
       0.010982573 -0.020614829 -0.0028933932 0.011261744
000010 4a 37 20 bc 98 a6 1f bb 27 5d 04 3b 66 97 f0 bb
       -0.009778807 -0.0024360772 0.0020197125 -0.007342267
000020 69 1a f8 3a 1d 17 08 bb 61 82 a2 bc 6f 00 ca bc
       0.0018928769 -0.002076573 -0.01983756 -0.02465841
000030 96 9f 73 bc 43 a8 8f bc d6 42 4b 3c 87 c5 b4 3b
       -0.014869591 -0.017536288 0.012406072 0.005516711
000040 55 16 03 3b 4a 01 c6 bb 22 9c 2c 3c 9d fc 0f bb
       0.0020002325 -0.006042634 0.010535272 -0.0021970638
000050 9e 9e 7b bb 32 46 ad 3a 20 3c d2 bb fe 28 4b 3c
       -0.0038394104 0.0013219772 -0.006415859 0.01239991
000060 46 8a e4 bb 42 4d c3 ba fe 97 e9 3b 33 a5 2f bc
       -0.0069744913 -0.0014900344 0.0071287146 -0.010720539
000070 b7 9c c9 bc e4 0d c0 bc f3 9a d6 3a df 43 fe bb
       -0.02461086 -0.023444124 0.0016373083 -0.0077595557
000080 10 7e 86 bc 68 30 d3 ba 75 cb a4 bb 75 ea 0d bc
       -0.016417533 -0.0016112449 -0.005029137 -0.008661856
000090 16 5d 4b ba 64 d7 b4 3b 56 1e 00 bb 11 23 37 bc
       -0.00077577063 0.0055188406 -0.0019549332 -0.011177794
0000a0 44 be 17 bc 8d 6a a5 3a c2 f1 4a bc ec 76 01 bc
       -0.009261671 0.0012620256 -0.012386741 -0.007901888
0000b0 58 d5 86 bb a8 d2 61 bb 1e 67 01 bc 45 23 fd bb
       -0.004114788 -0.0034457836 -0.00789812 -0.0077251517
0000c0 e8 c3 a9 bb bd 11 83 bc c2 fc 63 bb 9f 21 d7 bc
       -0.0051808245 -0.01599967 -0.0034788107 -0.026261149
0000d0 36 6c 06 bc 04 e1 8c 3c 20 09 d5 bb 37 57 2e 3d
       -0.00820451 0.01719714 -0.006501332 0.042563643
0000e0 3f 11 94 bb 24 1d 3d bc 91 36 1b 3c 0a f6 35 bb
       -0.0045186575 -0.011542592 0.009473459 -0.002776506
0000f0 22 23 2d bb 14 25 99 3c b1 f3 cb 3b d8 d4 14 bc
       -0.0026418646 0.018694438 0.0062241186 -0.009083949
000100 79 c6 66 bc 65 1e 50 3a 12 bb 81 3b 27 cd 4e 3c
       -0.0140854055 0.00079390995 0.003959068 0.012622154
000110 38 70 20 bd 4e 19 e2 bb 1f 8e d8 3a 24 a9 c4 bc
       -0.03916952 -0.006899989 0.0016521848 -0.024006434
000120 37 9f 71 39 9f d7 13 bc 14 b6 40 bb 8d 89 09 bc
       0.00023042863 -0.009023576 -0.0029405402 -0.008394611
000130 dd bb a2 bb ce 08 df 3c 21 1e d2 bc f4 f1 88 3a
       -0.0049662427 0.027225878 -0.025649132 0.0010448084
000140 cf 66 1f bc 47 e4 f1 bc f7 d1 9f bb a3 ff 83 bb
       -0.009729101 -0.029527796 -0.0048773247 -0.004028277
000150 7f 64 d5 bb e4 28 10 ba 7e 37 21 3b 0a 96 20 bc
       -0.006512224 -0.0005499257 0.0024599726 -0.009801397
000160 76 20 aa 3a 44 12 2c 3c 2a 9a 63 bc 4a cb e1 3c
       0.0012979645 0.010502402 -0.013891736 0.027562756
000170 d6 92 ec bb f4 d0 99 bb 63 ee ca bb 8e 25 68 bc
       -0.0072196526 -0.0046940986 -0.0061929687 -0.01416911
000180 27 e0 6b ba e9 d2 36 3a 76 92 9a 3c 68 06 70 3b
       -0.000899794 0.0006974177 0.018868666 0.0036624912
000190 8e aa fa 3a 8c 65 42 bc d8 a0 27 3c e7 de ea bc
       0.0019124316 -0.011865031 0.010231219 -0.028670741
0001a0 45 dd b4 bb 99 88 dd b7 47 7f a6 3c e4 d0 e2 3a
       -0.0055195414 -2.6408861e-05 0.020324362 0.0017304686
0001b0 ce eb 0a bc 37 63 a4 bb da eb e0 bc ae 1b 9f bc
       -0.008479072 -0.00501671 -0.027456213 -0.019422378
0001c0 9a 59 72 ba bd fa 2c 3c dc d0 0c bc ac 3c 88 bc
       -0.0009244919 0.010557828 -0.008594718 -0.016630493
0001d0 8f de f0 3a cb 5b e9 b7 17 27 6c b9 c7 df b6 3c
       0.0018376875 -2.7818509e-05 -0.00022521276 0.022323502
0001e0 fe 80 41 bc d5 f2 d1 bb 80 f3 f4 bb 0a c5 1e bc
       -0.011810539 -0.0064071217 -0.0074753165 -0.009690532
0001f0 9f 58 82 bb a9 06 b0 3a 50 40 7c 3c bb c8 e7 bb
       -0.0039778496 0.0013429719 0.015396193 -0.0070734895
000200 da af 87 bc 58 4e c9 bc 67 c1 cb bb a8 c8 21 3c
       -0.016563345 -0.02457349 -0.0062181237 0.0098745
000210 6e f1 bd ba 34 98 89 bc 69 f7 91 bb 03 20 75 bc
       -0.0014491507 -0.016796209 -0.0044545424 -0.0149612455
000220 9f 65 1d bc 98 98 25 bc 64 f5 b6 bb 71 66 69 bb
       -0.009606748 -0.010107182 -0.005583452 -0.0035614038
000230 80 30 90 bc ec 7c 4c bc b1 7f 87 bc 19 eb 18 3c
       -0.017601252 -0.012480956 -0.01654038 0.009333395
000240 f4 28 53 3a 1d e7 ea 3a 5b 67 77 3a e9 a6 a1 bc
       0.0008055114 0.001792166 0.00094377034 -0.01973291
000250 24 73 2c bb f5 38 c0 bc fc dd 80 b9 f4 ae ab 39
       -0.0026313746 -0.02346466 -0.00024579454 0.00032746012
000260 07 60 98 3a 39 c2 aa bc ab 1b dd bc 4c 25 b6 ba
       0.0011625298 -0.020844566 -0.026990732 -0.0013896613
000270 71 6e a8 bc 7c 4f 74 ba d4 15 79 bc 88 43 e6 bb
       -0.020560475 -0.00093197054 -0.015202958 -0.0070270933
000280 42 f8 fc bb 62 bc 36 bb 57 f6 0f bd 1a b7 4f bc
       -0.0077200243 -0.002788328 -0.035147037 -0.012677932
000290 ca d1 a3 bc 2e 38 0a bc b9 7d 70 3b 4b ed 47 bb
       -0.019997496 -0.008436246 0.003669603 -0.0030506428
0002a0 52 f4 19 bc 44 d7 40 bc f1 44 37 bc d3 e9 ab bc
       -0.009396629 -0.011770073 -0.0111858705 -0.02098552
0002b0 de ee b3 3a 46 85 6f bb 97 91 9f 3c 5f bd b5 3a
       0.0013727804 -0.0036547943 0.019478602 0.0013865641
0002c0 53 ff 29 bc d5 17 f6 3b 52 08 0f bc 27 5f 0a bc
       -0.010375815 0.007510165 -0.008730011 -0.008445538
0002d0 b1 bc 58 bc 0a 53 16 3c 81 71 a3 3a 35 4f 0b bb
       -0.013228581 0.0091750715 0.001246974 -0.0021256928
0002e0 7d b9 92 3b 8a 50 9a bc 98 b1 b2 bb 97 98 08 3a
       0.0044776783 -0.018837232 -0.0054532997 0.0005210726
0002f0 31 d6 70 bb bc 78 03 bc 6c 54 70 3c 93 5c 7e bb
       -0.0036748762 -0.008024391 0.014668565 -0.0038812503
000300 0e 39 68 3a c0 ba 36 bb fd ec 11 bc eb 39 c8 3c
       0.00088585995 -0.0027882308 -0.0089066 0.02444168
000310 ad 00 06 bc 41 ab 3d ba b4 41 14 bb e3 12 8a bb
       -0.008178872 -0.00072352967 -0.002262217 -0.0042136773
000320 8b 83 39 bc b2 28 1f bc 96 02 a5 ba ba 2a 61 bb
       -0.011322866 -0.009714292 -0.0012589272 -0.0034357742
000330 d1 a7 16 3c c6 b3 1d bc 40 a4 b5 bb fa a0 e3 3a
       0.009195284 -0.009625381 -0.0055432618 0.00173667
000340 aa 4d c9 bc f1 bf 11 3c 14 f6 40 3c 19 76 6e 3a
       -0.024573166 0.00889586 0.01177742 0.00090965774
000350 43 b5 f4 bc b3 ca 27 bc 06 da 43 bc b2 86 1b bc
       -0.029871589 -0.010241198 -0.011953836 -0.009492563
000360 f5 e2 81 bc fb fc 74 3b 9e 4c 99 bc 18 e2 e2 3b
       -0.015855292 0.0037382233 -0.018713292 0.006923925
000370 e6 ac 80 bc f8 77 10 bb 60 06 1f 3c ed 40 26 bc
       -0.015707444 -0.0022044163 0.00970611 -0.010147315
000380 cf a0 a6 bc c3 9c e8 3c 9d 48 5f bc d9 28 86 bc
       -0.020340351 0.028395062 -0.013628152 -0.0163769
000390 07 04 48 bb 49 51 2e bc 32 d1 60 3c 34 b4 89 bc
       -0.0030519979 -0.010639497 0.013721751 -0.01680956
0003a0 10 ca cd bc e7 bd e1 bc 92 a8 01 bc 47 ed 40 bb
       -0.025120765 -0.027556373 -0.007913725 -0.0029438303
0003b0 d4 c1 02 bd 4d 08 93 bc 3d a1 90 bc f5 f3 c6 bc
       -0.03192313 -0.017948294 -0.01765501 -0.02428625
0003c0 33 70 87 3a 37 8d 6c 3c 9d a3 d4 3b 1e 54 1a bd
       0.0010333121 0.014437965 0.006489231 -0.037677877
0003d0 72 72 12 ba 5d a7 65 bb 20 8a 4d 3c d7 4a 00 bb
       -0.00055865117 -0.0035042383 0.012545139 -0.0019575858
0003e0 bc f3 16 bc 40 70 3e bc 7c 1b 33 bc db 3b 58 3c
       -0.009213384 -0.011623442 -0.010931846 0.013197864
0003f0 44 36 80 bb 60 fd 85 3b 27 e8 c1 bc 09 8f ec bc
       -0.003912719 0.0040890425 -0.02367027 -0.028876798

network_body._body_endoder.seq_layers.0.weight f4 [256, 16]
000000 e3 8b 80 bd 37 a2 02 be 9f f7 6a 3e fd c2 59 3e
       -0.06276681 -0.12757193 0.22946022 0.21265788
000010 47 1e 51 bd b3 76 b4 be 01 50 86 be d4 2e 96 3d
       -0.051054265 -0.3524681 -0.26232913 0.073331505
000020 a5 0b 50 be 3b f8 29 bc 2a 45 64 be 87 98 a6 3e
       -0.20316942 -0.010374124 -0.22292009 0.32538244
000030 f8 29 af bd 1b 98 90 3e d4 7d 9f be 8f 1b 5d 3e
       -0.08552927 0.28241047 -0.31150687 0.21592544
000040 e9 a3 96 be 30 dc bd 3c 4b 00 07 bd da d6 79 3e
       -0.2942193 0.023176283 -0.032959264 0.24398366
000050 86 a8 d5 3e f3 43 38 3e 55 15 84 3e 86 dd cc 3e
       0.41730136 0.1799467 0.25797525 0.4001276
000060 8f c1 0b 3e 53 c2 c6 be 81 ff a9 3e 26 82 9b 3e
       0.13648055 -0.38820133 0.33202747 0.30372733
000070 f0 44 ba bc 7d 64 82 be 4c a2 72 3d ce 3c 44 3d
       -0.02273795 -0.2546729 0.05923681 0.04790955
000080 0d 30 56 be b6 0c 4a be 72 ef 39 be 29 8e 68 be
       -0.20916767 -0.19731411 -0.18157747 -0.2271048
000090 fd d6 e4 be 8e c2 89 3e 68 a0 32 3f fa 79 6c 3e
       -0.44695273 0.26906246 0.6977601 0.23093405
0000a0 6d 26 58 be 42 f0 02 bd 8d 8c e9 bc db 0a 2f 3e
       -0.21108408 -0.03196741 -0.028509403 0.17093985
0000b0 f5 9c c2 3e 67 41 1a 3f 5e 4b b7 be 4c 87 b7 3e
       0.38010374 0.60256046 -0.35799688 0.3584541
0000c0 a9 52 85 3e 86 43 4e be b2 0b 94 3d 6d 10 30 be
       0.26039627 -0.20142946 0.07228793 -0.17193766
0000d0 3a e7 e6 3d 1d d6 4f bd 90 27 07 3e 34 0f 8b 3e
       0.11274572 -0.050741304 0.13198686 0.27160037
0000e0 83 c9 10 bf 6f 8d 1a be 33 ba 02 3e 69 17 a6 3e
       -0.5655748 -0.15093015 0.12766342 0.32439736
0000f0 ce fc 39 3e e2 c9 46 3d 3e 71 25 bd 55 df db 3e
       0.18162844 0.048532374 -0.0403912 0.42943826
000100 ba bf a1 bd bd a5 3b be 27 96 c4 3d 8c 15 ce be
       -0.07897897 -0.18324943 0.09598952 -0.40250814
000110 55 f3 8f 3d 97 a6 e8 3e 84 f0 a7 3e f1 69 35 3c
       0.07028834 0.45439598 0.32800686 0.011072622
000120 bc e8 33 3f 7f 99 b9 3e 34 35 cf bb 52 3d 15 3e
       0.70277 0.3624992 -0.006323481 0.14574173
000130 2a 89 bc 3c 74 72 e6 be 0a 47 05 be ae d2 a3 bd
       0.023014624 -0.45009196 -0.1301538 -0.07999168
000140 21 31 a7 3b 89 85 a3 3d 02 d4 39 bf 09 a8 fa bc
       0.005102292 0.07984454 -0.72589123 -0.030597704
000150 39 7c 90 bd d8 7b d5 3e a5 e8 9b bd 72 5f 81 3b
       -0.070549436 0.41696048 -0.07612733 0.0039481455
000160 66 20 90 bd 60 69 19 3e 5b 0c eb 3d 48 49 e1 be
       -0.070374295 0.14981604 0.11476966 -0.44001222
000170 a6 c1 29 3e 15 cd 26 3d 23 4a d0 bd 5b 9b 0e be
       0.16577777 0.040722925 -0.101703905 -0.13926451
000180 3f 5f 2a 3e 49 82 20 be e9 02 6e 3e 5d d1 67 be
       0.16637896 -0.156747 0.23243298 -0.2263846
000190 4d dd 78 3c d9 12 e2 3e 90 5c f6 3d 82 1d 78 3e
       0.015189481 0.44155005 0.12029374 0.24230006
0001a0 3e ab a8 be c8 37 1d be 31 11 ff be 74 04 d5 bd
       -0.32943147 -0.1535331 -0.49817804 -0.1040124
0001b0 15 9c 43 be fb 96 d1 be 75 8f 94 be f2 61 5c be
       -0.1910251 -0.409355 -0.290157 -0.21521738
0001c0 48 c9 11 be b5 4a f1 3d e8 23 1e 3e eb 97 cd bd
       -0.14236939 0.11781827 0.15443385 -0.10038742
0001d0 66 01 8c 3d af 10 b2 3d 25 7b 16 3e 4f 6c 92 3d
       0.06836204 0.086945884 0.14695413 0.071495645
0001e0 a1 ba 99 be 79 cd 1e 3d ad 69 85 3d 04 df 17 3c
       -0.300252 0.038770173 0.06514297 0.00926948
0001f0 b1 89 ee bd 22 59 3d 3e 82 a8 93 be 90 c1 bd be
       -0.11647356 0.18491033 -0.288395 -0.3706174
000200 32 b4 af 3d 09 49 45 be c5 62 e8 bd 76 3b 3f 3c
       0.085792914 -0.19266142 -0.11346964 0.011671891
000210 1b 79 73 be f3 d2 0c 3f 35 da 95 be 79 43 c3 be
       -0.23776667 0.5500938 -0.2926804 -0.38137415
000220 33 b3 36 3e ec bc 82 3e 07 4b 35 3d dd 97 8e be
       0.17841797 0.2553476 0.044261005 -0.27850237
000230 eb a0 08 be 4c 07 32 be 92 d0 8e be 0b d3 0b 3e
       -0.13342635 -0.17385596 -0.27893502 0.13654725
000240 2a 55 0c 3e 60 6f 6e 3e 21 7c cd 3d be 28 9d bd
       0.13704363 0.23284674 0.10033441 -0.076737866
000250 1f 73 89 3e ff 19 48 be b5 37 c8 3c 84 9c d6 bd
       0.26845643 -0.19541167 0.024440626 -0.10479072
000260 56 15 c9 be 57 20 59 be 90 dd ae bc f7 43 88 3e
       -0.3927409 -0.21203743 -0.021345884 0.26614353
000270 f2 af c4 be 4a 90 ac 3e 83 69 d7 3e 09 15 e9 bc
       -0.38415486 0.33703834 0.42072687 -0.028452413
000280 ff 39 6a 3e 09 37 e3 3e 98 0f 73 3e e2 0e ee 3e
       0.22873686 0.44377926 0.23736417 0.4649573
000290 85 2c 4d be 7c 04 bc 3d 7f eb 0f 3e 34 08 66 be
       -0.20036514 0.09180543 0.14054678 -0.22464067
0002a0 07 bb 56 be 02 f8 0f 3e 58 a7 b7 3e d3 3d e4 3c
       -0.20969783 0.14059451 0.3586986 0.027861511
0002b0 ac df 08 3e 58 73 d3 3d c3 3a 5c 3c 7c a5 70 3e
       0.13366574 0.103247344 0.013441744 0.23500627
0002c0 5b 6b 86 be 2a c2 37 3e 3a ed 42 3f df 45 bc bc
       -0.2625378 0.17945161 0.7614323 -0.022982536
0002d0 dc 39 9f bd e2 e1 01 bf f6 63 be 3e bb f0 f6 be
       -0.07774708 -0.50735295 0.3718564 -0.48230538
0002e0 d1 38 6c bd 91 fd d1 bd 24 e5 e8 3e cd 7d 2c 3e
       -0.05767137 -0.10253442 0.4548732 0.16844864
0002f0 27 64 22 be ef 34 90 bd 74 89 1b be 0b 0d b6 3e
       -0.15858518 -0.07041346 -0.15189153 0.35556826
000300 29 d7 11 be 05 8a 99 bc 29 99 d9 3d 26 7e 27 3e
       -0.14242233 -0.01874257 0.10624916 0.16356716
000310 5a 04 cd 3d 2f f7 98 be ba 97 58 3e d7 2a 62 3e
       0.100105956 -0.29876086 0.21151629 0.22086655
000320 61 8a a0 bc e3 45 24 3e 42 f1 0f 3c 28 e2 17 3e
       -0.019597234 0.16042285 0.008785548 0.14832366
000330 05 a1 d0 3d f0 03 38 3e 3c 0f 97 be 1a a5 39 be
       0.10186962 0.17970252 -0.2950381 -0.18129387
000340 b2 e3 3e be 2a 7d 9d bd 45 44 a7 3d 8a ef 05 3e
       -0.18641546 -0.07689889 0.08167318 0.13079658
000350 cb 98 25 bd 84 59 bf bd ab 95 79 3e 10 6a a1 3e
       -0.040428918 -0.093432456 0.243735 0.31526232
000360 3d b8 9c bc dd 60 9a 3e 2a 3b 29 be d0 ae 4d 3e
       -0.01913082 0.30152026 -0.16526476 0.20086217
000370 37 11 a8 bd 33 f5 73 3e 84 ef dd 3b 76 26 2c be
       -0.082064085 0.23824005 0.0067729373 -0.16811547
000380 fa df 17 be f3 ce c1 3e bb 98 c2 3d 4b 0d 2c be
       -0.14831534 0.37853202 0.09501787 -0.16801946
000390 16 00 4d bd 41 8c cb 3c 9b ec 84 3e 01 64 87 be
       -0.05004891 0.024847152 0.25961766 -0.26443484
0003a0 a3 06 e5 3c 0f 7e a7 bd c9 35 6a 3e cc 6f 46 be
       0.027957266 -0.08178341 0.2287208 -0.19378585
0003b0 44 6c de 3d a5 e7 ff 3d 1b 3d 39 3f a2 ac a9 ba
       0.10860494 0.124953546 0.72358865 -0.0012945125
0003c0 48 11 e3 bb 46 b9 17 3e 0e 2a 02 be c9 fb 8e 3d
       -0.0069295503 0.1481677 -0.12711355 0.06981618
0003d0 79 53 24 3c 8f e2 d8 3e 49 33 9d 3e 00 ee b0 bd
       0.010029667 0.4236035 0.3070319 -0.08639145
0003e0 f5 55 aa be 83 db 65 3e cb 9d 51 be 11 0c 6a 3e
       -0.33268705 0.22447018 -0.2047035 0.22856165
0003f0 99 9b d5 3e 51 f7 45 be 7f 74 81 bd 59 0b 0c be
       0.41720274 -0.19332625 -0.06321048 -0.13676204

network_body._body_endoder.seq_layers.2.bias f4 [256]
000000 04 53 7c 3b e3 2a 4a 3b 43 d5 28 bc ac f1 11 bb
       0.003850163 0.0030848316 -0.010304752 -0.0022269292
000010 a2 fa 9b bb 73 ee 7a bb eb 59 fc bb 93 81 27 bc
       -0.0047601024 -0.00382891 -0.0077011487 -0.010223764
000020 5b 49 2f bc cf bd 92 3b 0c 7a 76 bc 28 fc 93 3a
       -0.010698642 0.0044781934 -0.015043747 0.0011290358
000030 2b c2 fb bb dd c9 49 b8 e0 e2 f9 bb 06 c9 8e b9
       -0.0076830587 -4.8110134e-05 -0.0076259226 -0.00027234125
000040 09 c7 30 bc 51 f5 7f bb 82 87 d6 b9 45 72 0d bc
       -0.010789641 -0.0039056132 -0.00040918222 -0.008633201
000050 e1 4b eb 3a f6 f8 53 bc 10 08 15 bb aa e1 f5 ba
       0.0017951691 -0.012937775 -0.0022740401 -0.001875927
000060 3a cc 16 bc a8 b3 5e ba 90 53 8c bc d7 84 2a 3b
       -0.009203965 -0.0008495399 -0.01712969 0.002601912
000070 3b 36 e1 3a 44 43 94 bc 30 13 14 bc 7a d0 df bb
       0.00171823 -0.018098481 -0.009037778 -0.0068302723
000080 b8 68 6c bc 58 04 e1 ba 59 f4 8e bb 01 d0 86 bb
       -0.014429264 -0.0017167432 -0.0043626246 -0.0041141515
000090 f8 91 ee ba ce c2 3e bc fa b5 00 bb 4e e8 7d ba
       -0.0018201461 -0.011643125 -0.0019639716 -0.00096858
0000a0 1c b8 30 bc 9d 06 85 bc 91 29 8f bc 5c 61 d3 bb
       -0.010786083 -0.016238505 -0.017475875 -0.006450815
0000b0 9c 3a 77 bb 0d 7f 09 bb ba 37 00 ba 03 62 3f bc
       -0.0037724143 -0.002098027 -0.00048911164 -0.011681083
0000c0 a5 64 eb bb b8 21 1f ba 94 1b 68 3b ac 67 7c bc
       -0.0071836286 -0.0006070393 0.0035416828 -0.015405577
0000d0 41 12 54 3c 9e cd 36 bc 28 e9 cc bb 33 fd 65 bc
       0.012943805 -0.011157421 -0.0062533803 -0.014037418
0000e0 e7 89 f6 b9 77 e4 43 bb 3e e2 0a bc f5 2b 0b bc
       -0.00047023522 -0.0029890814 -0.008476792 -0.008494367
0000f0 d0 f7 d9 bb 17 de f7 bb ad a4 91 ba 84 34 18 3c
       -0.006651856 -0.007564317 -0.0011111699 0.009289864
000100 97 ff ef bb 66 3f 22 bc af 02 a9 bb e0 5c 96 bb
       -0.00732417 -0.009902811 -0.0051577906 -0.0045887083
000110 27 17 e4 bb 0d f2 9e bb ff f4 8e ba 4c 5f 82 ba
       -0.006960768 -0.004850632 -0.0010906755 -0.0009946614
000120 50 b5 91 bb 7f e0 d7 ba 66 4d 1c bb 8f 5d 48 bc
       -0.004446663 -0.0016470103 -0.0023849844 -0.012229337
000130 28 bd 4c bc 52 49 82 bc ae a0 b2 3b ce c1 30 3c
       -0.01249627 -0.015904102 0.0054512834 0.010788394
000140 da 49 10 bc 37 49 cc bb f0 b5 22 bc e8 b6 ad bb
       -0.00880667 -0.006234314 -0.009931073 -0.005301345
000150 01 bd 35 3c 94 8b 8f bb 44 ce 01 bc bb 0c 40 3b
       0.011092425 -0.0043806527 -0.007922713 0.0029304463
000160 d3 12 ee 3a 90 1f 36 bb 67 1f 17 3c 16 9d a1 bb
       0.0018163569 -0.0027789809 0.0092237955 -0.004932056
000170 89 d2 68 bb f1 d1 9d bb 7a 64 f8 bb 9d f9 05 bc
       -0.003552588 -0.0048162867 -0.007580337 -0.008177188
000180 c0 6c 1d bc 9b f5 33 bb 06 6a 62 ba ed 7b 83 bc
       -0.009608448 -0.0027459625 -0.00086370145 -0.016050303
000190 cc 2d a7 bb f7 98 f0 bb 51 0f 48 bc 4c 91 67 ba
       -0.005101895 -0.0073424536 -0.012210683 -0.00088336016
0001a0 e9 61 ff 3b 11 30 18 bc 4b 84 db bb a7 bd 84 bb
       0.007793654 -0.009288804 -0.00669912 -0.0040509286
0001b0 d0 2b 12 bb 13 f2 87 bb c2 f0 1b bc 0f 78 0c bb
       -0.0022303946 -0.0041487305 -0.00951785 -0.0021433865
0001c0 7d 12 64 bb bb 74 ca bb 75 09 54 bc 08 72 8e bb
       -0.003480106 -0.006178466 -0.012941708 -0.0043470897
0001d0 b0 6b 48 bc 62 2d 25 bc 75 ed 27 bc 2b f5 90 bc
       -0.012232706 -0.010081621 -0.010249485 -0.01769503
0001e0 ac 93 1f bc b1 3f ab bb fe 4b fc bb 99 e8 42 bc
       -0.009739798 -0.0052260985 -0.0076994887 -0.011896276
0001f0 d3 47 14 bc d7 98 18 bc 9a db 38 bc ce 8e a8 bb
       -0.009050327 -0.009313784 -0.011282826 -0.005143977
000200 85 4e 95 bb 9f a2 fa bb 16 0b 54 bc b2 73 3c bc
       -0.0045564794 -0.0076487805 -0.012942096 -0.011502193
000210 21 7e 59 3b ed 0e 99 3a 44 fd 97 bb 4e a7 1f bb
       0.003318675 0.0011677422 -0.004638346 -0.0024361196
000220 c4 70 04 bc b3 ac 9d bb a6 67 15 bc b6 1d e2 bb
       -0.008083526 -0.004811847 -0.00911895 -0.0069005145
000230 14 92 ce ba 91 9b 12 bc 20 48 43 bc 2e 12 1b bb
       -0.0015760087 -0.008948223 -0.011919051 -0.002366196
000240 ff 64 97 bc 04 7b 09 3c 8e 89 68 bb 1a 85 07 bc
       -0.018480776 0.008391146 -0.003548238 -0.00827148
000250 83 00 33 bb b4 50 d6 bb 76 8e 6d 3b 75 d2 f0 bb
       -0.0027313537 -0.0065403823 0.0036248243 -0.007349307
000260 e8 8d e0 3b 28 e0 f9 bb 0c fa 47 bc aa fd e3 ba
       0.006852854 -0.0076255985 -0.012205612 -0.0017394323
000270 ac 98 c8 bb 4f 42 56 bb 29 79 1d 3b d0 1e 70 bc
       -0.0061217155 -0.0032693332 0.0024028516 -0.014655784
000280 f7 b1 7e bb f1 e7 f6 bb 32 d4 8e bc b8 aa 08 bc
       -0.00388634 -0.007534974 -0.017435167 -0.008341484
000290 c0 c4 12 bc 26 50 d9 3a 26 81 f0 bb e9 68 62 bc
       -0.008958042 0.0016579672 -0.0073396144 -0.013818958
0002a0 ea 7b 5b bc 49 6f 2a bc a7 8a cf bb ed 7c ca 3b
       -0.013396243 -0.010402509 -0.0063336673 0.006179443
0002b0 53 19 2a 3c 35 d8 2a bc 10 c3 5c bc 56 2d 2a bc
       0.010382014 -0.010427524 -0.013474241 -0.0103867855
0002c0 29 ce 00 bc a5 24 46 bc e8 3e f2 ba 12 c1 47 bc
       -0.007861652 -0.012093698 -0.0018481882 -0.012192028
0002d0 ce b1 fd 3a 30 74 0a bc 47 63 8c bc ee 8d 88 bc
       0.0019355358 -0.008450553 -0.017137183 -0.01666924
0002e0 b8 9e af bb b5 6c fa bb 07 b5 1a bb 86 1d 4b bc
       -0.005359497 -0.0076423534 -0.0023606436 -0.012397176
0002f0 8e 6e 0f bc 70 5a 23 bb 8b 6f 02 bc 60 39 11 bc
       -0.008754386 -0.002492573 -0.007961164 -0.008863777
000300 57 36 9f 3b 72 03 b7 bb 42 1a 2f bc 68 48 a2 bb
       0.0048587727 -0.0055851275 -0.010687413 -0.004952479
000310 a6 bc d8 ba 2c a2 c9 bb 8c 8a 13 bc c9 5e d1 ba
       -0.0016535714 -0.0061533656 -0.0090052 -0.0015973683
000320 07 4b 1b bc f8 0b 40 bc 54 a0 81 3b 86 65 70 bb
       -0.009478337 -0.011721604 0.00395588 -0.0036681606
000330 5f 4b 91 bb 8b b2 13 bb 31 fd a0 bb b3 d3 a3 3b
       -0.0044340338 -0.002253684 -0.0049129953 0.0049996017
000340 69 eb 2e bc 08 49 24 ba cd 8a 25 3c 3f 89 d1 bb
       -0.010676243 -0.0006266986 0.0101038935 -0.006394535
000350 02 8a 9c bb bd d6 90 b9 7c ea 8b bb 41 eb 81 bb
       -0.004777194 -0.00027625813 -0.004269896 -0.003964812
000360 39 ad e7 bb b6 42 94 bc c0 2d 0c bc e2 7c a1 ba
       -0.0070702103 -0.018098217 -0.0085558295 -0.0012320543
000370 f5 82 f2 bb f5 79 e6 bb 9f 1e dc bb 7a bf 43 3c
       -0.007400865 -0.0070335814 -0.0067175175 0.011947507
000380 10 62 26 bc 5d b2 65 3b 46 7f 09 bc a8 59 b4 bb
       -0.010155216 0.003504894 -0.008392161 -0.005503852
000390 6c d5 10 bc ae cb c3 bb 88 c3 6c 3b b2 77 e1 3b
       -0.008839946 -0.0059752082 0.0036127288 0.006880724
0003a0 33 cf 2c ba 6d 6b 55 3b 65 b9 d7 39 72 45 30 bc
       -0.00065921544 0.0032565251 0.00041146125 -0.010758745
0003b0 0d 0c 42 bc 21 00 6a ba f9 16 97 bb 38 4c 83 bc
       -0.011843693 -0.0008926411 -0.004610893 -0.016027555
0003c0 64 9a ad ba b8 ca 41 bb 3d 84 52 3a 6b 09 08 bc
       -0.0013244865 -0.0029570293 0.00080305693 -0.008303027
0003d0 96 7c 45 3a c7 e4 78 bc 54 12 06 bc c2 cb de bb
       0.00075335184 -0.0151912635 -0.008183081 -0.006799192
0003e0 60 9b 5c bb fe 5c fd 3a 25 a1 da bb d1 b6 8e bb
       -0.0033661947 0.0019330082 -0.006672042 -0.0043552895
0003f0 0c cc d4 bb 63 b7 2a bc de 29 11 bb a4 b7 9f bb
       -0.006494051 -0.010419699 -0.00221502 -0.0048741866

network_body._body_endoder.seq_layers.2.weight f4 [256, 256]
000000 a6 8e d9 3c ee c1 b8 bd 53 4f b5 3d 15 3d 7b 3c
       0.026557278 -0.09021364 0.088530205 0.015334387
000010 7e 71 2f bd ce f0 55 3a 6e 28 fc 3c ec 45 fa 3c
       -0.042832844 0.0008161188 0.030780997 0.03055092
000020 4a f4 97 bd e2 85 60 3c 51 20 a2 3c 44 89 de 3d
       -0.07419641 0.013703795 0.0197908 0.10866025
000030 2b 90 f5 bb ae 8c 96 3c a1 9d 84 bd 67 f1 f7 3c
       -0.007493993 0.018377628 -0.06475378 0.030266477
000040 b4 b1 e5 3d 9b e4 48 bd 6d ee 5f bd d8 00 14 bd
       0.11215535 -0.04904614 -0.05467074 -0.036133617
000050 5c c6 c5 3d 4a 87 87 bd f6 48 39 bd b1 b3 03 3e
       0.09656975 -0.06617601 -0.045235597 0.12861516
000060 56 f3 31 bd 1b 69 ac 3c 07 2e 5a 3d c0 26 8e 3c
       -0.043444954 0.021046212 0.05326655 0.017352462
000070 1e 6c 5f bd 71 20 36 3d 61 de c7 bd 0b 03 58 3c
       -0.054546468 0.044464532 -0.09759212 0.013184319
000080 8f 67 e2 3c ad 05 e3 3d 00 76 28 3d 92 a5 a1 bd
       0.027637271 0.11085067 0.04112816 -0.07892908
000090 c0 84 9d 3b bd 8e 40 3d 4d b6 88 3d 6e 2c ed 3c
       0.004807085 0.047011126 0.06675396 0.02895185
0000a0 09 b3 a8 bd 6a ed 7b bd f7 5b 04 3d ea 0b 66 bd
       -0.08237273 -0.061505713 0.032314267 -0.056163706
0000b0 6b 0b 0b bb 2f 5c 9d bc 63 c7 2d 3d 9b 25 0e bd
       -0.0021216522 -0.019208996 0.042426478 -0.034703832
0000c0 91 9a 3d bd c8 a5 27 3c 12 4b 9f 3c 5d e9 4f 3c
       -0.046289984 0.010232396 0.019444976 0.0126899155
0000d0 a8 26 c0 3d 36 55 4b bd 41 2b 10 3a 91 9e 07 3d
       0.09382373 -0.04964181 0.00054996094 0.033110205
0000e0 be 4e bd bd 7d 7e a9 ba 8c d9 99 bd 43 bf 8f bc
       -0.092435345 -0.0012931373 -0.07512197 -0.017547255
0000f0 c0 33 0e bd 8c 82 95 bd 5a 1b ad bc e3 9a c4 bc
       -0.03471732 -0.073002905 -0.021131206 -0.023999637
000100 0d 84 d6 bc a7 c7 ae 3d 03 1d 55 3b 5c 52 03 bd
       -0.026186014 0.085341744 0.0032518513 -0.032060966
000110 a7 8c 5b bd d7 33 9e 3b c9 08 8a bc 1b ce 1c 3d
       -0.053600933 0.004827957 -0.016849892 0.038282495
000120 2d d6 64 3c 6b 05 bc 3c 36 ae 0e 3c 68 30 fa 3d
       0.013967079 0.022951802 0.008708527 0.12216264
000130 d8 08 e5 bb a6 fd 39 bb 4d 66 bc 3b 64 3b f5 bd
       -0.0069895796 -0.0028379946 0.0057495 -0.119742185
000140 09 60 d2 bd a0 85 02 3d dc b7 69 bc 4a 61 35 3d
       -0.102722235 0.031865716 -0.014265027 0.044282235
000150 51 2a 3f bd 8d a3 87 bd 8e 94 f4 3d 3d 50 8d 3c
       -0.046671215 -0.06622992 0.11942397 0.017250175
000160 95 62 80 bc 1e 6e 85 3c d8 4b c6 3d 1a 66 90 3d
       -0.015672008 0.01628786 0.09682435 0.07050724
000170 7e d5 4e 3c c4 8f 56 3d d0 a9 65 3d 81 3b 12 3d
       0.012624143 0.0523832 0.05607015 0.03570128
000180 31 d5 62 3d d6 ee 1f 3c e3 dc 04 3e d8 da bc 3d
       0.055379096 0.009761533 0.12974887 0.09221429
000190 86 23 47 bd 4e 8e 5b bc 03 7e 50 bd 3b cd b5 3d
       -0.048617862 -0.013400627 -0.050901424 0.08877035
0001a0 16 10 8c bd 24 53 5e 3c 60 92 75 bb ff 6b 82 3d
       -0.06839006 0.013569627 -0.003747128 0.06368255
0001b0 c7 e9 9e 3d 46 35 1a bd 0e f5 ab bb 05 f6 1c 3a
       0.07759433 -0.03764846 -0.0052477187 0.00059875875
0001c0 d8 8b 0a be da 47 41 bd 01 3a dd bc d1 fa 2c bd
       -0.13529909 -0.047187664 -0.027005197 -0.042231385
0001d0 eb b0 ce 3b 05 3b 80 bd 7a fb d3 3d 37 83 c4 bd
       0.0063077114 -0.06261257 0.103507 -0.0959534
0001e0 37 db e6 3c 5c 14 93 bc cb a7 ef bb 53 7e e5 ba
       0.028180702 -0.017954044 -0.0073137037 -0.0017508961
0001f0 97 0e 0c be ce ef c8 3c 76 55 47 3c c9 df d5 bc
       -0.1367744 0.02452841 0.012166372 -0.026107686
000200 97 a9 8e bd ad 12 c3 bc d5 ed 4b 3d 80 77 05 3c
       -0.069659404 -0.023812616 0.04978736 0.008146167
000210 5c 4e 46 bd 8c ab 86 bd a3 ad ce 3d 4a c3 ef 3c
       -0.048414573 -0.06575689 0.10091712 0.029267926
000220 3a b2 a3 bd 4d 4c 41 3b a1 20 cf bc c7 f4 56 3d
       -0.079929784 0.0029494942 -0.025284113 0.05247953
000230 b0 b1 00 3c 3f c6 71 bd 18 5a 86 bd bd 15 97 bd
       0.007854864 -0.059026953 -0.06560153 -0.07377193
000240 0a ee 20 bb de 33 4b bc 10 34 ed 3c 3f 3e 30 3d
       -0.0024555945 -0.012402503 0.02895549 0.043028113
000250 84 6c 7a 3d 9c f4 04 be e1 71 cc bc 2e 77 cf bc
       0.061138645 -0.12983936 -0.024956645 -0.025325384
000260 2c b9 1d 3e b0 5a d7 bc bc 29 91 bd df 26 1b bc
       0.15402669 -0.02628836 -0.07088038 -0.009469717
000270 10 f0 7b 3d d7 c2 ac 3c 3d 6b a6 bd 03 f4 2e 3c
       0.06150824 0.021089 -0.08125923 0.010678294
000280 03 27 31 bd 68 8b 01 bd 8e 1e f5 3d db 52 05 bd
       -0.043250095 -0.03162709 0.119687185 -0.03254972
000290 37 47 ac ba 52 2f bf bc 82 66 10 bc 28 fb 08 3d
       -0.0013143782 -0.023337994 -0.008813502 0.033442646
0002a0 b9 d4 06 be 4e 23 b9 3c d0 ec 8b bc 31 73 57 3d
       -0.13167085 0.022599842 -0.017080694 0.05260009
0002b0 ce 87 ac 3c 4b 30 7d bc fb 8d 02 be 91 79 91 3d
       0.02106085 -0.0154534085 -0.12749474 0.07103265
0002c0 55 ab 09 bd 31 3f bd bd 91 10 af bc 37 ba d0 3c
       -0.03361066 -0.092405684 -0.021370204 0.02547942
0002d0 2b e2 ae bd 00 dd 86 bd 3f a6 1e bd c2 14 75 ba
       -0.08539232 -0.06585121 -0.038732763 -0.00093491015
0002e0 67 4c 6f bd f1 27 04 3d a0 28 58 bd 37 02 13 bb
       -0.058422472 0.032264654 -0.052773118 -0.002243174
0002f0 53 e2 0d 3d 1e 99 e1 bd 5d bf da 3d 03 fc 92 3c
       0.034639668 -0.11015533 0.10681031 0.017942434
000300 c5 b4 15 3c 6b 7f 6a 3d 63 6c 82 bc df 31 be bc
       0.009137337 0.05725042 -0.015920823 -0.02321714
000310 52 90 87 3d 9c 53 f6 3d fc b5 b7 bd 2c 03 fe bc
       0.06619324 0.12027666 -0.08970258 -0.031007372
000320 ed db 10 bd 9b 8f 27 3d 30 12 02 be c7 68 7a bb
       -0.035365988 0.040908437 -0.1270225 -0.0038209425
000330 4c 5f a0 3b 40 3a df 3d b1 e5 12 bc 8a 4e 99 3d
       0.004894173 0.10899782 -0.0089658955 0.07485683
000340 60 e1 6a 39 22 6e 9d bd 2f 8e 30 bd 73 c5 bf 3b
       0.00022399938 -0.07687022 -0.043104347 0.005852395
000350 60 dc 62 bd dd 83 cb bc 74 da 3a bc a2 35 b0 bd
       -0.055385947 -0.02484315 -0.011404622 -0.0860398
000360 1e 33 94 bd 76 91 11 be b0 2d 79 3d 53 ab f0 bd
       -0.07236312 -0.14215645 0.060834587 -0.117514275
000370 23 43 09 bd de 72 f2 3d 09 80 3e 3d 78 a1 27 3d
       -0.033511292 0.118383154 0.046508823 0.040925473
000380 c2 35 3f bc c1 e0 ec 3c 06 54 0d 3d 0a 74 07 3c
       -0.011670532 0.028915765 0.03450396 0.008267412
000390 9c ec 23 3c 38 22 eb bc eb a6 f8 bd 6a 6c e5 bd
       0.010005143 -0.02870284 -0.12141212 -0.11202319
0003a0 2f 68 24 3d ae b4 83 3d f6 62 99 bc 66 e3 29 3d
       0.04013842 0.06430946 -0.018723946 0.04147663
0003b0 4e cd 43 bc 11 9d 40 3c 16 1c 89 bd b6 57 b1 3d
       -0.011950804 0.011756198 -0.0669481 0.08659308
0003c0 3a 49 b9 bc 36 f4 48 bb ba c2 12 3d b6 ee c1 bc
       -0.022617925 -0.003066314 0.035830237 -0.023673397
0003d0 fa 23 52 bd 9b 04 37 3c 7e ce 56 3d cc cf 19 3d
       -0.05130384 0.011170532 0.05244302 0.037551686
0003e0 5f 37 08 bd 59 04 0a bd 87 32 a2 bd 12 53 89 bd
       -0.03325593 -0.033695552 -0.079197936 -0.067052975
0003f0 f4 d7 e7 3a ea c5 da bc a6 5e df 3d a0 ed 8f bd
       0.001768826 -0.0267057 0.10906725 -0.07027745
