results/LevelGen_PPO_NRS_001/LevelGeneration/LevelGeneration-538617.onnx (onnx, 286641 bytes, 6 tensors)

action_model._discrete_distribution.branches.0.bias f4 [4]
000000 23 9d 16 be 10 75 50 3d 89 19 55 bd 5f 8e b3 3c
       -0.1470838 0.05089289 -0.052026305 0.021918474

action_model._discrete_distribution.branches.0.weight f4 [4, 256]
000000 32 97 5c 3c 77 2c 0b 3e 21 c0 50 3d 4c 2e e5 3d
       0.013463782 0.1359118 0.05096448 0.11190471
000010 9f 4e a6 3c d8 77 0f 3e ed 8f 84 3d e2 58 f2 3d
       0.020301161 0.1401056 0.06472764 0.11833359
000020 0d 9c 05 3e b5 27 62 3c b4 51 d4 3d e5 df d8 3d
       0.1304781 0.013803412 0.10367146 0.105895795
000030 dc 4b d1 3d 0f 2c 6b bc 8d cd 33 bc c6 83 cc 3d
       0.10219547 -0.014353766 -0.0109743 0.09986071
000040 dc 06 d1 bc 4a 24 ea 3d e1 26 d6 3d 98 03 b0 bc
       -0.025515966 0.11432703 0.10456634 -0.021486089
000050 a7 bf 01 3e ef 52 82 bc 75 f0 2b 3e e5 b3 a2 bc
       0.12670766 -0.015908686 0.16790946 -0.019861171
000060 c6 90 a2 3d 81 62 11 3e 37 0f dd 3d 68 06 e2 3d
       0.079377696 0.14197733 0.107939176 0.11036378
000070 cb 35 11 bb e7 0b 3d bc db 48 12 3e c5 64 20 3e
       -0.0022157307 -0.011538482 0.14285605 0.1566344
000080 6f a3 28 bb 64 7b 14 3e 51 60 51 3c 64 07 12 3e
       -0.002573218 0.14500195 0.012779311 0.14260632
000090 60 8c fa bd d8 9b 1a 3e a4 cb 38 3d 63 fb d7 3d
       -0.12233806 0.15098512 0.04511608 0.10545995
0000a0 22 fd ce 3d d7 ec b4 ba f2 db 0a 3e 7e 60 0a 3e
       0.10106875 -0.0013803494 0.13560465 0.13513371
0000b0 d1 31 00 3e 0b 8f 99 3b d3 e9 f8 3d ef 66 27 3e
       0.12519003 0.0046862415 0.121539734 0.1634786
0000c0 87 91 20 3e 16 68 25 3e f0 0b 13 3e c8 0a c4 3d
       0.15680514 0.16152987 0.14360023 0.09572369
0000d0 bb fb 1b 3e a3 33 a4 3b 81 b3 f7 3d 4a 15 cf 3d
       0.15232746 0.0050110384 0.120947845 0.101114824
0000e0 9f 85 1c 3e ab 58 09 be 35 33 8f 3b 71 bd 0a 3e
       0.15285347 -0.1341273 0.004370118 0.13548829
0000f0 f6 4f 0f 3e 72 b5 09 3e f9 da 0f 3e 9f 55 c3 3c
       0.13995346 0.13448122 0.14048375 0.023844538
000100 fa df 91 3c 16 bf 15 3e 3a b4 01 3e 9b b4 f4 3d
       0.017806996 0.14623675 0.12666407 0.1194851
000110 92 2d 23 be ad d5 1d 3e 67 ed 00 3e c7 80 8e bc
       -0.15935352 0.15413542 0.12590562 -0.01739539
000120 b5 df b3 3d fa 9a 06 3d 5a 24 23 3e 9b ca b0 3d
       0.08782903 0.03286264 0.15931836 0.08632394
000130 99 53 33 3e 10 4a 6b 3d f1 ad 20 3e e4 73 79 3d
       0.17512359 0.05744368 0.15691353 0.060901538
000140 d8 79 e5 3d 51 6f 0e 3e 68 2c d1 3d b9 68 90 3d
       0.112048805 0.13909651 0.10213548 0.07051224
000150 09 2e 19 3e 73 7c e9 3d fd 90 90 3d 39 6d d0 3d
       0.14958967 0.1140069 0.07058904 0.101770826
000160 d6 51 04 3e 5b 90 1c 3e 24 d7 a5 3c 8d 79 f6 3d
       0.12921843 0.15289442 0.020244189 0.12034903
000170 45 99 fa 3d 99 92 19 3e 6d 74 19 3e 0c ec 15 3e
       0.12236265 0.14997329 0.14985819 0.14640826
000180 2e df 35 bc 9f 4a 13 3e 7e 69 1e 3e aa 81 e3 3d
       -0.011100573 0.14383934 0.1546993 0.11108716
000190 7a 39 3f 3d da 5c 27 3e b7 5c 29 3e 7b 78 d1 3d
       0.046685673 0.16344014 0.16539274 0.10228058
0001a0 80 66 b5 3d ac 8c 07 bc 99 ac fa 3d bd 62 80 3d
       0.08857441 -0.008273285 0.12239952 0.06268833
0001b0 06 91 a1 3d c9 ba 64 bc b6 a2 db 3c cf 53 0a 3e
       0.07888989 -0.013960549 0.026810985 0.13508533
0001c0 ce 81 89 3d 41 c4 2e 3d 22 23 d1 3d d5 5e fb 3d
       0.067142114 0.04266763 0.10211779 0.12273947
0001d0 0f 45 f9 3d 7b 31 ca 3b 72 b4 68 3d 56 e1 03 3d
       0.12171375 0.0061704493 0.05681271 0.03219732
0001e0 45 6f 11 3e 8f c9 04 3d 96 2a 22 3c b0 ef 08 3e
       0.14202602 0.032418784 0.009897849 0.13372684
0001f0 34 a2 e6 3c 58 30 19 3e 61 25 0e 3d 2c 03 ea 3c
       0.028153516 0.14959848 0.034703616 0.028565966
000200 b1 b9 de 3c 2e 18 d8 3d d8 fd 17 be 62 b6 0b 3e
       0.027188154 0.10551487 -0.14842927 0.13643792
000210 cb 32 87 bc eb 4a a5 3c 7a a2 1b 3e 3c e0 0d 3e
       -0.016503712 0.020177325 0.15198699 0.1385507
000220 cc ac 07 3e 4d 96 89 bd 05 ae cc ba 80 57 f3 3d
       0.1324951 -0.06718121 -0.0015615827 0.11881924
000230 fa 71 05 3e dc fd ca 3d 15 16 14 3e 56 a2 3e 3d
       0.1303176 0.09911701 0.14461549 0.046541534
000240 92 8d 1f bb de 35 96 3d 3d be ff 3d f6 82 d7 3d
       -0.0024345857 0.07334493 0.12487457 0.10523026
000250 58 d5 86 3d 90 f0 16 3e 4a bb e6 3d cf 1f 9a ba
       0.06583661 0.14740205 0.11266191 -0.0011758747
000260 48 38 b6 3a af 34 f2 3c a1 ba f9 3d af c6 ea 3d
       0.0013902271 0.029566137 0.121938 0.11463677
000270 e2 51 09 3d a8 18 0d 3e b0 c3 eb 3c a2 56 a8 3c
       0.033525355 0.13778937 0.028779835 0.020549122
000280 83 98 65 bd 14 d6 53 ba 1d 2f 0d 3e 19 7d 25 3e
       -0.05605365 -0.00080809114 0.13787504 0.16161002
000290 3d a1 16 3e 9d e5 03 3e e7 db 03 3e de 47 eb 3d
       0.14709945 0.1288056 0.12876855 0.11488317
0002a0 aa 6e be 3d 85 8a 37 3e e1 ce 2b 3e b5 42 05 3e
       0.09298451 0.17923935 0.16778137 0.13013728
0002b0 01 37 67 bd 90 dc 47 bd 84 4c c2 3d 39 33 9c 39
       -0.05644894 -0.04879433 0.094872504 0.00029792803
0002c0 c2 5b f0 3d 42 8b 75 3c e0 bb 14 bb a2 57 0b 3e
       0.117362514 0.014986815 -0.002269499 0.13607648
0002d0 2c db 87 3c fc 1d 82 bc fa e1 f5 3d f4 00 f4 3d
       0.016584001 -0.015883438 0.12005992 0.11914244
0002e0 b8 3d b3 3d 3a 5e bd 3d 7a 81 09 3e d1 8d 90 3c
       0.08752006 0.09246488 0.13428298 0.017645748
0002f0 9a 27 23 3e 12 9a 9c bd 92 19 81 3d a6 49 84 3c
       0.15933076 -0.07646574 0.06303705 0.0161484
000300 fb c2 df 3a 11 83 96 3a 0a 8b 05 3e db cb a0 bb
       0.0017071659 0.0011483153 0.1304132 -0.004907114
000310 bc 19 03 3e c4 5f 2b 3e e1 48 f6 3d d6 93 ef 3d
       0.12802786 0.1673575 0.12025619 0.11698119
000320 a7 3b f8 3d f1 f1 ff 3d b5 92 05 3e a0 03 21 3e
       0.12120753 0.124973185 0.13044246 0.15724039
000330 8a 0e ea bd 48 04 04 3e f6 58 57 bd 4e d3 f8 3d
       -0.11428554 0.12892258 -0.052575074 0.12149678
000340 c0 08 08 bc 57 04 f8 bd a5 6c 8a 3d 8d 88 13 3e
       -0.008302867 -0.12110203 0.067590035 0.14407559
000350 89 8f 2f 3e aa 8e cd 3b b6 e9 e5 3d 23 70 8e 3b
       0.17144598 0.0062731104 0.112262174 0.004346864
000360 91 50 e9 3d 62 4d 4f 3d f8 0a 07 be cd f1 ec 3d
       0.1139232 0.050610907 -0.13187778 0.11569557
000370 60 a0 0d 3e 02 ca 1b 3e 6a 26 ba 3d 52 bd 05 3e
       0.1383071 0.15213779 0.09089358 0.13060501
000380 36 88 1f 3e 41 e8 49 3d 1e 00 03 3e ae 69 f4 3d
       0.15579304 0.04929376 0.12793013 0.11934219
000390 33 7a 1d 3e a1 22 e6 3d d9 ef 35 3d 47 dc cc 3d
       0.15378647 0.11237074 0.04441819 0.10002952
0003a0 a2 08 2f 3e 47 83 01 3e 0c b1 89 3b cd 5b 18 3e
       0.17093137 0.12647735 0.004202014 0.14878769
0003b0 71 47 47 bc bd a2 18 3e 81 b8 80 3d 52 96 30 bb
       -0.012163029 0.1490583 0.06285191 -0.0026945067
0003c0 8d ef 05 3e 3b fb ef 3b 8b bd 27 3e fc 8d 0a 3e
       0.13079663 0.00732365 0.16380899 0.13530725
0003d0 b0 7c a3 bc 0c 67 ed 3d e7 1d d7 3d 8e ce 3a ba
       -0.019956917 0.1159192 0.1050375 -0.0007126116
0003e0 2e 3a 6d bc 7f e9 df 3d c8 83 a3 3c 55 af 20 3a
       -0.014479203 0.10933208 0.0199603 0.0006129642
0003f0 2f 8f 18 bc 8d b1 00 3e 2c 77 e1 3d f1 3e 14 3e
       -0.009311481 0.1256773 0.11009058 0.14477135

network_body._body_endoder.seq_layers.0.bias f4 [256]
000000 32 ef 92 bd aa d6 12 bd ac b9 01 3b 8d 04 89 3d
       -0.07174529 -0.03584925 0.0019794507 0.06690321
000010 48 3d 8b 3b 86 e4 42 3d 7b a1 b3 bd 88 e1 a6 bc
       0.0042492487 0.04758122 -0.08771034 -0.020371214
000020 fd e2 02 bd 59 b7 46 bd 23 16 db bd 40 4e 1c bd
       -0.031954754 -0.048514698 -0.106975816 -0.038160563
000030 21 ad 5e bc 00 2d 2b bd 58 db 8e b9 5b 94 90 bc
       -0.013591082 -0.041790962 -0.00027247774 -0.017648866
000040 62 13 80 bc 47 c1 57 bc 61 d0 e1 bd f8 eb d4 bc
       -0.015634242 -0.0131686395 -0.11026073 -0.025991425
000050 0a 39 a1 3c 48 be e9 bd d0 ff 69 bb a7 ff 7f bd
       0.019680519 -0.114132464 -0.0035705455 -0.06249967
000060 47 c0 71 bd a5 9c c3 bd 16 c8 be 3a f4 be 93 bd
       -0.05902126 -0.09551362 0.001455548 -0.07214156
000070 08 bc 8a 3c 03 39 16 bc 70 c7 80 3d 09 ff 71 bd
       0.016935363 -0.009168866 0.0628804 -0.05908111
000080 81 99 66 bd 40 ae d7 3c 59 79 1c bd 57 4b 98 bd
       -0.056298736 0.026328206 -0.038201664 -0.07436245
000090 97 71 24 bd a7 c6 ec bc 78 92 94 bd b3 a1 5e bd
       -0.04014739 -0.028903319 -0.07254499 -0.054353427
0000a0 c7 29 8e 3b b9 7f bb bd 92 bb c7 bc 19 68 45 bd
       0.0043384763 -0.091552205 -0.024381433 -0.04819498
0000b0 63 46 6d bd b0 bb 84 bd c7 04 e8 bd 86 59 52 bd
       -0.057928454 -0.06481111 -0.11329036 -0.051354907
0000c0 0b c7 9d bd 36 f1 d0 bb 19 95 79 bc 4f 7e b3 ba
       -0.0770398 -0.006376411 -0.015233302 -0.0013694259
0000d0 6e d2 9a bd 1d d7 ab bd 7f a3 29 bc ef 88 e8 3c
       -0.075596675 -0.08390639 -0.010353922 0.028385608
0000e0 76 f9 a1 3d 1a 29 12 be 2b a0 ea bd e9 f8 f6 bc
       0.07908909 -0.14273492 -0.11456331 -0.030147986
0000f0 18 eb cc bd cc 47 a2 bb af 70 d8 3c b1 d5 ff bd
       -0.10005778 -0.0049524065 0.02642092 -0.1249193
000100 1b 26 03 be d7 70 cb bd f6 66 14 be 40 69 f8 bd
       -0.12807505 -0.09933632 -0.14492401 -0.1212945
000110 58 ed de bd 74 2a 26 bb 18 74 fe bd 6c 78 7d bc
       -0.108851135 -0.0025354894 -0.12424487 -0.015470605
000120 34 a9 f1 ba 90 7e 9a bd 95 73 10 bd 3b a4 6c bd
       -0.0018437267 -0.07543671 -0.035266478 -0.05777381
000130 ee 88 c6 bd 1a cf 73 bd b3 41 d5 bd ca 15 0e be
       -0.09694086 -0.05952368 -0.10412922 -0.138755
000140 e0 e1 22 3c 51 b7 07 bd d5 e1 c6 3c 26 1f 83 3d
       0.009941548 -0.03313381 0.024277607 0.064024255
000150 1c 52 e4 bd b4 06 40 bd ed 79 60 bb 7d e0 88 bd
       -0.111484736 -0.046881393 -0.003425236 -0.06683443
000160 70 68 70 bd a4 fd 00 be f7 34 cf bd 66 dd aa bd
       -0.05869335 -0.12596756 -0.10117524 -0.0834301
000170 ba 05 1e 3c 99 e6 0b 3c d0 81 68 bb 05 7a 56 bd
       0.00964492 0.0085388655 -0.0035477765 -0.05236246
000180 54 d0 b3 bd 43 be 3f 3c f3 b4 c5 bd 10 f2 38 bd
       -0.0877997 0.011703077 -0.09653654 -0.045152724
000190 a6 de 08 bd 46 79 a4 bd 28 b2 1e 3d 31 d7 95 bd
       -0.03341546 -0.080309436 0.03874412 -0.07316435
0001a0 ee bb bc bd cd d1 18 3d 46 c2 99 bd 49 26 58 bd
       -0.09215532 0.037309457 -0.07507758 -0.052770887
0001b0 89 ea 66 bc c9 7e 50 bd 0c 5d 31 bd 75 bb bc bb
       -0.0140940035 -0.05090216 -0.043301627 -0.0057596513
0001c0 87 ef a7 bd 03 ff 5c 3d df 53 9d bd 5f 29 8c bd
       -0.08199983 0.053954136 -0.07682013 -0.068438284
0001d0 12 48 36 bd 7b 46 05 bd 0e 0b 2d bc 3a e6 a3 bc
       -0.044502325 -0.03253792 -0.010561718 -0.020007242
0001e0 51 d8 e5 bd 10 83 b3 3c 9a d6 6a bd a1 f6 85 bd
       -0.112229 0.021913081 -0.057333566 -0.06541181
0001f0 75 cf 05 bd a5 a6 d9 bd 7c 74 26 bd 8c bd a4 bd
       -0.03266855 -0.10627488 -0.040638432 -0.08043966
000200 82 ed 0c 3c f8 52 06 bd c0 0d 38 3d 5f 1f ce bc
       0.008601548 -0.03279397 0.044934988 -0.025161443
000210 99 4c a7 bd 43 b2 ae bb a4 f6 04 bc 94 20 40 bd
       -0.08168907 -0.005331309 -0.008115444 -0.04690607
000220 ea df 70 3d d6 e2 e1 bd b3 db b9 bc e0 8b 71 3d
       0.05880729 -0.11029594 -0.022687769 0.058971286
000230 9e bc 03 3d 55 c6 d7 bd 14 af 73 3d d7 33 9e 3d
       0.0321623 -0.10535876 0.05949314 0.077247314
000240 0e 04 e0 bd 40 86 33 bd c9 95 85 bd e9 64 05 bd
       -0.10938273 -0.043829203 -0.0652271 -0.03256694
000250 5d a1 8b bd c7 5f ce 3c 19 1f b7 bd 12 c1 56 bc
       -0.06817887 0.025192155 -0.08941478 -0.013107555
000260 ce 94 d4 bd 2d 5c 8f bd 1f 2c 3b bd c3 1a 19 bd
       -0.10379945 -0.07000003 -0.045696374 -0.037379038
000270 99 93 05 bd a6 94 5f 3a 17 c5 db bd d1 a6 b3 3c
       -0.032611463 0.0008528925 -0.10730951 0.02193013
000280 30 f9 5b bd 82 35 43 bd 2f b0 51 bd 83 75 8a bd
       -0.05370444 -0.04765845 -0.051193412 -0.06760695
000290 6d 66 37 bc dd ea 9f bd af 2c ad bd db 59 8a bd
       -0.011193854 -0.078084685 -0.08455788 -0.0675542
0002a0 3b 72 37 bd 09 bc 88 bd 8f e3 16 bc 7b 1f 76 bd
       -0.044786673 -0.0667649 -0.009209528 -0.060088616
0002b0 21 a9 78 bd d8 10 fa bd 78 21 4f bd d6 c1 1f 3c
       -0.06070817 -0.12210244 -0.050569028 0.009750804
0002c0 55 52 8b bd 6d 72 e2 bc a3 77 9f bd cb e2 e0 bd
       -0.06802813 -0.027642453 -0.07786491 -0.10980757
0002d0 7d cc 43 bd 0e ad 64 bd ab 05 03 be 2e 96 eb 3c
       -0.047802437 -0.0558291 -0.12795131 0.028758135
0002e0 36 a8 c0 bd 22 ef cd bd 87 3f 4b bd 1f 06 c1 bd
       -0.09407084 -0.100553766 -0.04962113 -0.09424996
0002f0 25 60 99 bc 53 54 9f bd d3 dd 0d 3c 49 eb a3 3d
       -0.018722603 -0.077797554 0.008658844 0.080038615
000300 bf cf 48 bd 38 c3 30 bd 13 1b a1 bd 83 7b 64 bc
       -0.049026247 -0.043154925 -0.07866492 -0.013945463
000310 63 fe b9 bd 32 27 c9 bd 50 68 f6 bb e4 99 27 3d
       -0.090817235 -0.09821929 -0.0075197592 0.040918246
000320 89 13 cb 3c 95 a8 9a bd 63 57 ca bc 2c 29 8f bd
       0.024789589 -0.07551686 -0.024699872 -0.06990275
000330 4e 96 97 bd ed 47 4d bc 63 de 42 3d b5 33 01 bd
       -0.07401715 -0.0125293555 0.047575366 -0.031543452
000340 f8 d6 83 bd 52 47 0b bc 99 52 c4 bd 9e 6f 42 bd
       -0.064374864 -0.008500891 -0.09586067 -0.047469728
000350 be a0 56 bd ca b6 97 bd 5f 80 c1 bc 7c 24 5f bd
       -0.05239939 -0.07407911 -0.023620782 -0.054478154
000360 2b 6a 07 bd f1 fb bc bd 86 19 99 bd ea 68 bc 3a
       -0.033060234 -0.092277415 -0.07475571 0.0014374529
000370 05 da 06 bb a5 e5 12 bd 51 27 96 bd 51 2b 9d bd
       -0.0020576727 -0.035863537 -0.07331718 -0.076742776
000380 36 bc 88 bd 4b 4f e0 bd b8 2f 60 bd 5c 06 4a bd
       -0.066765234 -0.10952624 -0.05473301 -0.04932247
000390 16 66 97 bd 6c ab 8a bd 64 f5 6a bd 88 15 6a bd
       -0.07392518 -0.067709774 -0.05736293 -0.05714944
0003a0 d6 3c 16 bd 09 65 d9 3c 31 69 7e bd 59 73 a6 3d
       -0.03667911 0.026537435 -0.062112037 0.081274696
0003b0 41 36 82 3d 9d 0c a2 bb 75 0a 8f bd 26 0a ab bd
       0.06358004 -0.0049453513 -0.069844164 -0.08351545
0003c0 5d 40 5d 3a a1 54 19 bd e9 6a bf bd fb e3 84 bd
       0.0008440072 -0.037434224 -0.09346563 -0.06488796
0003d0 e9 68 57 bd 0a a9 fd bb 4d 6f 52 3d f7 6f 34 bc
       -0.052590284 -0.0077410983 0.051375676 -0.011013023
0003e0 78 fa 5d bc ba c0 8a bd 9f 40 fe bd cb 3a 09 bd
       -0.013548486 -0.06775041 -0.12414669 -0.033503335
0003f0 6c eb 08 bd 79 67 91 bd 4b 16 80 bd d7 98 cc bd
       -0.03342764 -0.07099814 -0.06254252 -0.099900894

network_body._body_endoder.seq_layers.0.weight f4 [256, 16]
000000 ff 79 52 3d 26 6e 2a 3e e7 9f af bc 15 5e 5c be
       0.051385876 0.16643581 -0.021438552 -0.21520264
000010 45 7e 0b bf 42 e6 63 3e 71 e3 3b 3e 5d 9e 62 be
       -0.54489547 0.22255805 0.18348481 -0.22130723
000020 5f b9 80 3d 77 6e d6 3e f2 33 ab be 95 f6 50 3e
       0.06285357 0.41881153 -0.3343807 0.20406564
000030 5e 36 98 3e 6d 25 45 3e dd c2 5f 3e 50 29 14 be
       0.2972898 0.19252558 0.21851678 -0.14468884
000040 33 b2 85 be 21 55 5a bd 4c bc 54 be c0 25 ba be
       -0.26112518 -0.05330384 -0.20774955 -0.36356926
000050 8f ab c3 3e 9a eb 4a be 64 03 20 be d8 52 75 be
       0.38216826 -0.19816437 -0.15626293 -0.23957384
000060 45 e6 bd be 7b a8 db 3c a5 0d e5 3e 70 cd be 3d
       -0.37089744 0.026813736 0.44736972 0.09316528
000070 c1 46 8d 3d 0a 63 76 bd fd 7b 1a 3e cb 7d b3 be
       0.06898261 -0.060153045 0.1508636 -0.3505691
000080 9a 2f b9 be c6 76 e3 be be 38 4b bd 28 b9 e1 bd
       -0.3616913 -0.44426554 -0.04961466 -0.11021644
000090 77 b1 00 be 54 33 93 3d b0 2a 7b 3d db 2d a7 be
       -0.12567697 0.071875244 0.061320007 -0.32652172
0000a0 69 1f e0 3c 17 d1 df be 53 a2 35 3e ff db b0 3c
       0.027358728 -0.4371421 0.17737703 0.021589277
0000b0 ef 96 c5 3e 75 e9 4e 3e 89 0a 6e 3d 0f b4 96 3e
       0.38591716 0.20206244 0.058115516 0.2943425
0000c0 23 cf eb bc ac 0f 8a 3e 81 a1 28 bf dd b0 ac 3d
       -0.028785294 0.26965082 -0.65871435 0.084321715
0000d0 db f3 64 bd 40 e8 71 be f6 80 b7 3e 77 e8 dc 3d
       -0.05589662 -0.23623753 0.35840577 0.10786527
0000e0 98 d2 3b 3e 4e a0 8f be 68 38 9c be a2 4b bd be
       0.18342054 -0.2805199 -0.30511785 -0.36971766
0000f0 9c 6e 7f 3e 4c cd 4a 3e 81 73 9d 3e 05 9f 1d 3e
       0.24944538 0.19804877 0.30752185 0.15392692
000100 0c 2e 90 3c e8 2a 2c be 60 3b b0 be 10 45 83 be
       0.017600082 -0.16813242 -0.344203 -0.25638628
000110 1f 58 e5 be 2d f6 ad be ba 06 90 be 0a 2f bf bc
       -0.44793794 -0.3397688 -0.28130132 -0.02333786
000120 af af f9 3e 4a 46 aa be 74 8b 29 be 0e 45 e4 bd
       0.48766848 -0.3325675 -0.16557103 -0.11145984
000130 7f ff 3d be 12 f7 30 3e 75 d6 35 3d cf 28 cc bd
       -0.18554495 0.1728175 0.044393975 -0.09968721
000140 04 09 f6 be 94 2e 27 3c a2 2d 52 be 01 58 f8 3e
       -0.48053753 0.010203976 -0.2052522 0.48504642
000150 00 ba a1 3c 03 62 af be e9 c2 88 3d 0a 6b 08 3e
       0.019742012 -0.34254465 0.06677801 0.13322082
000160 a6 48 09 bd fd 98 bd be 43 1e 10 bf 06 ad 8d be
       -0.03351655 -0.37030783 -0.56296176 -0.2767107
000170 71 0a 77 3e cd 74 b7 3c 85 b3 12 bf 5b c9 82 be
       0.24125077 0.022394562 -0.57305175 -0.25544247
000180 19 84 18 bf 24 fe 83 be 29 20 ad 3e 5e f5 ac bc
       -0.59576565 -0.2577983 0.338136 -0.021113094
000190 29 6d 9c 3b ad f7 4c 3e e0 82 8f 3d bd ce 37 3f
       0.004773755 0.20016356 0.07007384 0.7179983
0001a0 e9 d1 cd bd 03 77 be bd d7 96 83 3c 05 83 a4 3d
       -0.10049803 -0.093000434 0.016063137 0.080328025
0001b0 e5 e1 33 3d a5 c5 fe 3d ae 46 d5 3d 89 fb 2c be
       0.0439166 0.124400415 0.10413872 -0.16892828
0001c0 4f 49 2c be 0e 91 69 be e5 69 96 3d 02 d9 e2 bd
       -0.1682484 -0.2280924 0.073444165 -0.11076547
0001d0 6c 1f 0b 3e ef ca 4f 3c 65 95 1d 3e 80 e3 bf 3d
       0.13586205 0.0126826605 0.1538902 0.09369564
0001e0 d6 11 8f bd e9 32 d3 3e 69 9f 38 be 64 08 63 be
       -0.06985824 0.4124978 -0.1802956 -0.2217117
0001f0 b3 ad a1 3e bb 9f dc 39 aa 34 ff 3c 36 24 e3 bd
       0.31577834 0.00042080678 0.031153042 -0.11090891
000200 60 75 a4 be a9 b4 4a be 6c fa 04 be 74 18 94 bd
       -0.321208 -0.19795479 -0.12986153 -0.072312266
000210 51 4d d6 bc 55 42 0d be 64 b0 28 be ac 9c 18 3e
       -0.026159914 -0.13794835 -0.16473538 0.14903516
000220 e4 a5 7e be 6b 83 d6 bd f6 17 cb bd 3f 0f d5 be
       -0.2486797 -0.10474285 -0.099166796 -0.41613194
000230 ad aa 9e 3e 61 80 36 be f5 ac 2a be 54 b2 49 be
       0.3098959 -0.1782241 -0.1666754 -0.19696933
000240 e5 7d 42 3f f9 46 e7 3d 71 f5 81 bc 1e 41 57 3d
       0.7597335 0.11292834 -0.015864106 0.052552335
000250 dd dc ba be 41 5d b3 be 9f c0 53 3e 99 bf a0 be
       -0.3649663 -0.35032085 0.20678948 -0.31396177
000260 8b 95 8d be 2e 75 5b be 27 83 56 bd bc b3 0a 3e
       -0.27653155 -0.21431419 -0.05237117 0.13545126
000270 08 8f fd bd 1d 1b ba 3e 82 2b a6 3e 6e ba 90 be
       -0.12380797 0.3634881 0.3245507 -0.28267235
000280 28 8e ec bb 0c c8 32 be 7f 71 0c bf 52 3e a8 be
       -0.007219095 -0.17459124 -0.5486068 -0.32860047
000290 f1 2b d2 3e 09 f8 30 be 72 54 bd 3d b4 98 2d 3e
       0.4104915 -0.17282118 0.09244622 0.16952783
0002a0 09 13 86 3e 64 d7 08 3e 95 60 41 3d 4b a9 a6 3e
       0.26186398 0.13363415 0.04721125 0.32551035
0002b0 58 ab 96 3d 56 fa 99 3e c7 13 22 be a3 08 58 3d
       0.073569 0.30073804 -0.15827857 0.05274261
0002c0 3a 94 5d bf d6 39 9d bd 49 42 50 3e c1 94 ad be
       -0.865543 -0.07677047 0.20337786 -0.33902553
0002d0 06 de 0b be e7 1d ed be 40 72 b4 3e e8 bd 37 be
       -0.13658914 -0.46311876 0.35243416 -0.17943537
0002e0 2b ab cc 3e b6 a8 a7 bd 6f 54 76 bd 8a ee 04 be
       0.3997434 -0.08186476 -0.060139116 -0.1298162
0002f0 62 0a 9d be b4 18 5a be 8b fd 99 be b5 57 e4 3e
       -0.30671984 -0.21298486 -0.3007625 0.44598165
000300 10 4e ec 3e 81 5f 90 bd 7f 58 3c bd e7 8e d2 bd
       0.46153307 -0.07049466 -0.045982834 -0.10281163
000310 b0 8b 37 3e a9 4c 4f 3e cd 3f f7 be 11 20 d6 3d
       0.1792438 0.20244087 -0.48290864 0.10455335
000320 7a 53 86 be f6 60 44 bd 56 e3 29 3e 52 2e 7b 3e
       -0.26235563 -0.04794403 0.16590628 0.24529389
000330 49 3a 0f 3e c4 4b d1 bd 7c 66 00 bf 2e ed 40 3e
       0.13987078 -0.10219529 -0.5015638 0.18840477
000340 b6 15 b3 be 93 7d cf 3d c6 4a 24 3e 32 75 8c 3d
       -0.34977502 0.10131373 0.16044149 0.06858291
000350 57 cf c3 3d e8 f2 30 be 32 36 c5 be ea dd 40 be
       0.09561031 -0.17280161 -0.3851791 -0.18834653
000360 61 e7 a3 bd 82 c2 a0 be 5c 92 55 3e 8b be a5 3e
       -0.080031164 -0.31398398 0.20856613 0.32371935
000370 32 d0 18 bd bd 54 38 bf 9a c5 89 be 71 03 8e be
       -0.037307926 -0.720043 -0.2690857 -0.27737
000380 2c ab cf be 82 8f 38 bd 31 47 b3 be 99 22 1e 3e
       -0.4056028 -0.045058735 -0.35015252 0.15442885
000390 23 fa 2b be 08 bb 75 be 76 dc d1 3b 4f 1b a8 3d
       -0.16794638 -0.23997128 0.006404455 0.08208334
0003a0 13 92 8d be 9c 17 02 3e c5 03 e4 be eb 6c 3f 3d
       -0.27650508 0.12704319 -0.44534126 0.04673473
0003b0 32 62 0d bf 34 37 8d be 96 2c 86 3e 75 c5 4e 3e
       -0.5522796 -0.2758118 0.2620589 0.20192511
0003c0 f2 77 8d be 5b c0 b5 3c 1a 7c ec bd 5d e6 e9 bd
       -0.27630574 0.022186449 -0.11547108 -0.114208914
0003d0 3d fe 1c be 2b d7 a4 bd db 3c 3a bd da 4e 91 3d
       -0.15331359 -0.080488525 -0.045468193 0.07095118
0003e0 f0 bb 66 3d 6f 18 40 be 94 88 ab bb 66 89 94 3d
       0.056331575 -0.1875932 -0.0052347872 0.07252769
0003f0 f6 e3 89 3d f8 b6 c5 3e 6f 0c 1c bd d0 cb 53 be
       0.06732933 0.38616157 -0.038097795 -0.20683217

network_body._body_endoder.seq_layers.2.bias f4 [256]
000000 d6 8a 5c bc 1e 40 ba bc 71 b9 5c bd 84 da a9 bd
       -0.013460835 -0.022735652 -0.05388779 -0.08293632
000010 54 d1 7f bc 85 80 73 bc 65 77 35 3d b9 89 91 bd
       -0.015613873 -0.014862184 0.044303317 -0.07106347
000020 e6 c6 1a 3d e5 5c 76 3d a9 fa bd 39 b6 5b 19 3d
       0.03778734 0.060147185 0.00036235646 0.037440978
000030 2e 86 13 bd 94 b6 80 3a dd 95 2d bc 7e 3c 05 3d
       -0.036016636 0.0009820038 -0.010594812 0.032528393
000040 96 91 35 bc 61 89 82 bd 73 5d 40 bd 13 ca 9f 3d
       -0.011082074 -0.06373859 -0.04696412 0.078022145
000050 65 25 8a bd a9 f2 09 bd 89 aa 01 3a b7 0c 34 bc
       -0.06745414 -0.033678684 0.0004946371 -0.01098936
000060 17 4c 17 3d 94 b4 24 bd d5 44 c2 bc 97 85 7f bd
       0.0369378 -0.040211275 -0.023714462 -0.06238326
000070 71 6c 5f 3c dd ff 17 bb e3 f2 0b bd 4d c7 3e bc
       0.013636694 -0.0023193278 -0.03416718 -0.011644197
000080 e2 6f d6 bb 9e a4 65 bc 73 89 d3 bb 89 1c f9 bc
       -0.006544099 -0.014016299 -0.006455594 -0.030409114
000090 93 5b 14 3d 5b 83 28 bd 2d fb 24 bd 62 1f 86 bd
       0.036220144 -0.041140895 -0.040278602 -0.065489545
0000a0 99 12 60 bd f1 b4 94 bb c2 38 cd ba f2 c7 65 bc
       -0.054705236 -0.0045381715 -0.0015657174 -0.014024721
0000b0 06 b9 9b bd 77 fc 4a bc 2f cb 15 bd 18 c0 17 bc
       -0.0760365 -0.012389294 -0.036570724 -0.009262107
0000c0 5e d4 df bc b3 ef 36 bc 59 34 0b bd 16 00 eb bc
       -0.027322944 -0.011165547 -0.03398547 -0.028686564
0000d0 3c cd 87 3b 20 66 d2 bc f9 cf 8e bd 08 ca 99 bd
       0.004144339 -0.025683463 -0.069732614 -0.075092375
0000e0 34 de e2 bc 6c db 36 3d 39 fc c0 bb 22 8f 78 bd
       -0.027693845 0.04464285 -0.0058894423 -0.060683377
0000f0 0c 78 76 bd 86 76 a5 3c 33 ed 6a bd f5 fc 85 3c
       -0.06017308 0.020198118 -0.057355117 0.01635597
000100 a4 8a 10 3d f0 5c 3d ba 31 56 80 bd 9b e2 75 bd
       0.035288468 -0.00072236266 -0.0626644 -0.06003056
000110 0e 21 9e 3d 3a f8 b3 3b 60 84 a0 3c 8b 13 46 3d
       0.077211484 0.0054922374 0.019594371 0.04835848
000120 90 d3 a1 ba 82 50 88 bc 92 be 59 3b 13 d9 3e bd
       -0.0012346376 -0.016639952 0.003322516 -0.046593737
000130 72 69 8d bc a6 96 4c 3d 93 c8 c7 3a 3b 5c 62 3d
       -0.017262194 0.049948357 0.0015242271 0.05526374
000140 7f 71 69 bd 92 c6 3c bd 1b 8e 6f bc 19 04 09 3d
       -0.056993004 -0.04608781 -0.014621283 0.033451173
000150 a7 52 03 bc ef 50 37 bd 07 09 cc bc f6 d8 3a bd
       -0.008015311 -0.04475492 -0.024906648 -0.045617066
000160 6c 80 81 bd a6 8b d7 bb 9b d0 5d 3c 25 82 49 3c
       -0.06323323 -0.0065779267 0.013538505 0.012299095
000170 1d b7 01 3d dc 23 1d bd 24 20 9d bc 26 be 1f bd
       0.03166877 -0.038364276 -0.019180365 -0.0389997
000180 90 40 99 3c b3 58 da 3c 6f 9c 93 bc 0b 4e 81 bd
       0.018707544 0.026653623 -0.01801893 -0.06313714
000190 c7 19 ce 3c e8 38 6b bc 12 dd 95 3c 99 06 e8 bc
       0.025158776 -0.014356829 0.018293891 -0.028323459
0001a0 a2 96 a2 bd d7 c1 c8 bc a3 b0 97 bd a4 40 49 bd
       -0.07938887 -0.024506493 -0.07406738 -0.04913391
0001b0 2d 93 81 bc 75 4b 7c bc f3 80 09 bb b6 e4 c6 bc
       -0.01581725 -0.01539885 -0.00209814 -0.02427898
0001c0 7f 9e 2a bd 0e 2a 61 3c e7 8f da 3c 97 e2 6c bd
       -0.04165506 0.013742937 0.026679946 -0.05783328
0001d0 e2 e3 a8 bc 49 59 63 3b d4 2f 4a bd d4 eb 70 3c
       -0.020616475 0.003469067 -0.04936202 0.014704663
0001e0 31 de 36 bd ea c1 a7 bc a0 ed 99 3c 86 5f f2 bc
       -0.044645492 -0.020478208 0.018790066 -0.029586565
0001f0 d7 8b 07 3c 6d 1d 8b bc 27 62 80 3c 71 b6 a2 3c
       0.0082730865 -0.016981805 0.015671803 0.019862385
000200 f3 f3 97 bc 54 9d 7c bc 89 a4 a9 3d 92 d0 30 bd
       -0.018548941 -0.015418369 0.08283336 -0.04316766
000210 db 4c 71 3d a3 37 b2 bc 40 7e 87 bc 12 50 2b bd
       0.058911186 -0.021755045 -0.016539693 -0.041824408
000220 5d 73 66 bd 7d 53 27 3d c4 f8 ee bc 8a 11 8f bd
       -0.056262363 0.040851105 -0.029171355 -0.06985767
000230 5a 39 8a bd 61 45 6e bd 0a 58 1c bd f8 68 92 bd
       -0.0674922 -0.058171634 -0.038169898 -0.071489275
000240 08 dd a8 bc 39 3f dc 3c d8 20 a0 bd f7 34 23 bd
       -0.020613208 0.026885616 -0.078187644 -0.039845433
000250 74 16 10 bc 4c ab ec 3b bb c7 52 bd cb a1 00 bb
       -0.008794416 0.0072225686 -0.05146001 -0.0019627686
000260 f2 b2 eb bb 81 d5 96 3b 0c cd 72 bc fc 28 3f bd
       -0.007192963 0.0046030884 -0.014819395 -0.046669945
000270 29 e9 40 3c f3 4f 34 bb cc 6e 88 39 80 b4 32 3d
       0.01177434 -0.0027513474 0.00026022492 0.04362917
000280 ca c2 ad 3d 1e ac 47 bb 06 51 79 bc 15 58 05 ba
       0.08484419 -0.003046758 -0.015217071 -0.00050866726
000290 38 b2 f2 3a c3 1c 22 3d 57 67 88 bd 2a b0 15 3c
       0.0018516248 0.03957821 -0.066603355 0.009136239
0002a0 da f3 86 bd 1c 78 3c bb 59 df 4c bc 9a 2b 15 bb
       -0.0658948 -0.0028758114 -0.012504422 -0.0022761584
0002b0 94 8c a9 3d c1 60 25 3d f0 7a 19 3c da 62 4f bb
       0.08278766 0.040375475 0.0093676895 -0.0031644613
0002c0 6f e2 76 bd d6 a3 2f 3a e7 ec d5 bc 13 6e 91 bc
       -0.060274538 0.00067001337 -0.02611394 -0.017752683
0002d0 f2 6b 27 bc 43 4a 0b bb 75 7b 80 bd 94 79 61 bd
       -0.010218607 -0.002125398 -0.062735476 -0.055047587
0002e0 39 c0 94 bd 8e 48 97 bd 95 34 54 bc 89 83 53 3d
       -0.07263226 -0.073868856 -0.01295199 0.051639114
0002f0 3c b5 68 bc 2e 74 c5 3c f6 4c 42 3d 02 54 80 bc
       -0.014203366 0.02410325 0.047436677 -0.015665058
000300 6b cb 8d 37 0a 2c 62 bc 34 34 6e bd a2 f3 61 bc
       1.6903234e-05 -0.013804445 -0.058155254 -0.013790997
000310 0e a7 89 bd 22 d0 10 bd 47 b9 8c bd 7d 4d 46 3c
       -0.06721316 -0.03535474 -0.06871276 0.012103436
000320 8e 75 84 bd d9 65 61 bd 46 d2 8a bd 17 b7 94 bc
       -0.06467734 -0.05502877 -0.06778388 -0.01815371
000330 9e a3 a4 3d a4 e3 d0 3c 59 0c 6b 3d 99 a6 87 bd
       0.0803902 0.025499173 0.057384823 -0.06623573
000340 84 97 6b 3d 82 04 0f 3d d7 ac 19 3d 48 54 04 3d
       0.057517543 0.03491641 0.03751835 0.03230694
000350 4a 1d 28 bc d9 05 30 bc 7d fc 03 bd d4 de dc bb
       -0.010260889 -0.010743582 -0.032223213 -0.0067404304
000360 6d 88 69 bd bb c0 2f bd 28 88 24 3d a2 33 87 bd
       -0.05701487 -0.04290841 0.04016891 -0.06601645
000370 78 b1 47 bd b4 17 04 bb b5 77 bf bc 23 41 82 bd
       -0.04875323 -0.002015573 -0.02337251 -0.0636008
000380 de bc ed bb d5 ad 93 3d a2 5a 9d bd ed e6 42 bc
       -0.0072551807 0.0721089 -0.076833025 -0.011895877
000390 9e 6c 43 bd f2 22 05 3d 09 4b 6f 3c 74 83 31 3c
       -0.047711007 0.03250403 0.014605292 0.0108345635
0003a0 9a 71 58 bc 1c d6 80 bd a4 c3 8e bc 21 90 17 bd
       -0.0132106785 -0.06290838 -0.017427273 -0.037002686
0003b0 65 c5 03 3c 7f f5 08 3c 4d e5 6c bc fa fa 60 bb
       0.008042668 0.008359312 -0.014458966 -0.0034329281
0003c0 0a e4 b4 bc 65 e2 56 3d 8b a8 5a bc 41 6f d0 bc
       -0.022081394 0.052462 -0.013345848 -0.025443675
0003d0 6e 10 31 bd 82 11 fd b8 79 eb 2f bd 71 94 15 bc
       -0.04322856 -0.00012067241 -0.042949174 -0.0091296295
0003e0 92 f0 06 bc 51 4a 89 bd 54 ba 07 bc f0 a2 1e 3d
       -0.008236067 -0.06703628 -0.00828417 0.038729608
0003f0 f5 cd fb bb 63 ae 99 bd 5d d9 25 bd 2c 99 9f bb
       -0.007684464 -0.07503965 -0.040490497 -0.0048705544

network_body._body_endoder.seq_layers.2.weight f4 [256, 256]
000000 35 53 cc bb 1b 89 9b 3d a9 fc 50 3c a5 bc d0 bd
       -0.006235505 0.0759451 0.012755551 -0.10192231
000010 0a 4e 96 3d 17 74 f1 bc 68 d8 dc bd e5 ae 09 3d
       0.073391035 -0.029474301 -0.10783464 0.033614058
000020 91 b2 5b bd 59 e2 90 bd aa b2 0c be 16 48 d2 3c
       -0.05363709 -0.070744224 -0.1374003 0.025669139
000030 d2 8b 28 bc 37 c8 57 3d 18 6e 04 3e 6e 52 24 3d
       -0.010287242 0.052681174 0.12932622 0.040117674
000040 b8 1b 57 bd e4 f0 a6 3d a0 6e 94 bd a4 fb 03 3e
       -0.05251667 0.08151415 -0.072476625 0.12888962
000050 c6 e7 d1 3d bc 62 19 3c af 3a 33 3d e3 a1 93 3d
       0.102492854 0.009361919 0.043757137 0.07208612
000060 0f 2e aa bc 98 13 a0 3d 67 c8 02 3c e5 69 5a 3d
       -0.020773916 0.07816237 0.00798235 0.053323645
000070 ae 5e e8 3b 5d 1d b7 ba 5b 8c 7f 3d 0a ec 57 bd
       0.007091365 -0.0013970543 0.062389713 -0.05271534
000080 91 15 98 3c 62 c6 26 bd 9e e6 5d 3d 99 fc b0 3c
       0.018564971 -0.040716536 0.05417501 0.021604823
000090 1c 69 70 bd 50 61 bb bd db 71 ed 3c 42 f0 fb 3c
       -0.05869399 -0.0914942 0.028984955 0.030754212
0000a0 37 f9 0c 3c 66 a7 e9 bd a0 2e 54 bc ef 28 c1 3d
       0.008604339 -0.11408882 -0.012950569 0.094316356
0000b0 54 40 56 3c 3e 0b 54 bd 37 9a c0 bc cf 21 b3 bd
       0.01307686 -0.051768534 -0.023511035 -0.08746683
0000c0 5d a3 22 bd 91 d9 9c bd 26 92 b3 bd 15 2c 4d bd
       -0.039706577 -0.07658685 -0.0876811 -0.050090868
0000d0 44 ad 84 bd e9 be e9 3b fd 9a 6f bd b6 6e 7b bd
       -0.0647836 0.007133354 -0.058497418 -0.06138488
0000e0 16 87 a8 3d 52 c8 86 bb 02 ba 19 bd 69 67 1b 3d
       0.082288906 -0.0041132355 -0.037530906 0.037940416
0000f0 71 5e 07 be c0 0b 9f bd 84 fa a5 bd 0f c2 c7 bd
       -0.1321962 -0.07765913 -0.08104423 -0.097538106
000100 16 4c 3e bd 80 f8 1b bd 4f a2 4a 3d f1 c3 d5 bd
       -0.04645928 -0.038078785 0.049471196 -0.104377635
000110 40 b0 87 bd 78 92 b0 bd 11 32 8d bd 4f 1a 59 bd
       -0.06625414 -0.08621687 -0.06894315 -0.053003605
000120 ed d7 1e bd 2c 6d 3d bd 81 6f b2 3d 26 57 f7 bc
       -0.03878014 -0.046246693 0.08712674 -0.030192923
000130 86 56 aa bd 98 c2 3b bd de da 18 bc c9 1d 77 bd
       -0.08317284 -0.045839876 -0.009329526 -0.06033114
000140 4c c0 85 3d 31 0d 26 bd 72 aa 10 3d a5 97 a9 bd
       0.06530818 -0.040539924 0.0353188 -0.08280877
000150 89 e2 8c 3d 3b 24 de 3b 01 e9 af bd 4e 33 a8 bc
       0.06879146 0.0067792214 -0.08589364 -0.020532276
000160 86 cc 2f bc 05 95 15 3d 13 6f 2e be b8 fa c7 3c
       -0.0107299145 0.03651907 -0.17034559 0.024411544
000170 e9 be 91 bc b0 a9 52 3d 31 67 55 3d 8f ee d7 bd
       -0.017791228 0.051431358 0.052100364 -0.10543548
000180 8e e5 c3 bd d9 36 41 3d 52 69 ee bd e9 de 6a bd
       -0.095652685 0.047171447 -0.11641182 -0.05734149
000190 a2 d3 8f bc 35 66 ca 3d 30 ac 2a 3e df 92 4a bc
       -0.01755697 0.09882776 0.16667247 -0.012364118
0001a0 08 9e a1 3c 70 31 7b bd 95 86 68 bd 99 f6 f9 3d
       0.019728675 -0.061326444 -0.056768972 0.12205238
0001b0 8c bd b1 bc ce c0 2d 3e 6d 84 69 bc f3 3d f4 3d
       -0.021696828 0.1696808 -0.014252764 0.119258784
0001c0 3c fb 97 bd 15 2f 54 bd 5e 98 8f bc 42 a2 3b bd
       -0.07420966 -0.051802713 -0.017528709 -0.045809038
0001d0 37 6e fc 3d 3f 76 87 3d 87 7d 84 bb 57 37 f4 3c
       0.12325709 0.066143505 -0.0040432843 0.029811544
0001e0 d6 1b 23 bc 69 5b b1 bd a4 ae 89 3d e1 0b 29 be
       -0.009955367 -0.08660013 0.06722763 -0.16508438
0001f0 f5 2c e8 3d 26 ad 23 bd f2 da 9a 3d 15 f9 20 3e
       0.113367 -0.03996005 0.07561292 0.15720017
000200 16 6a 74 3d cc df 66 3d bc 3e 07 3d d8 28 dc bd
       0.059671484 0.056365773 0.033018813 -0.10749978
000210 85 ee 62 bc 2e e0 99 3d b7 25 89 bc 43 77 91 3d
       -0.013850813 0.07513462 -0.016741617 0.071028255
000220 c3 d6 38 3d db 8d 29 3d 10 90 17 bd de af d6 bc
       0.045126688 0.04139505 -0.037002623 -0.026206907
000230 c4 3c 91 bd 9e 02 02 be 7d 60 a0 bc c7 e1 b8 3c
       -0.07091668 -0.12696311 -0.01957726 0.022568597
000240 52 68 e7 bd 95 75 92 3d 90 e2 83 bd 71 de 5d bd
       -0.112991944 0.07151333 -0.06439698 -0.054167215
000250 4f 0f a7 bc 93 f5 ca bd 52 e6 b7 bc d9 b0 c4 3d
       -0.020393042 -0.09910121 -0.022448692 0.096040435
000260 38 b3 d4 bc b6 78 1a bd db be dd bd 85 f4 55 bd
       -0.025964364 -0.037712775 -0.108274184 -0.052235145
000270 0e 6e 23 3d f1 96 ec 3a d3 67 e6 bd 1a 8e 7b bd
       0.03989988 0.0018050355 -0.11250272 -0.061414815
000280 68 97 8d bd 94 71 8c bd be f0 bb bc 53 1d 14 3d
       -0.06913644 -0.06857601 -0.022941943 0.03616078
000290 67 16 1e be 7f 21 94 3d c1 4b da bb 3e b4 16 bb
       -0.15438233 0.072329514 -0.0066618626 -0.0022995616
0002a0 84 be fe 3c ca d9 98 ba 57 a7 3e be 97 a2 6c 3d
       0.031096704 -0.0011661586 -0.18618523 0.057772245
0002b0 cf d4 5c bc 52 76 83 bd 7a d6 38 3d 3a 88 3e 3b
       -0.013478472 -0.06419052 0.045126416 0.0029072897
0002c0 de 92 ad bd 14 2f 3c 3c f4 42 38 bd 14 be 53 3d
       -0.08475278 0.011485834 -0.044985726 0.051694945
0002d0 f5 65 f6 3b 30 76 2e 3e 2f 29 25 bc e1 80 db bd
       0.0075194784 0.17037272 -0.01008062 -0.10717941
0002e0 53 48 b0 bd ec 52 4a bd 29 79 04 3d fe a3 4f 3c
       -0.08607545 -0.049395487 0.03234211 0.012673376
0002f0 84 1f 43 bc e7 ef 78 bd 48 ac c5 3c 8f e9 a0 bd
       -0.011909369 -0.060775664 0.024130002 -0.07857048
000300 5b 68 1d 3e fa cb c2 3d b7 be fb bd fe 51 62 bd
       0.1537184 0.09511562 -0.12292235 -0.055253975
000310 48 3f 55 bd f5 82 e5 bc 73 d3 2a 3e 9a 9b f5 bb
       -0.052062303 -0.028016547 0.16682224 -0.007495356
000320 78 a9 04 bd 62 db 6c 3c 30 9d f4 3d 33 bd 93 3d
       -0.03238818 0.014456602 0.11944044 0.07213821
000330 90 f7 b8 3c a4 fb 38 3d e5 17 23 bd 6d 90 81 3d
       0.022578984 0.04516186 -0.03981771 0.06326375
000340 e3 17 ca bd 52 73 f2 bc 7e 8d db bd 40 c9 d9 bc
       -0.09867837 -0.029596005 -0.10720347 -0.026585221
000350 6d f6 46 3d 67 13 0a 3e c4 25 76 3d ed 4b fc bd
       0.048574854 0.13483964 0.06009461 -0.12319169
000360 fc 2c bc 3d 63 8d 67 bd 62 37 a5 bd fa 32 ae bd
       0.091882676 -0.05653132 -0.08067204 -0.08505817
000370 2f 89 07 3c d4 52 8c 3d 0f 33 0a be 7d c3 c7 3c
       0.008272453 0.06851736 -0.1349604 0.024385208
000380 0c 63 27 bd d7 d9 0f be d6 a0 b5 bd 72 df 99 3d
       -0.040865943 -0.14047943 -0.08868568 0.07513322
000390 38 22 9e 3d 85 f6 1a 3e 37 56 09 be 9a d1 51 3d
       0.077213705 0.15133102 -0.13411795 0.051225282
0003a0 ff 54 15 bd 37 0e 76 bd a2 3d 6a bd e2 02 64 3c
       -0.03645801 -0.06007215 -0.057187684 0.013916703
0003b0 68 0c 92 3d ef 5a 9f bd 05 3a 02 be fb bb b5 3c
       0.071312726 -0.07781016 -0.12717445 0.022184363
0003c0 72 70 c8 3d 7c 20 5a bd 09 a0 ab 3c 6f de 0c bd
       0.09787072 -0.053253636 0.020950334 -0.034391817
0003d0 83 d4 a4 3c 3a ba 86 3d 09 95 ac bc 06 23 96 bc
       0.020120865 0.06578489 -0.02106716 -0.018327247
0003e0 46 69 df bc f7 e4 4e bd fc 50 66 3c 75 3f 2e bd
       -0.027271878 -0.050511327 0.014057394 -0.042540986
0003f0 30 9a c1 3d ed 8d c6 bd 50 50 7c bc 12 56 a9 bc
       0.09453237 -0.09695039 -0.015400007 -0.020670924
