results/LevelGen_PPO_NRS_001/LevelGeneration/LevelGeneration-499999.onnx (onnx, 286641 bytes, 6 tensors)

action_model._discrete_distribution.branches.0.bias f4 [4]
0	0xbe10a846	-0.14126691
1	0x3d50cacf	0.050974663
2	0xbd5e56b5	-0.05428191
3	0x3cbfcf40	0.023414254

action_model._discrete_distribution.branches.0.weight f4 [4, 256]
0	0x3c1c6fb9	0.009548121
1	0x3e03c890	0.12869477
2	0x3d310f36	0.043227397
3	0x3de1483e	0.11000107
4	0x3d0163c9	0.031589303
5	0x3e07f18f	0.13275741
6	0x3d8a3eae	0.067502365
7	0x3ddc0560	0.10743213
8	0x3e0bbca9	0.13646187
9	0x3c831d5d	0.016005212
10	0x3daa8176	0.08325474
11	0x3de0baf6	0.1097316
12	0x3dc6621e	0.09686683
13	0xbca49b98	-0.020093724
14	0x3aad8ef7	0.0013241459
15	0x3dcae80d	0.099075414
16	0xbd0472b3	-0.03233595
17	0x3decc896	0.11561696
18	0x3dcc7303	0.09982874
19	0xbc97e175	-0.018540123
20	0x3df1bf02	0.1180401
21	0xbc9756bf	-0.018473981
22	0x3e24e838	0.1610421
23	0xbc06fce6	-0.008239007
24	0x3da816ba	0.0820746
25	0x3e0f2964	0.13980633
26	0x3dd61866	0.104538724
27	0x3de6fa83	0.1127825
28	0x3a3ea5fd	0.0007272659
29	0xbc993f83	-0.018707043
30	0x3e0d3a32	0.13791731
31	0x3e1855ec	0.14876527
32	0x3b486477	0.003057746
33	0x3e0db3fc	0.1383819
34	0x3cc6f2b0	0.024285644
35	0x3e091047	0.13385116
36	0xbdeab42c	-0.11460146
37	0x3e141c29	0.14463867
38	0x3d1eefaf	0.0388028
39	0x3dd1a7fb	0.10237118
40	0x3dc53852	0.09629883
41	0xbcb252e2	-0.021768037
42	0x3e028551	0.12746169
43	0x3e04a60e	0.1295397
44	0x3dff480b	0.12464913
45	0x3c4f2f07	0.01264549
46	0x3df3d6df	0.11906218
47	0x3e21ad65	0.15788801
48	0x3e19181f	0.14950608
49	0x3e1ecdae	0.15508148
50	0x3e077d11	0.13231303
51	0x3db00e15	0.08596436
52	0x3e16cc23	0.1472631
53	0xbbb73577	-0.0055910903
54	0x3e0644f1	0.13112237
55	0x3de17edb	0.11010524
56	0x3e174f62	0.14776376
57	0xbe0a3039	-0.13494958
58	0xba1fc7f8	-0.00060951663
59	0x3e053959	0.13010158
60	0x3e0d3d49	0.1379291
61	0x3e049ff8	0.12951648
62	0x3e0d47a3	0.13796858
63	0x3b831392	0.0040001357
64	0x3c9f8c38	0.019476041
65	0x3e0ef900	0.13962173
66	0x3e0197f9	0.12655629
67	0x3df68700	0.12037468
68	0xbe14e24a	-0.14539447
69	0x3e16f31f	0.14741181
70	0x3e0a3b8f	0.13499282
71	0xbc7a3e50	-0.0152736455
72	0x3da8023b	0.082035504
73	0x3d0e6f85	0.034774322
74	0x3e14b819	0.14523353
75	0x3d97778d	0.073958494
76	0x3e0ed1e7	0.13947259
77	0x3d78e4d2	0.060765095
78	0x3e1969b9	0.14981736
79	0x3d84f253	0.06491532
80	0x3df43c34	0.11925545
81	0x3e07c4c6	0.13258657
82	0x3dd8f9cd	0.10594521
83	0x3d91a12b	0.071108185
84	0x3e10c4a6	0.14137515
85	0x3deeec87	0.11666208
86	0x3d8346fd	0.06410024
87	0x3db6be0c	0.08922967
88	0x3e04b59b	0.12959902
89	0x3e15741f	0.14595078
90	0x3adb99ff	0.0016754268
91	0x3e00fef9	0.12597264
92	0x3dfa0435	0.12207834
93	0x3e16c543	0.14723687
94	0x3e166e78	0.14690578
95	0x3e0dcc18	0.13847387
96	0xbc2401e2	-0.0100102145
97	0x3e0eb927	0.13937818
98	0x3e161e1e	0.14659926
99	0x3ddd1319	0.10794658
100	0x3d3ce187	0.046113517
101	0x3e217efa	0.15771094
102	0x3e22e5e8	0.15908015
103	0x3db708ee	0.0893725
104	0x3dc4eedb	0.096158706
105	0xbca814b2	-0.02051768
106	0x3df7b79e	0.12095569
107	0x3d6dce96	0.058058344
108	0x3da4b957	0.08043163
109	0xbcde367b	-0.027125588
110	0x3c45f0f1	0.012081371
111	0x3e149b45	0.14512356
112	0x3d9a17d8	0.07524079
113	0x3c82d890	0.015972406
114	0x3dcc96f6	0.09989731
115	0x3df70111	0.1206075
116	0x3df32fd2	0.118743554
117	0x3bfdeb4d	0.0077489973
118	0x3d498ed1	0.049208466
119	0x3d07a99c	0.033120736
120	0x3e0f5b0f	0.1399958
121	0x3cdbf045	0.026847968
122	0xbc11c962	-0.008898111
123	0x3e03a029	0.12854065
124	0x3d04cce8	0.032421976
125	0x3e118aed	0.14213152
126	0x3c1d6ba3	0.009608182
127	0x3b9bfe1a	0.004760516
128	0x3c86b181	0.016442062
129	0x3db11f92	0.086486
130	0xbe0988bf	-0.1343107
131	0x3e033c01	0.12815858
132	0xbc788351	-0.015168027
133	0x3cf972d8	0.03045027
134	0x3e145f11	0.1448939
135	0x3e0c3a6c	0.13694161
136	0x3e0650c6	0.1311675
137	0xbd90a69e	-0.0706303
138	0x3c131a4e	0.0089784395
139	0x3ded0176	0.11572544
140	0x3e028703	0.12746815
141	0x3dc36af1	0.09541882
142	0x3e0d8321	0.13819553
143	0x3d1e84ce	0.03870087
144	0xbc37087f	-0.011171459
145	0x3d9757f5	0.07389823
146	0x3dfe95ec	0.12430939
147	0x3dca8d19	0.098901935
148	0x3d88cc7f	0.066796295
149	0x3e113dd7	0.14183746
150	0x3dd7d4b8	0.1053862
151	0x3c3d0e9c	0.011539128
152	0x3c1a483a	0.009416634
153	0x3c7b34ad	0.015332383
154	0x3df11f09	0.117734976
155	0x3de02275	0.10944072
156	0x3cf60611	0.03003219
157	0x3e0a4997	0.13504635
158	0x3c1f944f	0.009739949
159	0x3cc38f6b	0.023872098
160	0xbd446503	-0.047947895
161	0xbbd5da42	-0.0065262625
162	0x3e0625e6	0.13100395
163	0x3e1f4550	0.15553784
164	0x3e117fb7	0.14208876
165	0x3e0991e9	0.13434567
166	0x3e00d667	0.12581788
167	0x3de08c6f	0.109642856
168	0x3db6c4bc	0.08924243
169	0x3e33dc09	0.17564406
170	0x3e2e67eb	0.17031829
171	0x3dfe4b60	0.124167204
172	0xbd4a0237	-0.04931852
173	0xbd44840a	-0.047977485
174	0x3db6f321	0.08933092
175	0x3c6ce980	0.014459968
176	0x3de40b50	0.1113497
177	0x3cfead19	0.031088399
178	0xbbfc4511	-0.007698663
179	0x3e0c3546	0.13692197
180	0x3cb8edd7	0.022574348
181	0xbcb59350	-0.02216497
182	0x3dec5cda	0.115411475
183	0x3df35dfd	0.11883161
184	0x3dbdae1d	0.09261725
185	0x3db7092b	0.089372955
186	0x3e02c6b7	0.12771116
187	0x3ca4fb72	0.02013943
188	0x3e1bb72a	0.1520659
189	0xbd9e90da	-0.07742472
190	0x3d878cbd	0.066186406
191	0x3c791f31	0.0152051905
192	0xbcd38755	-0.025821367
193	0xbbef314a	-0.007299577
194	0x3e037d12	0.1284068
195	0xbcc9ed50	-0.024649292
196	0x3e01853d	0.12648483
197	0x3e27cd5a	0.16386929
198	0x3df068b2	0.11738719
199	0x3deb7fb0	0.11498964
200	0x3dfb8ba6	0.12282495
201	0x3dfb1834	0.12260476
202	0x3e0419ab	0.12900417
203	0x3e190034	0.14941484
204	0xbddbab66	-0.10726051
205	0x3e06133a	0.13093272
206	0xbd49eb0a	-0.049296416
207	0x3df0f970	0.117663264
208	0xbbd1b4af	-0.006399713
209	0xbdfc40dc	-0.123170584
210	0x3d8d87a6	0.069106385
211	0x3e1470e1	0.14496185
212	0x3e0dd0f6	0.13849244
213	0x3cbc4a60	0.022984684
214	0x3ddc90dc	0.10769817
215	0x3c63b76e	0.0138987135
216	0x3de3ab76	0.11116688
217	0x3d450d04	0.048108116
218	0xbe077b70	-0.13230681
219	0x3de6e45d	0.112740256
220	0x3e05666a	0.13027349
221	0x3e1595da	0.14607945
222	0x3d93f3b0	0.07224214
223	0x3e04602b	0.1292731
224	0x3e182c2a	0.14860597
225	0x3d5bc171	0.053651277
226	0x3e011519	0.12605704
227	0x3de844b2	0.113412276
228	0x3e1ad7c6	0.15121374
229	0x3dec35f1	0.11533726
230	0x3d3c9fb3	0.04605074
231	0x3dc59e21	0.09649301
232	0x3e2bba6e	0.16770336
233	0x3e0057a6	0.12533435
234	0x3c0b5de9	0.008506277
235	0x3e1372f7	0.14399324
236	0xbd25406d	-0.040344644
237	0x3e12c532	0.14333037
238	0x3d2bf513	0.041981768
239	0xbca00486	-0.019533407
240	0x3e032c24	0.12809807
241	0x3c371c21	0.01117614
242	0x3e215c71	0.1575792
243	0x3e101ed1	0.14074256
244	0xbce1a78b	-0.027545711
245	0x3dec31ab	0.11532911
246	0x3dbe3e8e	0.09289275
247	0x3bb2fdf5	0.005462403
248	0xbcab4c6e	-0.020910468
249	0x3e05b8a9	0.13058724
250	0x3d09a66f	0.03360599
251	0x3b447362	0.0029976
252	0xbc296c3c	-0.0103407465
253	0x3dfcfd83	0.12353041
254	0x3ddbc26f	0.10730445
255	0x3e0d01be	0.13770196

network_body._body_endoder.seq_layers.0.bias f4 [256]
0	0xbd8f7589	-0.0700484
1	0xbd136bc0	-0.03599143
2	0x3b2a254c	0.0025962172
3	0x3d88ac86	0.06673531
4	0x3b6a48aa	0.0035748878
5	0x3d45c051	0.04827911
6	0xbdb46a16	-0.08809297
7	0xbcacb0b1	-0.021080347
8	0xbd06b3c5	-0.032886285
9	0xbd50d89c	-0.050987825
10	0xbddd31d7	-0.10800522
11	0xbd22640d	-0.039646197
12	0xbc6a12d2	-0.014286714
13	0xbd2a6ff4	-0.041610673
14	0xbb2c8358	-0.0026323404
15	0xbc51915c	-0.012791004
16	0xbc58ec31	-0.013239906
17	0xbc5d6c37	-0.01351457
18	0xbde4e405	-0.11176304
19	0xbd09fc4c	-0.033687875
20	0x3c979c42	0.018507127
21	0xbdeb783a	-0.11497541
22	0xbba87a57	-0.005141537
23	0xbd8c4a89	-0.06850154
24	0xbd742a55	-0.059610683
25	0xbdc6603f	-0.09686326
26	0x3a37586a	0.0006994071
27	0xbd915807	-0.07096868
28	0x3c943b6e	0.018094745
29	0xbc18c976	-0.009325376
30	0x3d771bb1	0.060329143
31	0xbd7689c0	-0.060189962
32	0xbd676ca0	-0.056500077
33	0x3cc795a6	0.02436335
34	0xbd207b25	-0.03917994
35	0xbd9b654a	-0.07587679
36	0xbd29e805	-0.041481037
37	0xbce7f9bf	-0.02831733
38	0xbd91a9cb	-0.071124636
39	0xbd7176f7	-0.058951344
40	0x3b62e651	0.0034622143
41	0xbdb58fdb	-0.08865329
42	0xbcd713a2	-0.026254479
43	0xbd4324b4	-0.047642425
44	0xbd7c2531	-0.061558906
45	0xbd72d3bb	-0.059283953
46	0xbde93c14	-0.11388412
47	0xbd5198ec	-0.05117123
48	0xbd9b5fc9	-0.07586629
49	0xbc043346	-0.008068865
50	0xbc4c8e9a	-0.012485171
51	0xbad7597e	-0.0016429869
52	0xbd9e9adb	-0.0774438
53	0xbdaa01bf	-0.08301114
54	0xbc3e04bd	-0.011597809
55	0x3ce43c8e	0.027860906
56	0x3d973321	0.07382799
57	0xbe0f7d33	-0.14012603
58	0xbdde3e29	-0.108517
59	0xbd0dbe1b	-0.034605127
60	0xbdce9db1	-0.10088671
61	0xbbb5896d	-0.005540064
62	0x3cea8b97	0.028631015
63	0xbdfdb7ce	-0.123885736
64	0xbe05c000	-0.13061523
65	0xbdd15173	-0.10220613
66	0xbe12900d	-0.14312764
67	0xbdf20e3c	-0.11819121
68	0xbdddf43c	-0.108376
69	0xbb9498a2	-0.004534797
70	0xbdff4186	-0.124636695
71	0xbc79b44b	-0.015240739
72	0xbbacc1e1	-0.0052721356
73	0xbd998449	-0.074959345
74	0xbd2931ad	-0.04130714
75	0xbd7672d6	-0.06016811
76	0xbdc8b1a5	-0.09799508
77	0xbd7275a0	-0.059194207
78	0xbdd21d1a	-0.10259457
79	0xbe0f97dc	-0.14022774
80	0x3bbcd6f5	0.0057629296
81	0xbd0a8db9	-0.033826564
82	0x3cc97cf0	0.024595708
83	0x3d846658	0.06464833
84	0xbde3803f	-0.111084454
85	0xbd4b0d0a	-0.049572982
86	0xbb74c33d	-0.0037347816
87	0xbd8aa376	-0.06769459
88	0xbd69f1ca	-0.057115354
89	0xbe0234a7	-0.12715398
90	0xbdceac08	-0.10091406
91	0xbdab6886	-0.08369546
92	0x3c2071da	0.009792769
93	0x3b398637	0.0028308758
94	0xbb9363f5	-0.004498
95	0xbd50a62b	-0.05093972
96	0xbdb2ea2f	-0.08736073
97	0x3c36bcfc	0.011153456
98	0xbdc47028	-0.095917046
99	0xbd3a5c77	-0.045498338
100	0xbd052f70	-0.032515943
101	0xbdb1e489	-0.08686168
102	0x3d0fa619	0.035070512
103	0xbd9c0ca4	-0.076195985
104	0xbdb78de2	-0.08962609
105	0x3d14e234	0.036348537
106	0xbda1a2fe	-0.078924164
107	0xbd73c145	-0.059510488
108	0xbc725805	-0.014791493
109	0xbd67e5ae	-0.056615524
110	0xbd1d4283	-0.03839351
111	0xbbdcdc91	-0.0067401608
112	0xbda2626d	-0.079289295
113	0x3d5a314f	0.05326968
114	0xbd97518b	-0.073886
115	0xbd8df2e9	-0.06931097
116	0xbd37aea1	-0.044844273
117	0xbd0d336d	-0.03447287
118	0xbc5e2e52	-0.013560848
119	0xbcb15eee	-0.021651711
120	0xbde31190	-0.11087334
121	0x3cb4892a	0.022038061
122	0xbd6ef7f3	-0.05834193
123	0xbd7b8372	-0.061404653
124	0xbd08f0c2	-0.03343273
125	0xbdd728f4	-0.10505858
126	0xbd264e71	-0.04060215
127	0xbdaa2e59	-0.08309621
128	0x3b8c3880	0.0042791963
129	0xbd0798f7	-0.033104863
130	0x3d5b7f8d	0.05358844
131	0xbccf46a4	-0.025302239
132	0xbda7ca45	-0.08192877
133	0xbbb494a0	-0.0055108815
134	0xbc17c27d	-0.009262678
135	0xbd3b1a88	-0.0456796
136	0x3d70f340	0.05882573
137	0xbddcb494	-0.1077663
138	0xbcb9f79e	-0.02270108
139	0x3d6eb88d	0.05828147
140	0x3d01ef27	0.031722214
141	0xbdd6a89b	-0.10481378
142	0x3d70e626	0.058813237
143	0x3d9d5f55	0.07684199
144	0xbddd6f12	-0.108122006
145	0xbd396a3a	-0.04526732
146	0xbd85e515	-0.065378346
147	0xbcff8db7	-0.031195505
148	0xbd8a807a	-0.06762786
149	0x3cf1efb9	0.029533254
150	0xbdb38fcb	-0.08767661
151	0xbc641888	-0.013921864
152	0xbdd95ed5	-0.10613791
153	0xbd93641f	-0.07196831
154	0xbd3d6119	-0.046235178
155	0xbd317da9	-0.04333273
156	0xbd08285e	-0.033241622
157	0x3baba02b	0.0052375994
158	0xbddd3867	-0.108017735
159	0x3cb50a95	0.022099772
160	0xbd5f4905	-0.054512996
161	0xbd43006c	-0.047607824
162	0xbd535fac	-0.05160491
163	0xbd8977a2	-0.06712271
164	0xbc906744	-0.017627366
165	0xbda38717	-0.07984751
166	0xbdaaec07	-0.083458
167	0xbd8d3ab3	-0.068959616
168	0xbd2caa13	-0.042154383
169	0xbd89eaf2	-0.067342654
170	0xbc310126	-0.010803496
171	0xbd79da60	-0.060999274
172	0xbd7becc9	-0.061505113
173	0xbe006366	-0.12537917
174	0xbd4e8fc7	-0.050430086
175	0x3c0f84a8	0.008759655
176	0xbd8a9d97	-0.06768339
177	0xbce321b0	-0.027726024
178	0xbd99a2c9	-0.07501752
179	0xbde374de	-0.11106275
180	0xbd3d8ed5	-0.046278793
181	0xbd77e6ee	-0.060522966
182	0xbe02259a	-0.12709656
183	0x3ceca8ee	0.028889146
184	0xbdba08fc	-0.09083745
185	0xbdccd259	-0.10001058
186	0xbd5da4f7	-0.0541124
187	0xbdc66483	-0.0968714
188	0xbc987868	-0.018612102
189	0xbda6c02f	-0.08142125
190	0x3bf0fcc7	0.007354352
191	0x3d9f8894	0.07789722
192	0xbd43a080	-0.047760487
193	0xbd349717	-0.044089403
194	0xbd9f6a47	-0.07783943
195	0xbc7e473c	-0.015519913
196	0xbdbebd93	-0.09313502
197	0xbdccb1c4	-0.099948436
198	0xbc58f2a8	-0.0132414475
199	0x3d3142b6	0.04327651
200	0x3cda7a59	0.026669668
201	0xbd9ee627	-0.07758742
202	0xbcd86128	-0.026413515
203	0xbd92fec8	-0.07177502
204	0xbd9c55c0	-0.07633543
205	0xbc6638d0	-0.014051631
206	0x3d29b608	0.041433364
207	0xbd129df2	-0.03579516
208	0xbd8d379d	-0.06895373
209	0xbc07267d	-0.008248922
210	0xbdc41473	-0.09574213
211	0xbd486d56	-0.048932396
212	0xbd5593ca	-0.052142896
213	0xbda39312	-0.07987036
214	0xbccb27c0	-0.024799228
215	0xbd562ba8	-0.052287728
216	0xbd2160f1	-0.03939909
217	0xbdbbb842	-0.09166004
218	0xbd95651c	-0.07294676
219	0x39b61989	0.0003473277
220	0xbb1c09ad	-0.0023809478
221	0xbd1f7168	-0.038926512
222	0xbd936bfd	-0.071983315
223	0xbda615ea	-0.081096485
224	0xbd75eba9	-0.060039196
225	0xbde45891	-0.11149705
226	0xbd663f6b	-0.056212824
227	0xbd4e0c4d	-0.0503047
228	0xbd8e9f35	-0.0696396
229	0xbd94c008	-0.072631896
230	0xbd705c26	-0.05868163
231	0xbd7462dc	-0.059664592
232	0xbd209c73	-0.0392117
233	0x3cfe689d	0.031055743
234	0xbd83837d	-0.06421564
235	0x3da980aa	0.08276494
236	0x3d81131f	0.06302475
237	0xbbba3ee7	-0.005683768
238	0xbd92c768	-0.0716694
239	0xbdaa5f9a	-0.08319016
240	0xbc0a47a5	-0.008439933
241	0xbd28eab3	-0.04123945
242	0xbdc1fdc0	-0.09472227
243	0xbd899558	-0.06717938
244	0xbd57f0e7	-0.052719977
245	0xbc0eed8d	-0.008723629
246	0x3d4d0580	0.050054073
247	0xbc3df6f2	-0.011594521
248	0xbc7036c6	-0.0146614965
249	0xbd94f58e	-0.07273398
250	0xbdfe8156	-0.124270126
251	0xbd11f3cd	-0.035632897
252	0xbd1d3100	-0.03837681
253	0xbd943050	-0.072357774
254	0xbd90c96e	-0.0706967
255	0xbdcf9968	-0.10136682

network_body._body_endoder.seq_layers.0.weight f4 [256, 16]
0	0x3d574a8e	0.052561335
1	0x3e2ba258	0.16761148
2	0xbca5fecd	-0.0202631
3	0xbe5b29e3	-0.21402697
4	0xbf0b315a	-0.5437218
5	0x3e6006d6	0.21877608
6	0x3e380405	0.17970283
7	0xbe667dc9	-0.2250892
8	0x3d71f4b4	0.059071258
9	0x3ed47ec7	0.41502973
10	0xbea94452	-0.33059937
11	0x3e54d5c2	0.20784667
12	0x3e9a25fe	0.3010711
13	0x3e49049a	0.19630662
14	0x3e63a20a	0.22229782
15	0xbe126c88	-0.14299214
16	0xbe862e8f	-0.26207396
17	0xbd5e387e	-0.054253094
18	0xbe55b506	-0.20869836
19	0xbebaa21c	-0.36451805
20	0x3ec32f33	0.38121948
21	0xbe48fc6b	-0.1962754
22	0xbe1e1435	-0.15437396
23	0xbe7363a9	-0.23768486
24	0xbebceec0	-0.36900902
25	0x3ceb20e3	0.028702205
26	0x3ee2dfe1	0.4431143
27	0x3db61672	0.08891
28	0x3d848fc1	0.064727314
29	0xbd83e896	-0.064408466
30	0x3e162058	0.14660776
31	0xbeb3905b	-0.35071072
32	0xbeb85405	-0.36001602
33	0xbee29b31	-0.44259027
34	0xbd445be7	-0.047939207
35	0xbdde4abd	-0.10854099
36	0xbdfdf472	-0.1240014
37	0x3d9a4540	0.0753274
38	0x3d84a738	0.06477207
39	0xbea56965	-0.32306972
40	0x3cfc6705	0.030810842
41	0xbede0ca1	-0.4336901
42	0x3e33b46c	0.17549294
43	0x3ca16ccf	0.019705204
44	0x3ec49fef	0.3840327
45	0x3e4cfb8e	0.20017835
46	0x3d6652d0	0.05623132
47	0x3e970500	0.29496002
48	0xbce77f68	-0.028258994
49	0x3e8a548d	0.27017632
50	0xbf287f0e	-0.6581887
51	0x3dadc4f0	0.084848285
52	0xbd62cbe3	-0.055370223
53	0xbe77563b	-0.24153988
54	0x3eb4c9d9	0.35310248
55	0x3dd20c91	0.10256303
56	0x3e36649d	0.17811818
57	0xbe92576b	-0.2858232
58	0xbe9b56e3	-0.30339727
59	0xbebc6a1d	-0.36799708
60	0x3e8098ce	0.2511658
61	0x3e4c9033	0.19976883
62	0x3e9e5506	0.30924243
63	0x3e1d7303	0.15375905
64	0x3c973a1a	0.018460322
65	0xbe2b494f	-0.16727184
66	0xbeafca9c	-0.34334266
67	0xbe82d44c	-0.25552595
68	0xbee4e75b	-0.4470776
69	0xbeace034	-0.33764803
70	0xbe8ef0c1	-0.27918056
71	0xbcadcf25	-0.021216938
72	0x3efac5a8	0.48978925
73	0xbea93051	-0.33044675
74	0xbe29d9d3	-0.16587
75	0xbde4e1ba	-0.111758664
76	0xbe3e4dde	-0.18584391
77	0x3e30a8b3	0.17251854
78	0x3d349cf7	0.044095006
79	0xbdcd8a4e	-0.10036145
80	0xbef54f85	-0.4791223
81	0x3c3e61be	0.011619983
82	0xbe50ba65	-0.20383604
83	0x3ef91180	0.48646164
84	0x3cad539f	0.021158038
85	0xbead5e67	-0.33861086
86	0x3d90d117	0.07071131
87	0x3e0c722e	0.13715431
88	0xbcf257df	-0.029582916
89	0xbebb9561	-0.36637405
90	0xbf103099	-0.56324154
91	0xbe8dd1a6	-0.27699012
92	0x3e76c132	0.24097136
93	0x3cb52a33	0.022114849
94	0xbf12c5db	-0.57333153
95	0xbe826dbc	-0.25474346
96	0xbf18705e	-0.5954646
97	0xbe83d6cf	-0.25749823
98	0x3ead477e	0.33843607
99	0xbcaa802a	-0.020813067
100	0x3ba641b9	0.0050737527
101	0x3e47d042	0.19513038
102	0x3d853405	0.065040626
103	0x3f3684d8	0.71296453
104	0xbdd820c4	-0.105531245
105	0xbdc8c5de	-0.09803365
106	0x3c898f6b	0.01679202
107	0x3da60108	0.081056654
108	0x3d36de32	0.044645496
109	0x3e0021f9	0.1251296
110	0x3dd6c4b1	0.10486735
111	0xbe2d5fee	-0.16931126
112	0xbe2c41ed	-0.16822024
113	0xbe6989ac	-0.22806424
114	0x3d9678e6	0.07347278
115	0xbde2ca01	-0.110736854
116	0x3e0b26ce	0.13589022
117	0x3bf85d7c	0.0075795036
118	0x3e185bad	0.14878722
119	0x3db56fe3	0.08859231
120	0xbd998573	-0.074961565
121	0x3ed0961d	0.40739527
122	0xbe384112	-0.17993572
123	0xbe62aa0d	-0.22135182
124	0x3ea1dccb	0.31613764
125	0x3a4c847f	0.0007801726
126	0x3d011335	0.031512458
127	0xbde497ee	-0.11161791
128	0xbea428f3	-0.32062492
129	0xbe4a1c05	-0.19737251
130	0xbe0461c8	-0.12927926
131	0xbd92e6de	-0.07172941
132	0xbcd1870f	-0.025577096
133	0xbe0b508a	-0.13604942
134	0xbe26be99	-0.16283645
135	0x3e1a8e77	0.15093409
136	0xbe7cb41a	-0.24678078
137	0xbdd29fbc	-0.10284373
138	0xbdcd2b59	-0.100180335
139	0xbed59420	-0.41714573
140	0x3e9e25cc	0.30888212
141	0xbe378a1f	-0.17923783
142	0xbe2bb6b3	-0.16768913
143	0xbe4aa66a	-0.19790044
144	0x3f41dd2d	0.7572811
145	0x3de24234	0.110477835
146	0xbc9608c9	-0.018314736
147	0x3d4d3789	0.05010179
148	0xbebc1e08	-0.36741662
149	0xbeb28ad1	-0.34871534
150	0x3e55658a	0.20839515
151	0xbe9fed29	-0.31235626
152	0xbe8cc31b	-0.27492604
153	0xbe59d043	-0.21270852
154	0xbd677e10	-0.056516707
155	0x3e0674f5	0.13130553
156	0xbe030632	-0.12795332
157	0x3eb7fbcd	0.35934296
158	0x3ea40c32	0.32040554
159	0xbe91fea0	-0.28514576
160	0xbbe5453c	-0.006996779
161	0xbe328dc5	-0.17436893
162	0xbf0c62b8	-0.5483813
163	0xbea8215e	-0.32837957
164	0x3ed248e5	0.4107124
165	0xbe3801ef	-0.17969488
166	0x3daf40a1	0.08557249
167	0x3e268ece	0.16265413
168	0x3e828e1c	0.25499046
169	0x3e01cd7e	0.12676045
170	0x3d42873e	0.04749226
171	0x3ea6ce3a	0.32579213
172	0x3d973eae	0.07385002
173	0x3e9a1f45	0.30101982
174	0xbe21ca22	-0.15799764
175	0x3d53d0d8	0.05171284
176	0xbf5d9592	-0.8655635
177	0xbd9d449a	-0.076791
178	0x3e503d05	0.20335777
179	0xbead9772	-0.33904606
180	0xbe0be34a	-0.13660923
181	0xbeec7ba5	-0.46188083
182	0x3eb51482	0.3536721
183	0xbe367973	-0.17819767
184	0x3ecd4d6d	0.40098134
185	0xbda51ffb	-0.080627404
186	0xbd7e70ef	-0.06211942
187	0xbe06f58c	-0.13179606
188	0xbe9e0df8	-0.30870032
189	0xbe5c1fb6	-0.21496472
190	0xbe9b0121	-0.302743
191	0x3ee394e8	0.44449544
192	0x3eec0560	0.4609785
193	0xbd918219	-0.07104892
194	0xbd3e9d9d	-0.04653703
195	0xbdd3b17f	-0.10336589
196	0x3e36fa48	0.17868912
197	0x3e543c55	0.2072614
198	0xbef4c7d5	-0.4780871
199	0x3ddfff7f	0.10937404
200	0xbe83db82	-0.2575341
201	0xbd30a229	-0.043123398
202	0x3e24d20e	0.16095755
203	0x3e761d0a	0.24034515
204	0x3e0a2901	0.13492204
205	0xbddb6e60	-0.10714412
206	0xbf01aac7	-0.5065121
207	0x3e4036f5	0.18770964
208	0xbeb247d2	-0.3482042
209	0x3dd2b4c9	0.10288388
210	0x3e25e628	0.16201079
211	0x3d8fac68	0.07015306
212	0x3dc7068d	0.09718046
213	0xbe2da3b9	-0.16956986
214	0xbec38e83	-0.38194665
215	0xbe3d8ebb	-0.18511479
216	0xbd9d48cf	-0.07679903
217	0xbe9f1ad3	-0.31075153
218	0x3e5603d0	0.20899892
219	0x3ea5f749	0.32415226
220	0xbd170a7e	-0.03687524
221	0xbf38385e	-0.7196101
222	0xbe898cdc	-0.2686528
223	0xbe8debc9	-0.27718952
224	0xbecfe453	-0.40603885
225	0xbd3a5920	-0.045495152
226	0xbeb38058	-0.35058856
227	0x3e1db02b	0.15399234
228	0xbe2c6c91	-0.1683829
229	0xbe75db98	-0.2400955
230	0x3bcdcb89	0.006280367
231	0x3da7da2c	0.0819591
232	0xbe8da25c	-0.27662933
233	0x3e01f711	0.12691905
234	0xbee54293	-0.44777355
235	0x3d3576fa	0.044302918
236	0xbf0e018e	-0.5547112
237	0xbe8e7602	-0.27824408
238	0x3e84edc8	0.25962663
239	0x3e4c5ac4	0.199565
240	0xbe8b055f	-0.27152535
241	0x3cdcea92	0.02696732
242	0xbde2b182	-0.11069013
243	0xbde01bc5	-0.109427966
244	0xbe181901	-0.14853288
245	0xbd9905e8	-0.0747183
246	0xbd229a5b	-0.039697986
247	0x3d9d201d	0.07672141
248	0x3d7e5e70	0.06210178
249	0xbe3a2feb	-0.18182342
250	0xbb94439a	-0.0045246603
251	0x3d95fda8	0.07323772
252	0x3d8b5838	0.06803936
253	0x3ec61425	0.38687244
254	0xbd1923e7	-0.037387755
255	0xbe4ed264	-0.20197445

network_body._body_endoder.seq_layers.2.bias f4 [256]
0	0xbc80566b	-0.015666207
1	0xbc39d0f4	-0.011341322
2	0xbd54b7c7	-0.051933076
3	0xbda7bedf	-0.08190703
4	0xbc7310db	-0.014835562
5	0xbbfe58bf	-0.007762044
6	0x3d35b13e	0.044358484
7	0xbd920838	-0.07130474
8	0x3d0b427a	0.033998944
9	0x3d6a523c	0.05720733
10	0xbc718ad0	-0.014742568
11	0x3d079e0c	0.03310971
12	0xbcf04c05	-0.029333124
13	0xbbd0f727	-0.006377119
14	0xbc2d4c2e	-0.010577245
15	0x3cd80638	0.026370153
16	0xbc677b58	-0.014128529
17	0xbd95cb8a	-0.073142126
18	0xbd2d376c	-0.042289183
19	0x3d9474dd	0.072488524
20	0xbd99fd8d	-0.07519064
21	0xbd0a2e65	-0.03373565
22	0x3c39328f	0.011303558
23	0xbc3f263d	-0.011666832
24	0x3d1f5ced	0.03890698
25	0xbd4cedf0	-0.050031602
26	0xbcd4dd23	-0.025984352
27	0xbd9a4a20	-0.075336695
28	0x3cb50bec	0.022100411
29	0xbc043ac3	-0.0080706505
30	0xbce13323	-0.027490204
31	0xbc833a40	-0.016018987
32	0xbb8aa5e6	-0.0042312024
33	0xbbaac0a2	-0.005210952
34	0xbbff7adc	-0.0077966284
35	0xbca59339	-0.020211803
36	0x3d07d051	0.03315765
37	0xbd004faa	-0.031325974
38	0xbd0be640	-0.03415513
39	0xbd89d248	-0.06729561
40	0xbd5431dc	-0.051805362
41	0xbb7850c4	-0.0037889937
42	0x3b1ab7e0	0.0023608133
43	0xbc9067f7	-0.0176277
44	0xbd9e485c	-0.07728645
45	0xbc571b3d	-0.013129053
46	0xbd467375	-0.048449952
47	0xbc5e2396	-0.013558289
48	0xbc9eee0f	-0.019400625
49	0xb89cc83e	-7.475958e-05
50	0xbd06d1b1	-0.03291482
51	0xbc97a4aa	-0.018511135
52	0x3c0c2a0d	0.008554948
53	0xbcbe2ef5	-0.02321575
54	0xbd8d2b93	-0.06893077
55	0xbda49490	-0.080361485
56	0xbd01083f	-0.031502005
57	0x3d341160	0.043961883
58	0xbbcd56d9	-0.0062664566
59	0xbd7ba1d9	-0.061433647
60	0xbd8e8215	-0.06958405
61	0x3cd5a988	0.026081815
62	0xbd8a8269	-0.06763155
63	0x3c281a93	0.010260242
64	0x3d1c4037	0.038147178
65	0x3c25ffdb	0.0101318015
66	0xbd93545a	-0.07193823
67	0xbd88490c	-0.066545576
68	0x3d9e4c9f	0.07729458
69	0x3c86d444	0.016458638
70	0x3c854e0f	0.016272573
71	0x3d4938bb	0.049126368
72	0x3b157038	0.0022802483
73	0xbc981fe7	-0.0185699
74	0xbc18e092	-0.0093308855
75	0xbd4e2559	-0.050328586
76	0xbd34d2f3	-0.04414649
77	0x3d4ceaea	0.05002872
78	0x3c4afe2d	0.012389702
79	0x3d5d648c	0.054050967
80	0xbd67d13c	-0.056596026
81	0xbd587124	-0.052842274
82	0xbc832b2f	-0.016011802
83	0x3d1832c8	0.037157804
84	0xbbbb8caf	-0.005723558
85	0xbd633b53	-0.055476498
86	0xbcce6407	-0.025194181
87	0xbd2e2a8c	-0.042521045
88	0xbd938e60	-0.0720489
89	0x3b8decfb	0.004331229
90	0x3bec0a93	0.007203409
91	0x3c176b17	0.009241841
92	0x3cec8f87	0.028877033
93	0xbd4627ef	-0.048377927
94	0xbc9114ea	-0.017710168
95	0xbcfa17cb	-0.030528923
96	0x3c9247a1	0.017856421
97	0x3ce39b27	0.027783943
98	0xbcb68f21	-0.022285046
99	0xbd8ca39a	-0.06867142
100	0x3cc5f991	0.024166854
101	0xbb6d0c71	-0.0036170746
102	0x3cd196a7	0.025584532
103	0xbcfe452c	-0.031038843
104	0xbdb86d68	-0.090052426
105	0xbcfbe709	-0.030749815
106	0xbd9e5757	-0.077315025
107	0xbd4a4689	-0.049383674
108	0xbc918f80	-0.017768621
109	0xbcaa7a5b	-0.020810297
110	0xb964e703	-0.00021829833
111	0xbca51e76	-0.020156126
112	0xbd2d8293	-0.042360853
113	0x3ad6b5b6	0.0016381058
114	0x3ce0cb95	0.027440825
115	0xbd8b6070	-0.06805503
116	0xbcc2b9b2	-0.023770187
117	0x3b545a1a	0.0032402338
118	0xbd437f94	-0.04772909
119	0x3c801b82	0.015638117
120	0xbd459348	-0.04823616
121	0xbcc2c701	-0.023776533
122	0x3c7ef025	0.015560185
123	0xbd10a7ea	-0.035316385
124	0x3b98b47d	0.0046601878
125	0xbbf29924	-0.0074035097
126	0x3bf0338d	0.007330364
127	0x3c3afc4d	0.011412692
128	0xbcaf5c9b	-0.021406462
129	0xbcecf414	-0.02892498
130	0x3da7eaf9	0.08199114
131	0xbd02600d	-0.031829882
132	0x3d66d282	0.0563531
133	0xbcb3aa68	-0.021931842
134	0xbba62798	-0.005070638
135	0xbd4f46c7	-0.050604608
136	0xbd881711	-0.066450246
137	0x3d3be991	0.045877043
138	0xbce20e46	-0.027594697
139	0xbd96a7c5	-0.07356218
140	0xbd939465	-0.072060384
141	0xbd833caf	-0.06408059
142	0xbd08ce45	-0.03339984
143	0xbd8d1633	-0.06889
144	0xbcbe4196	-0.023224633
145	0x3cff64bf	0.03117597
146	0xbd954610	-0.07288754
147	0xbd1ed7d1	-0.038780037
148	0xbc1fc6b1	-0.009751962
149	0x3c537538	0.012906365
150	0xbd5010ef	-0.0507974
151	0xbb3f1a29	-0.002915988
152	0xbbe5e3b1	-0.0070156683
153	0x3bfe1e07	0.0077550444
154	0xbc968268	-0.01837273
155	0xbd5a64a8	-0.05331865
156	0x3c870a4c	0.016484402
157	0xbb221b67	-0.0024735571
158	0xbbc642e0	-0.0060504526
159	0x3d317aff	0.04333019
160	0x3da5954e	0.08085118
161	0xba7ce2cb	-0.0009646832
162	0xbb8568cc	-0.0040713307
163	0x3c2027c2	0.009775104
164	0x3b9c8c90	0.0047774985
165	0x3d10347b	0.0352063
166	0xbd93f7b8	-0.07224983
167	0x3c6138a5	0.013746415
168	0xbd8e2617	-0.06940859
169	0xbc415d84	-0.011802081
170	0xbbb4ec80	-0.005521357
171	0x3b10e48a	0.0022108876
172	0x3d9f0e16	0.077663586
173	0x3d369972	0.04457993
174	0x3c77c65e	0.015122978
175	0xbb9cbd29	-0.004783292
176	0xbd8c9d91	-0.06865991
177	0xba8db0b3	-0.0010810107
178	0xbce9593f	-0.028484939
179	0xbca93946	-0.020657193
180	0xbc1972a6	-0.009365713
181	0xbc0b185b	-0.0084896935
182	0xbd832682	-0.06403829
183	0xbd773a0a	-0.060358085
184	0xbdad7c60	-0.08470988
185	0xbda0fb6d	-0.07860456
186	0xbc391f18	-0.011298917
187	0x3d477531	0.048695747
188	0xbb8993ed	-0.0041985423
189	0x3ceba5ab	0.02876552
190	0x3d44961c	0.047994718
191	0xbc93c434	-0.018037893
192	0x3b8102b2	0.003937089
193	0xbc98e93c	-0.018665902
194	0xbd881f8a	-0.066466406
195	0xbc313b43	-0.010817352
196	0xbd901dfb	-0.07036968
197	0xbcffa8d3	-0.031208431
198	0xbd905965	-0.07048301
199	0x3c2c831c	0.010529306
200	0xbd97460b	-0.073864065
201	0xbd85a5c9	-0.06525762
202	0xbd9e4bd5	-0.077293076
203	0xbc0aeb0b	-0.00847889
204	0x3da33a41	0.079700954
205	0x3cb0db5a	0.02158897
206	0x3d5d02b6	0.053957663
207	0xbd92dbfc	-0.07170865
208	0x3d58548d	0.05281501
209	0x3d00470b	0.03131775
210	0x3d256a33	0.040384483
211	0x3ced358a	0.028956193
212	0xbcd09d9b	-0.025465777
213	0xbc2b5f68	-0.010459758
214	0xbd1f58b3	-0.03890295
215	0xbc0996a2	-0.00839773
216	0xbd75e423	-0.06003202
217	0xbd36e153	-0.04464848
218	0x3d1b54e1	0.037922744
219	0xbd8c4b79	-0.06850333
220	0xbd7af2b7	-0.061266627
221	0x3bb6fd07	0.0055843624
222	0xbd1a9f27	-0.037749436
223	0xbd8b69b8	-0.068072736
224	0x3b0ee3e4	0.0021803314
225	0x3d8df590	0.06931603
226	0xbda19d85	-0.078913726
227	0xbc0dbdbf	-0.008651196
228	0xbd650af2	-0.05591864
229	0x3ce616c0	0.02808702
230	0x3c8657b4	0.016399242
231	0x3c25e78d	0.010126007
232	0xbc36156e	-0.011113508
233	0xbd94878b	-0.07252415
234	0xbc976068	-0.018478587
235	0xbd3081b7	-0.043092456
236	0xbb2e3b3a	-0.0026585595
237	0x3c98b40d	0.018640542
238	0xbce626fe	-0.028094765
239	0xbb0009f6	-0.0019537187
240	0xbcdbb3af	-0.026819078
241	0x3d4fa76b	0.05069677
242	0xbb5057fc	-0.0031790724
243	0xbcc0f4fc	-0.023554318
244	0xbd257adc	-0.04040037
245	0xbbe05c57	-0.0068469453
246	0xbd3a8366	-0.045535468
247	0xbc242b35	-0.010020067
248	0xbc797483	-0.015225532
249	0xbd8c13de	-0.06839727
250	0xbc05fe34	-0.0081782825
251	0x3d22608b	0.03964285
252	0xbc04ddad	-0.008109492
253	0xbd9ab36c	-0.07553753
254	0xbd333601	-0.043752674
255	0x3ae5ff62	0.0017547423

network_body._body_endoder.seq_layers.2.weight f4 [256, 256]
0	0xbaf4de2c	-0.0018681935
1	0x3da9984a	0.08281
2	0x3c80c567	0.015719129
3	0xbdc8c93d	-0.09804008
4	0x3da2093d	0.07911918
5	0xbcbb7b2a	-0.022885878
6	0xbdd1121f	-0.102085344
7	0x3d264530	0.040593326
8	0xbd413f83	-0.04717971
9	0xbd90433c	-0.07044074
10	0xbe088e4c	-0.13335532
11	0x3cff1679	0.031138645
12	0xbc86a4fc	-0.016436093
13	0x3d73ff7a	0.059569813
14	0x3e0afcb7	0.13572966
15	0x3d313c14	0.043270186
16	0xbd4696b2	-0.048483558
17	0x3da030ae	0.07821785
18	0xbd8f3137	-0.06991809
19	0x3e106640	0.14101505
20	0x3dc5bd71	0.09655274
21	0x3c1cd5fe	0.009572504
22	0x3d4aa783	0.049476158
23	0x3db31b6e	0.08745466
24	0xbc64a292	-0.013954775
25	0x3daf4070	0.08557212
26	0x3c5e8fff	0.013584136
27	0x3d492659	0.049108837
28	0x3c6a74e1	0.014310093
29	0x3bb5711a	0.0055371644
30	0x3d8959cd	0.06706581
31	0xbd3d27a9	-0.0461804
32	0x3cd73606	0.026270878
33	0xbd178ab7	-0.036997523
34	0x3d831998	0.06401366
35	0x3c9e3800	0.019313812
36	0xbd50c855	-0.0509723
37	0xbdac9f52	-0.084288254
38	0x3d145ce2	0.036221392
39	0x3ccdf23e	0.025139924
40	0x3c832d86	0.016012918
41	0xbdeee264	-0.11664274
42	0xbc72cbf2	-0.014819132
43	0x3dca0cf8	0.09865755
44	0x3cb2c0cb	0.021820446
45	0xbd4bbfc6	-0.049743436
46	0xbc8365d9	-0.016039776
47	0xbda88558	-0.08228558
48	0xbd2e2bbf	-0.04252219
49	0xbd8fdbf2	-0.07024373
50	0xbdb6bf59	-0.089232154
51	0xbd31a5fa	-0.04337118
52	0xbd8a5077	-0.06753629
53	0x3c7a52c4	0.015278522
54	0xbd59338d	-0.05302768
55	0xbd5a6820	-0.053321958
56	0x3dbfa275	0.09357158
57	0x3a4a0a84	0.00077072554
58	0xbd167174	-0.03672929
59	0x3d4eed11	0.050519053
60	0xbe01a1be	-0.12659356
61	0xbd930338	-0.07178348
62	0xbd94a1ea	-0.07257445
63	0xbdbeb5b5	-0.093120016
64	0xbd3a17f4	-0.045433
65	0xbd09930c	-0.0335875
66	0x3d672c42	0.056438692
67	0xbdd49b4f	-0.10381185
68	0xbd8c7baa	-0.068595245
69	0xbda2585a	-0.07927008
70	0xbd8a17c0	-0.06742811
71	0xbd3ac7ec	-0.045600817
72	0xbd32bce3	-0.043637168
73	0xbd4b5a9d	-0.049646962
74	0x3dc885ed	0.09791169
75	0xbcba957d	-0.02277636
76	0xbda59885	-0.080857314
77	0xbd29a5e9	-0.04141799
78	0xbc0a8b21	-0.0084560225
79	0xbd84d35c	-0.06485626
80	0x3d927166	0.07150535
81	0xbd042102	-0.03225804
82	0x3d28e29e	0.041231744
83	0xbda2eb2d	-0.079550125
84	0x3d974678	0.07386488
85	0x3c4a0093	0.0123292385
86	0xbda6ed02	-0.081506744
87	0xbc61c626	-0.013780152
88	0xbc4e5caa	-0.012595335
89	0x3d18edd6	0.037336193
90	0xbe2b21ec	-0.16712159
91	0x3d00dc64	0.03146018
92	0xbcadea73	-0.021229958
93	0x3d85d005	0.06533817
94	0x3d7a8bf1	0.061168615
95	0xbdd76afb	-0.10518452
96	0xbdc5c325	-0.096563615
97	0x3d6382a7	0.05554452
98	0xbde3d56f	-0.111246936
99	0xbd4a94bc	-0.04945825
100	0xbc498503	-0.012299779
101	0x3ddbdcb0	0.10735452
102	0x3e317c18	0.17332494
103	0xbbf9ff54	-0.0076293144
104	0x3cba54d8	0.022745535
105	0xbd612e28	-0.05497566
106	0xbd54a661	-0.051916484
107	0x3e0b8048	0.13623154
108	0xbc66ace5	-0.014079307
109	0x3e38a421	0.1803136
110	0xbc59a712	-0.013284462
111	0x3e012e5c	0.12615341
112	0xbd9b8210	-0.07593167
113	0xbd38f224	-0.0451528
114	0xbc4088cb	-0.011751364
115	0xbd1b74c8	-0.03795317
116	0x3dfad453	0.12247529
117	0x3d7fe1de	0.062471263
118	0xbbb691a9	-0.0055715633
119	0x3d0c1803	0.034202587
120	0xbba52c71	-0.005040698
121	0xbdab39f3	-0.08360662
122	0x3d85a396	0.06525342
123	0xbe256580	-0.16152
124	0x3df14cc7	0.11782222
125	0xbd1ac4ea	-0.037785448
126	0x3d9693a4	0.07352379
127	0x3e25a483	0.16176037
128	0x3d8e3666	0.069439694
129	0x3d6e6a8a	0.058207072
130	0x3cee1ecc	0.02906742
131	0xbdccc38b	-0.09998234
132	0xbbd06c8e	-0.006360597
133	0x3daa8d6c	0.08327755
134	0xbc389517	-0.011266015
135	0x3da170ea	0.07882865
136	0x3d523eba	0.051329352
137	0x3d359c9f	0.04433882
138	0xbcf3f7c1	-0.029781224
139	0xbcc875f0	-0.0244703
140	0xbd827f9a	-0.06371994
141	0xbe00ca80	-0.12577248
142	0xbc43bec7	-0.01194734
143	0x3cf9e4a6	0.030504536
144	0xbded3698	-0.115826786
145	0x3da1b428	0.0789569
146	0xbd6f9954	-0.058495834
147	0xbd500488	-0.05078557
148	0xbc5ef483	-0.013608101
149	0xbdce48f5	-0.10072509
150	0xbc894cbc	-0.016760223
151	0x3dcf224f	0.10113966
152	0xbcf32d0e	-0.02968457
153	0xbd068663	-0.032843005
154	0xbdcf98fa	-0.101366
155	0xbd6cc507	-0.057805087
156	0x3d3e0b5b	0.04639755
157	0x3bb332d6	0.0054687066
158	0xbdeb8e07	-0.11501699
159	0xbd5df31c	-0.054186925
160	0xbd8403ee	-0.06446062
161	0xbd804b72	-0.0626439
162	0xbc711738	-0.014715008
163	0x3d33f0f9	0.04393098
164	0xbe23ae92	-0.15984562
165	0x3da29e90	0.079404
166	0xbb817a47	-0.003951344
167	0xbbb8ec14	-0.005643377
168	0x3d1ec757	0.038764324
169	0x3c00b10b	0.00785471
170	0xbe3c4974	-0.18387395
171	0x3d85d9ac	0.06535658
172	0xbbc525ef	-0.006016485
173	0xbd800a81	-0.062520035
174	0x3d4c61c0	0.04989791
175	0x3c205952	0.009786921
176	0xbda3169d	-0.079632975
177	0x3bea70c1	0.0071545546
178	0xbd3af70a	-0.04564575
179	0x3d70d82e	0.058799915
180	0x3c2cc590	0.010545149
181	0x3e3665e3	0.17812304
182	0xbb95a932	-0.004567289
183	0xbdd0005d	-0.10156319
184	0xbdaa82ca	-0.08325727
185	0xbd480c07	-0.048839595
186	0x3d1a0159	0.03759894
187	0x3c59f35f	0.013302653
188	0xbba30368	-0.0049747713
189	0xbd605b8b	-0.054774802
190	0x3cd3f5c1	0.02587402
191	0xbd96745b	-0.07346412
192	0x3e23931e	0.1597409
193	0x3dd07cc3	0.101800464
194	0xbdfa7301	-0.122289665
195	0xbd3ea971	-0.04654831
196	0xbd48a69f	-0.048987027
197	0xbcc0ea5c	-0.023549251
198	0x3e26d474	0.16291982
199	0xbc2f8a58	-0.010714136
200	0xbceab897	-0.028652472
201	0x3c29a222	0.010353597
202	0x3dfe1cbf	0.12407827
203	0x3d9df93a	0.07713552
204	0x3c87e21d	0.016587311
205	0x3d30168b	0.04299025
206	0xbd04aad5	-0.03238948
207	0x3d770270	0.06030506
208	0xbdbc964d	-0.09208355
209	0xbcd8e404	-0.026475914
210	0xbdd65f6a	-0.104674175
211	0xbcba5298	-0.022744462
212	0x3d66fae4	0.05639161
213	0x3e0fd264	0.14045101
214	0x3d884678	0.06654066
215	0xbdfce6d4	-0.123487145
216	0x3dd41d11	0.103571065
217	0xbd4ead26	-0.050458096
218	0xbda9af5c	-0.082854
219	0xbd9e3194	-0.077243
220	0x3c766d98	0.015040778
221	0x3d9a2800	0.07527161
222	0xbe06b2ac	-0.13154095
223	0x3cf7f008	0.030265823
224	0xbd1c7549	-0.03819779
225	0xbe0f4ff3	-0.13995342
226	0xbdb3916e	-0.08767973
227	0x3da4fca4	0.08056
228	0x3d9c82ce	0.076421365
229	0x3e1f0bca	0.15531841
230	0xbe010be0	-0.12602186
231	0x3d75dbec	0.060024187
232	0xbcf7ab15	-0.030232945
233	0xbd794357	-0.060855236
234	0xbd6bbe46	-0.057554506
235	0x3cabd975	0.020977715
236	0x3da4755b	0.08030196
237	0xbda2beff	-0.07946586
238	0xbdf61450	-0.12015593
239	0x3cfb60d1	0.030685814
240	0x3de2ef92	0.11080851
241	0xbd69bbcc	-0.057063863
242	0x3cad212f	0.021133987
243	0xbce9da5f	-0.02854651
244	0x3cd53e42	0.026030663
245	0x3d9588f6	0.07301514
246	0xbc8cca44	-0.017186292
247	0xbc431705	-0.011907344
248	0xbcab150e	-0.020884063
249	0xbd322081	-0.04348803
250	0x3c72edb5	0.014827182
251	0xbd1c41bd	-0.03814863
252	0x3dd52052	0.10406555
253	0xbdce1501	-0.100626
254	0xbbee75d7	-0.007277231
255	0xbc79aca7	-0.015238917
