results/LevelGen_SAC_NRS_001/LevelGeneration.onnx (onnx, 286641 bytes, 6 tensors)

action_model._discrete_distribution.branches.0.bias f4 [4]
0.19341815 0.035117317 -0.2439441 0.054881796
00000000: 680f 463e 2dd7 0f3d 7bcc 79be bccb 603d

action_model._discrete_distribution.branches.0.weight f4 [4, 256]
-0.017479625 -0.069134586 -0.036424868 -0.06447665 -0.1943212 0.023037557 -0.0343891 0.07330464
-0.020482697 -0.07816105 -0.059874628 -0.14948088 0.037751455 -0.14580648 -0.0030380024 0.031144401
-0.057357647 0.084697835 -0.04380919 -0.12128915 -0.076225415 -0.02298239 -0.0032004386 -0.108332485
-0.046766207 -0.013535486 -0.0055550877 -0.040165566 -0.06865934 0.040612135 -0.030953085 -0.032630995
-0.0138418535 0.030193666 0.064732224 -0.022718152 0.060116127 -0.058238782 -0.03295179 0.05030103
-0.037819896 -0.062900946 0.055591494 0.065397225 0.052061517 0.03348046 -0.03217709 -0.007120803
-0.047416594 -0.076753095 -0.025652274 0.01428407 0.004279945 -0.026027346 0.032570966 -0.10310283
-0.023712559 -0.04862981 -0.07492742 0.015569604 -0.040329084 -0.04269518 -0.0018575179 0.029487586
-0.06210114 -0.007378763 -0.027810413 -0.045812126 0.022111818 -0.076631784 0.0086792195 -0.0052876836
0.054668296 0.1309691 -0.0042814612 -0.041673288 -0.21985015 -0.010486116 -0.02706951 0.029788498
0.00097551127 0.0009645571 0.0046664104 -0.03728728 0.043682348 0.016121443 -0.016870886 0.031595442
-0.03892887 0.0013775525 0.052648295 -0.06790915 -0.047359504 0.026343357 0.02587033 -0.012683815
-0.05816448 -0.011928156 -0.066128306 -0.134504 -0.038573645 0.0072331047 -0.019565571 0.002339574
0.08604862 0.034997117 -0.07348022 -0.022948246 -0.035100043 -0.0108431345 -0.023239912 0.15537155
-0.16530442 -0.040519096 0.013173023 -0.046964847 -0.04622763 0.12422828 0.012926881 -0.06683306
0.120895 -0.014416752 -0.050165772 0.0012553025 0.038287554 -0.017548967 -0.058627583 -0.06851523
-0.035037965 -0.05937986 -0.058201574 -0.15167013 -0.02011045 -0.028420586 0.0040231245 0.093081854
-0.084161505 -0.006648724 0.049051754 -0.05025754 0.042439044 0.018345686 0.021362767 -0.05887618
-0.06982028 0.0041357554 -0.058827907 -0.05650344 0.01323667 -0.21813992 0.127702 -0.037089843
-0.009021494 -0.03465902 -0.061733264 0.040198345 -0.035695262 -0.001615761 -0.014959165 -0.0096402615
-0.012553428 -0.006212644 -0.005898842 -0.015952155 -0.05126421 -0.14185753 -0.07915366 -0.027941262
-0.05059785 -0.003286422 -0.025762135 0.011358325 -0.02434944 -0.00023417079 -0.047631957 -0.035660602
0.0136666875 -0.11125039 -0.04821582 0.014924389 -0.030632097 0.0244267 -0.010851751 -0.041410156
-0.023079596 -0.037508078 -0.057172406 -0.05357041 -0.07226547 -0.07496486 0.24748883 -0.019764401
-0.042972255 -0.035685826 -0.030376604 -0.026198601 -0.12976196 -0.036608733 -0.08822364 -0.034147296
-0.011639194 -0.0029454096 0.007545372 0.13674812 -0.12581673 0.00971085 0.0020895074 -0.053875506
0.0016588158 0.029959926 0.07346008 -0.010511443 -0.012996762 -0.04112367 -0.062147133 -0.057071056
0.011869951 -0.00711417 -0.035680447 -0.12016511 0.042951204 0.0009641074 -0.06620651 -0.022425598
-0.029495802 0.02234016 0.013430168 -0.016330421 -0.046331137 -0.024507571 -0.013320607 -0.0006243577
0.052906025 -0.012020489 -0.019958846 0.049550332 0.046414997 0.015203819 -0.025885873 0.04394314
0.016721077 -0.07136177 0.04002676 -0.022539124 -0.013113581 0.033423238 -0.023038767 -0.030584304
-0.031148324 0.13256475 -0.060436055 -0.054466236 0.0052753976 0.027915563 0.01987651 -0.02396177
00000000: 6e31 8fbc 6f96 8dbd 3e32 15bd 550c 84bd
00000010: 23fc 46be 42b9 bc3c 96db 0cbd be20 963d
00000020: 54cb a7bc e712 a0bd 193f 75bd 8411 19be
00000030: 45a1 1a3d 4b4e 15be 3919 47bb 8b22 ff3c
00000040: daef 6abd 0f76 ad3d 4471 33bd 7266 f8bd
00000050: 121c 9cbd 9145 bcbc 73be 51bb 6cdd ddbd
00000060: ec8d 3fbd f1c3 5dbc 7407 b6bb a684 24bd
00000070: 459d 8cbd e958 263d 5391 fdbc 14a8 05bd
00000080: f1c8 62bc b558 f73c 5492 843d 6b1b babc
00000090: 543c 763d ca8b 6ebd 75f8 06bd 7408 4e3d
000000a0: 09e9 1abd 36d2 80bd e8b3 633d fbee 853d
000000b0: 753e 553d cf22 093d 20cc 03bd a055 e9bb
000000c0: e737 42bd ba30 9dbd b824 d2bc bb07 6a3c
000000d0: c83e 8c3b 4d37 d5bc 2269 053d 9427 d3bd
000000e0: d740 c2bc 0d30 47bd 8c73 99bd a717 7f3c
000000f0: 1c30 25bd 24e1 2ebd f577 f3ba f38f f13c
00000100: c45d 7ebd 8dc9 f1bb aad2 e3bc 7fa5 3bbd
00000110: d823 b53c 20f1 9cbd 4933 0e3c 4e44 adbb
00000120: ddeb 5f3d c41c 063e 804b 8cbb 9cb1 2abd
00000130: 6620 61be f5cd 2bbc e1c0 ddbc 0207 f43c
00000140: 74b9 7f3a 55da 7c3a b0e8 983b 8cba 18bd
00000150: 43ec 323d 1e11 843c d034 8abc 396a 013d
00000160: e173 1fbd fe8e b43a bda5 573d f413 8bbd
00000170: 0afc 41bd 06ce d73c 04ee d33c c7cf 4fbc
00000180: e13d 6ebd 506e 43bc 476e 87bd 6bbb 09be
00000190: 66ff 1dbd ae03 ed3b fa47 a0bc 8a53 193b
000001a0: 423a b03d 2359 0f3d cc7c 96bd f6fd bbbc
000001b0: 10c5 0fbd 67a7 31bc a161 bebc b819 1f3e
000001c0: 9045 29be 5af7 25bd aad3 573c 365e 40bd
000001d0: 2f59 3dbd 656b fe3d 45cb 533c c5df 88bd
000001e0: cc97 f73d 3e34 6cbc a07a 4dbd f688 a43a
000001f0: 69d3 1c3d dac2 8fbc 7a23 70bd b751 8cbd
00000200: f883 0fbd 4c38 73bd c664 6ebd 6a4f 1bbe
00000210: acbe a4bc 4ad2 e8bc 6ad4 833b b3a1 be3d
00000220: de5c acbd 8add d9bb 7eea 483d dada 4dbd
00000230: 90d4 2d3d b149 963c f800 af3c 2628 71bd
00000240: effd 8ebd 3b85 873b 88f5 70bd 2770 67bd
00000250: 9ede 583c 1260 5fbe 50c4 023e 85eb 17bd
00000260: e3ce 13bc 9ef6 0dbd 05dc 7cbd 05a7 243d
00000270: 3235 12bd f1c7 d3ba 4917 75bc 30f2 1dbc
00000280: e5ac 4dbc 6f93 cbbb 134b c1bb 18ae 82bc
00000290: 6cfa 51bd 1a43 11be 501b a2bd 13e5 e4bc
000002a0: b13f 4fbd 0361 57bb 1d0b d3bc 4518 3a3c
000002b0: 7a78 c7bc be8b 75b9 ba19 43bd da10 12bd
000002c0: 3eea 5f3c 3fd7 e3bd f47d 45bd 6d85 743c
000002d0: 2af0 fabc 811a c83c 8bcb 31bc b29d 29bd
000002e0: 6c11 bdbc 12a2 19bd 9d2d 6abd a56c 5bbd
000002f0: ebff 93bd 2d87 99bd b66d 7d3e f4e8 a1bc
00000300: ad03 30bd 4d2b 12bd 5bd8 f8bc 739e d6bc
00000310: 52e0 04be 0af3 15bd 99ae b4bd 09de 0bbd
00000320: 51b2 3ebc c607 41bb 2b3f f73b b307 0c3e
00000330: 1ad6 00be 421a 1f3c 1ef0 083b 90ac 5cbd
00000340: 9f6c d93a 856e f53c 3d72 963d 3038 2cbc
00000350: 5ff0 54bc 4b71 28bd fe8d 7ebd 57c3 69bd
00000360: 2f7a 423c fc1d e9bb a925 12bd 2019 f6bd
00000370: 9aed 2f3d 27bc 7c3a 4797 87bd e3b5 b7bc
00000380: 2ea1 f1bc b602 b73c 350a 5c3c 60c7 85bc
00000390: b8c5 3dbd 1ac4 c8bc ad3e 5abc f0ab 23ba
000003a0: fdb3 583d 96f1 44bc bc80 a3bc 4af5 4a3d
000003b0: a71d 3e3d 7019 793c 9c0e d4bc b9fd 333d
000003c0: a4fa 883c 1f26 92bd 1af3 233d f8a3 b8bc
000003d0: 58da 56bc cee6 083d ccbb bcbc ef8b fabc
000003e0: c52a ffbc 0ebf 073e cc8b 77bd fd17 5fbd
000003f0: 3edd ac3b 2eaf e43c 10d4 a23c 794b c4bc

network_body._body_endoder.seq_layers.0.bias f4 [256]
0.12154095 0.039524768 -0.008576992 0.019385885 0.013973632 -0.099870786 -0.1767283 0.2050773
0.0035757422 -0.0864199 0.098774895 0.020750692 -0.09657017 0.03031873 0.005418232 -0.034901787
0.08714822 -0.03272588 0.118942216 -0.18778963 -0.04392215 0.09605507 0.03344881 0.13797699
-0.023047697 -0.013037133 0.096670374 0.06704497 0.010003352 0.12956478 0.0013913704 0.19072634
0.092582464 0.012213495 0.14155647 -0.092197694 0.10414706 -0.14198665 0.091142476 0.07929347
-0.20249406 0.10532589 0.14278188 -0.10845474 0.18614183 -0.34508386 -0.14288789 0.062800236
0.06016503 0.02794055 0.06851981 -0.014545948 0.01713575 -0.033868887 0.031183947 -0.09416213
0.05857364 0.02337406 0.008609185 0.024254622 0.17887338 0.16703467 -0.1326788 0.11212404
0.010515854 0.048850153 -0.13472721 0.058900133 0.046336118 -0.094396904 -0.38447058 -0.061391566
0.03633097 -0.08898675 0.006044817 -0.16587995 -0.15615217 0.15746313 0.03167841 0.11660766
0.1359491 0.073372655 -0.012403863 0.06333126 0.03807687 -0.12275552 0.08703198 -0.008248204
0.16057795 0.013246565 -0.05821034 -0.023730846 0.16922931 -0.020475566 -0.026453616 -0.05668167
0.21433766 0.07700047 0.18080671 -0.071473286 -0.08846728 0.16740254 -0.005645152 0.026608992
-0.21904899 0.019123124 -0.10131371 0.10230458 0.018846065 0.12664354 -0.18194576 -0.02473568
-0.020791704 0.08478749 0.06479343 -0.04051098 0.021344133 -0.0885785 0.11642831 -0.1530188
0.079145156 0.13860413 0.117567755 -0.10976288 0.006830618 0.008342672 -0.022698378 0.06769476
-0.049009833 -0.06028795 0.18788218 -0.00778067 -0.15363964 0.124261074 -0.073624656 -0.1569622
-0.15635118 0.17543319 -0.11038119 0.038879503 0.03950791 0.087049596 0.10258367 0.06522629
0.035773028 -0.17764279 0.015214954 0.01207257 -0.066786624 0.13833593 0.13078676 -0.112301886
-0.010399786 -0.07453173 0.004060424 0.028846039 0.24142177 -0.077378795 0.029266436 -0.0303217
0.021107785 0.046303954 -0.07165291 -0.046588875 -0.043257996 -0.02445298 0.06790135 -0.3913359
0.124558344 0.10817064 -0.017589118 0.042709038 0.082993515 -0.02920143 0.029104209 -0.008666398
0.078368 -0.17557597 -0.13559876 0.051235713 -0.13269448 0.11557249 0.050494127 0.071014814
0.20165353 -0.019586766 -0.066828676 0.02361461 -0.14054199 0.10236127 0.006270255 -0.16571845
-0.03297085 -0.052229837 0.08734281 0.089613646 0.08517501 0.08254938 0.03472707 -0.51823026
0.15885584 0.060850065 -0.06849786 -0.4089698 -0.06740779 -0.011066735 -0.020114735 0.07922828
-0.0651213 0.07586709 0.06164997 -0.06416554 0.13638578 0.12425611 -0.045076266 0.08915341
-0.075372234 0.03644079 0.010309472 0.085730076 -0.004243846 0.022490425 0.03581858 0.008018583
-0.069966204 -0.0809975 0.028056405 0.025632465 -0.03034371 0.06890038 -0.04828352 -0.18964258
-0.13426915 -0.23021705 0.028091885 0.09219884 0.04025881 0.032444093 0.027783958 0.09418645
-0.20398328 0.09203345 0.07395156 0.085714124 0.10651561 0.04798246 0.11746349 -0.036150917
0.10963587 -0.3681219 -0.44913793 0.11528241 0.020888355 0.06374765 0.031376045 0.05383717
00000000: 76ea f83d b9e4 213d 8386 0cbc 26cf 9e3c
00000010: a9f1 643c 0e89 ccbd 43f8 34be c9ff 513e
00000020: 0057 6a3b ebfc b0bd 7e4a ca3d 5bfd a93c
00000030: 95c6 c5bd fc5e f83c 6d8b b13b 2df5 0ebd
00000040: c47a b23d 930b 06bd fa97 f33d ed4b 40be
00000050: b6e7 33bd 85b8 c43d 9f01 093d d749 0d3e
00000060: 86ce bcbc b399 55bc 1efb c53d e04e 893d
00000070: 19e5 233c a1ac 043e a55e b63a c44d 433e
00000080: e09b bd3d 1c1b 483c 2ef4 103e 25d2 bcbd
00000090: 0e4b d53d f364 11be e8a8 ba3d 9d64 a23d
000000a0: 9a5a 4fbe 1ab5 d73d 6a35 123e 851d debd
000000b0: f79b 3e3e d5ae b0be 3451 12be 699d 803d
000000c0: 9b6f 763d 95e3 e43c 1d54 8c3d 2152 6ebc
000000d0: 4660 8c3c 1aba 0abd 7a75 ff3c 13d8 c0bd
000000e0: eaea 6f3d f57a bf3c 8a0d 0d3c a1b1 c63c
000000f0: 952a 373e 230b 2b3e f4dc 07be 4aa1 e53d
00000100: b04a 2c3c 1917 483d eef5 09be 4441 713d
00000110: f1ca 3d3d 2a53 c1bd 54d9 c4be b975 7bbd
00000120: c8cf 143d af3e b6bd 9a13 c63b 6fdc 29be
00000130: 5be6 1fbe 043e 213e 38c1 013d ffcf ee3d
00000140: 3e36 0b3e 6744 963d 9239 4bbc d2b3 813d
00000150: 7ef6 1b3d 3f67 fbbd d33d b23d 7a23 07bc
00000160: 8c6e 243e 1f08 593c f76d 6ebd 3167 c2bc
00000170: 734a 2d3e 60bc a7bc 41b5 d8bc 0a2b 68bd
00000180: 557b 5b3e 6cb2 9d3d 6525 393e 9660 92bd
00000190: 552e b5bd 926b 2b3e f8fa b8bb 1afb d93c
000001a0: 614e 60be 19a8 9c3c 907d cfbd 1085 d13d
000001b0: 1063 9a3c d8ae 013e fd4f 3abe 7ba2 cabc
000001c0: 5d53 aabc 10a5 ad3d 6bb2 843d d7ee 25bd
000001d0: e4d9 ae3c a568 b5bd f771 ee3d f6b0 1cbe
000001e0: db16 a23d 3eee 0d3e 5dc7 f03d 5ccb e0bd
000001f0: 60d3 df3b b4af 083c f3f1 b9bc 8da3 8a3d
00000200: 89be 48bd 7ff0 76bd 3064 403e fef4 febb
00000210: b653 1dbe 977c fe3d 86c8 96bd b3ba 20be
00000220: 861a 20be c2a4 333e 890f e2bd 1d40 1f3d
00000230: 0cd3 213d 0f47 b23d 6317 d23d 5c95 853d
00000240: bd86 123d fee7 35be 2448 793c 07cc 453c
00000250: 6dc7 88bd efa7 0d3e f7ec 053e 88fe e5bd
00000260: dd63 2abc 17a4 98bd 4e0d 853b 874e ec3c
00000270: 4537 773e c678 9ebd 2ac0 ef3c 3765 f8bc
00000280: 3cea ac3c 37a9 3d3d c3be 92bd fad3 3ebd
00000290: 4c2f 31bd 9e51 c8bc dd0f 8b3d 2e5d c8be
000002a0: 7218 ff3d 9288 dd3d 0e17 90bc acef 2e3d
000002b0: 81f8 a93d d637 efbc f36b ee3c 82fd 0dbc
000002c0: 677f a03d 30ca 33be 67da 0abe 8adc 513d
000002d0: 10e1 07be 45b1 ec3d eed2 4e3d 3770 913d
000002e0: 437e 4e3e 6d74 a0bc 79dd 88bd 6d73 c13c
000002f0: 3dea 0fbe c9a2 d13d b676 cd3b 19b2 29be
00000300: 710c 07bd f4ee 55bd cae0 b23d 5c87 b73d
00000310: 3c70 ae3d a60f a93d f93d 0e3d bdaa 04bf
00000320: 1bab 223e eb3d 793d 9b48 8cbd 7d64 d1be
00000330: 180d 8abd 4051 35bc a8c7 a4bc 7042 a23d
00000340: 515e 85bd 3460 9b3d ae84 7c3d 3969 83bd
00000350: b7a8 0b3e fd79 fe3d e4a1 38bd 1096 b63d
00000360: c25c 9abd f042 153d 0fe9 283c 4093 af3d
00000370: f60f 8bbb d73d b83c 81b6 123d 6060 033c
00000380: 714a 8fbd 04e2 a5bd 8cd6 e53c 2dfb d13c
00000390: 5f93 f8bc a41b 8d3d f1c4 45bd aa31 42be
000003a0: da7d 09be 05be 6bbe f420 e63c bfd2 bc3d
000003b0: 6ce6 243d 19e4 043d 2f9b e33c d3e4 c03d
000003c0: fee0 50be 097c bc3d ea73 973d e38a af3d
000003d0: db24 da3d 4289 443d b390 f03d fc12 14bd
000003e0: c588 e03d 797a bcbe 68f5 e5be 2f19 ec3d
000003f0: 0e1e ab3c 218e 823d 2b84 003d 5d84 5c3d

network_body._body_endoder.seq_layers.0.weight f4 [256, 16]
-0.3500555 -0.1777909 -0.17829347 0.1812222 0.454342 -0.16578516 -0.21111347 -0.23255904
-0.7039127 0.14611095 -0.19089535 0.25372472 -0.1761979 -0.12117173 -0.35535598 -0.008457126
0.2001232 -0.21815354 0.21788833 0.5077376 0.08318847 0.508754 0.0770883 0.26192483
-0.21377254 -0.018422378 -0.1636814 -0.28605258 -0.4924465 -0.67634517 -0.15528513 0.21043685
-0.108506985 0.05092802 -0.20227283 -0.20465264 -0.42677486 -0.14069463 0.058181927 -0.3644169
-0.18605 0.07276285 -0.574042 -0.19922887 -0.045104872 -0.028490845 0.23480032 -0.028832188
-0.08068539 -0.24359794 0.21120808 0.21160132 -0.2340141 -0.14775711 0.23023763 -0.07465082
-0.47194475 0.40480605 -0.1266109 -0.30412397 0.31295618 -0.24757692 0.29879797 0.028590817
-0.22499354 -0.19764762 -0.15662979 -0.39666817 0.3810439 -0.14423037 -0.54978526 0.14943504
-0.31956932 -0.29544142 -0.055395048 0.3323811 -0.117950596 -0.13695872 -0.3360128 -0.010802876
0.08159509 0.15133962 0.1592559 -0.0031626618 -0.37589622 0.2452143 0.066778064 -0.20549466
0.16465636 -0.19627534 -0.11688078 0.16567755 -0.003304854 0.16107948 -0.17555195 -0.52008563
-0.08157434 0.37633494 -0.12358718 0.12487706 -0.1949002 0.107823275 0.35640723 0.29884318
-0.452637 -0.19314732 0.12918718 -0.11174194 0.30199444 -0.091518074 -0.26288253 -0.2584873
0.036988825 0.014922516 0.11701625 -0.21119183 0.109785445 -0.2227326 -0.2504598 -0.41681987
-0.027213542 -0.47752395 -0.3405861 0.20106436 0.09793998 -0.6782635 0.2005993 0.32139876
-0.11021344 0.10968101 -0.06762895 0.07312584 0.22323026 0.2842639 0.15661836 0.18432519
-0.01623888 -0.3911029 -0.3331581 -0.23776305 -0.20301145 -0.34346786 -0.035072006 -0.02187694
-0.10071645 -0.17603266 0.2095855 -0.082520306 0.16621558 0.0027961847 -0.15310289 -0.20197374
0.101982355 0.3704622 0.0843202 -0.17446734 -0.043020222 0.1085608 0.01971455 -0.50723237
-0.16178326 -0.58687234 0.049287006 0.24445346 -0.9952269 0.10427675 0.74738234 0.14528249
0.35761684 0.5580579 0.0703009 0.3572156 0.032371428 -0.13633834 -0.45581746 0.053206757
-0.13328253 -0.11777613 -0.36727393 0.14895585 -0.00043585082 -0.44686842 -0.062144715 -0.34172964
-0.24781986 0.035987116 -0.326884 -0.005871704 0.08767246 -0.17347012 -0.0455378 -0.016108617
0.08585899 0.06651564 0.15283191 0.14138383 -0.07625256 0.34322628 0.124806955 0.15483518
-0.39462882 0.29684165 0.36157024 -0.0086976625 -0.3053325 0.23115875 0.17365813 -0.06128687
0.4039038 -0.23898238 0.19139536 -0.3222223 0.2673269 -0.1630127 0.038724516 0.37518662
0.10904287 0.038489535 -0.90123403 -0.22539131 0.31749192 -0.4299564 -0.1037443 -0.4548637
0.09745638 0.10109483 0.044293966 -0.54845285 -0.18056615 -0.13490564 -0.07769202 -0.06701372
-0.14462171 -0.12405013 -0.08991652 -0.0016203542 -0.32252008 -0.32036996 -0.019705346 -0.23521629
0.09296034 -0.019041505 -0.27312565 0.3070632 -0.19020115 0.24535441 0.23247257 0.15152785
-0.52789086 -0.08359902 0.3782699 -0.16228025 0.48164615 -0.5080538 -0.08002095 -0.24543406
00000000: 793a b3be d10e 36be 9092 36be 5092 393e
00000010: 849f e83e 96c3 29be 212e 58be f523 6ebe
00000020: 9f33 34bf 1c9e 153e 127a 43be 35e8 813e
00000030: 396d 34be e228 f8bd 38f1 b5be c28f 0abc
00000040: 19ed 4c3e a463 5fbe 1e1e 5f3e 17fb 013f
00000050: b75e aa3d b43d 023f 78e0 9d3d 031b 863e
00000060: 30e7 5abe 87ea 96bc 199c 27be 7c75 92be
00000070: f321 fcbe f524 2dbf 1103 1fbe c27c 573e
00000080: e938 debd e699 503d 9c20 4fbe 7690 51be
00000090: 3c82 dabe 4112 10be 2c50 6e3d da94 babe
000000a0: e483 3ebe b004 953d 6bf4 12bf a702 4cbe
000000b0: e3bf 38bd a265 e9bc 7f6f 703e 7b31 ecbc
000000c0: 623e a5bd bd71 79be ee46 583e 04ae 583e
000000d0: 64a1 6fbe a44d 17be 6ac3 6b3e 87e2 98bd
000000e0: bea2 f1be bd42 cf3e 4aa6 01be 23b6 9bbe
000000f0: cb3b a03e ce84 7dbe 0cfc 983e 4a37 ea3c
00000100: b564 66be 2364 4abe 8f63 20be 1718 cbbe
00000110: 3018 c33e 20b1 13be babe 0cbf 8005 193e
00000120: 979e a3be 1944 97be ebe5 62bd db2d aa3e
00000130: 1590 f1bd e83e 0cbe df09 acbe 8cfe 30bc
00000140: 541b a73d c6f8 1a3e fb13 233e a944 4fbb
00000150: 7875 c0be 7519 7b3e f0c2 883d 316d 52be
00000160: ad9b 283e 67fc 48be 315f efbd 60a7 293e
00000170: 4096 58bb 05f2 243e e4c3 33be 5524 05bf
00000180: 7310 a7bd f9ae c03e 471b fdbd 8bbf ff3d
00000190: eb93 47be 73d2 dc3d 027b b63e f901 993e
000001a0: 09c0 e7be 69c8 45be a549 043e f5d8 e4bd
000001b0: 049f 9a3e d46d bbbd 8a98 86be 7358 84be
000001c0: 9881 173d 927d 743c 37a6 ef3d ac42 58be
000001d0: 31d7 e03d 0414 64be 443c 80be 6a69 d5be
000001e0: efee debc 057e f4be 4d61 aebe d1e3 4d3e
000001f0: c294 c83d ada2 2dbf e769 4d3e 618e a43e
00000200: 96b7 e1bd 70a0 e03d 0c81 8abd 00c3 953d
00000210: 7996 643e 0a8b 913e 9060 203e bebf 3c3e
00000220: 6607 85bc a43e c8be b393 aabe 2878 73be
00000230: 3ce2 4fbe 05db afbe aaa7 0fbd 4537 b3bc
00000240: 6d44 cebd e841 34be 959d 563e 6800 a9bd
00000250: 6b34 2a3e 3240 373b 01c7 1cbe 34d2 4ebe
00000260: 20dc d03d 39ad bd3e 12b0 ac3d 91a7 32be
00000270: f935 30bd 2055 de3d 6880 a13c fbd9 01bf
00000280: 83aa 25be 443d 16bf 2ce1 493d 0252 7a3e
00000290: 31c7 7ebf 0c8f d53d 7354 3f3f efc4 143e
000002a0: 8e19 b73e e2dc 0e3f ebf9 8f3d f7e4 b63e
000002b0: e797 043d 479c 0bbe e860 e9be 54ef 593d
000002c0: 377b 08be 9d34 f1bd 540b bcbe e287 183e
000002d0: e882 e4b9 f0cb e4be 758b 7ebd 30f7 aebe
000002e0: 7dc4 7dbe 3a67 133d 575d a7be 6c67 c0bb
000002f0: 9e8d b33d 27a2 31be d885 3abd 38f6 83bc
00000300: d7d6 af3d 5a39 883d f87f 1c3e ecc6 103e
00000310: 4d2a 9cbd 5bbb af3e ca9a ff3d 1d8d 1e3e
00000320: ca0c cabe a1fb 973e bc1f b93e a480 0ebc
00000330: 8b54 9cbe e1b4 6c3e 70d3 313e f107 7bbd
00000340: 7bcc ce3e ccb7 74be 25fd 433e 52fa a4be
00000350: 12df 883e cdec 26be 999d 1e3d 7618 c03e
00000360: de51 df3d 34a7 1d3d 46b7 66bf fbcc 66be
00000370: 4d8e a23e 3f23 dcbe e477 d4bd e5e3 e8be
00000380: 3697 c73d ce0a cf3d 976d 353d 6867 0cbf
00000390: 55e6 38be b424 0abe fe1c 9fbd 7d3e 89bd
000003a0: b717 14be ff0d febd 2726 b8bd 1162 d4ba
000003b0: 5a21 a5be 8807 a4be 1b6d a1bc 8adc 70be
000003c0: fe61 be3d eefc 9bbc 20d7 8bbe 6337 9d3e
000003d0: 17c4 42be 303e 7b3e 4a0d 6e3e 1e2a 1b3e
000003e0: db23 07bf f735 abbd 98ac c13e cb2c 26be
000003f0: 539a f63e d00f 02bf 06e2 a3bd 1153 7bbe

network_body._body_endoder.seq_layers.2.bias f4 [256]
-0.14385772 -0.29073662 -0.06496258 -0.043379243 -0.006511754 -0.119007565 -0.034009874 -0.1739889
-0.2720045 -0.3604607 -0.39978835 -0.07810478 -0.18318638 -0.009816959 -0.30786023 -0.06346005
-0.415829 -0.037074592 -0.30431667 -0.14532807 -0.37504715 -0.18891963 -0.19972062 -0.052102495
-0.34474927 -0.20480217 -0.24586678 -0.3756175 -0.3734468 -0.071338 -0.31548673 -0.064745285
-0.18916982 -0.07671734 -0.087069914 -0.38290647 -0.20604129 -0.29332486 -0.21953613 -0.21644732
-0.3412462 -0.3799287 -0.1280346 -0.04283076 -0.20449547 -0.17761888 -0.33640364 -0.33010072
-0.31504548 -0.39337987 -0.22579761 -0.098916665 -0.21817085 -0.3347095 -0.109365046 -0.21165384
-0.14082468 -0.32895613 -0.39212194 -0.23004577 -0.336357 -0.39533132 -0.03635246 -0.14492449
-0.3177317 -0.06719359 -0.2524201 -0.3562861 -0.069399685 -0.41090816 -0.12669875 -0.13438214
-0.030054197 -0.18661393 -0.0025388661 -0.37127835 -0.15207179 -0.10669519 -0.46110854 -0.22053204
-0.21755698 -0.27606195 -0.06405331 -0.006505906 -0.06944302 -0.1099563 -0.23047894 -0.08424676
-0.22459015 -0.22182557 -0.21373343 -0.3730304 -0.24800663 -0.2059869 -0.22966425 -0.22008763
-0.41057745 -0.12108738 -0.20449093 -0.05909647 -0.3264955 -0.04158425 -0.28982198 -0.29908487
-0.24510525 -0.11721831 -0.11326818 -0.21677198 -0.34153315 -0.19058855 -0.18284497 0.0726791
-0.05839267 -0.36350095 -0.24215817 -0.20970252 -0.075189896 -0.17955615 -0.06387133 -0.26889548
0.0037867615 -0.2700345 -0.3170294 -0.027086077 -0.10657242 -0.16019547 -0.4245924 -0.39988345
-0.2269607 -0.40235683 -0.39539886 0.0050347187 -0.2500548 -0.34298998 -0.20503215 -0.072943985
-0.3763269 -0.25598216 -0.0668919 -0.290013 -0.24878067 0.01140047 -0.21295542 -0.38997906
-0.38870588 -0.055591956 -0.2684286 0.0079301605 -0.17607746 -0.08776013 0.021353977 -0.33650252
-0.28927875 -0.00037617484 -0.36626774 -0.10308209 -0.31336343 -0.44496217 -0.20378757 -0.19545181
-0.5432582 -0.2084959 -0.265286 -0.21267246 -0.22613342 -0.103053324 -0.39995486 -0.045345657
-0.3769494 -0.14244677 -0.059100464 -0.052155644 -0.012609354 -0.0406342 -0.33139956 -0.16778585
-0.124581225 -0.28015855 -0.3912356 -0.106020816 -0.060763005 -0.067866206 -0.2811054 -0.2370043
-0.05054035 -0.22070685 -0.33784425 -0.24197027 -0.39036313 -0.116327874 -0.16171423 -0.31576756
-0.2490755 -0.317149 -0.37104648 -0.3030954 -0.037649978 -0.13410768 -0.053426314 -0.39588735
-0.3878381 -0.2365881 -0.13254166 -0.15580428 -0.32983875 -0.054176345 -0.09132899 -0.019335123
-0.021204304 -0.08209948 -0.053615756 -0.00902167 -0.025554232 -0.31398034 -0.023548389 -0.32201293
-0.09829462 -0.1880714 -0.39759642 -0.27599192 -0.17501888 -0.019748703 -0.4154631 -0.30508414
-0.034078844 -0.19219336 -0.06917825 -0.24365288 -0.43637845 -0.101646595 -0.025443202 -0.035658963
-0.12833667 -0.31229755 -0.32658997 -0.1866634 -0.14096978 -0.047585923 -0.2736509 -0.053412892
-0.26685333 -0.3551845 -0.07598959 -0.3566405 -0.26444757 -0.22685221 -0.33525732 -0.28491795
-0.2775333 -0.16248053 -0.20566243 -0.16690904 -0.15355247 -0.057128385 -0.21571645 -0.049891822
00000000: 704f 13be 6edb 94be 1a0b 85bd 6fae 31bd
00000010: 8d60 d5bb 3dba f3bd f04d 0bbd 252a 32be
00000020: 2c44 8bbe 4e8e b8be 0fb1 ccbe 66f5 9fbd
00000030: 3695 3bbe 4fd7 20bc db9f 9dbe 58f7 81bd
00000040: 8ae7 d4be 87db 17bd 65cf 9bbe e2d0 14be
00000050: 2e06 c0be 2674 41be 9083 4cbe 6d69 55bd
00000060: fa82 b0be a9b7 51be 80c4 7bbe f050 c0be
00000070: 6b34 bfbe a819 92bd 7a87 a1be 2d99 84bd
00000080: bcb5 41be fb1d 9dbd b651 b2bd 510c c4be
00000090: 7dfc 52be ad2e 96be 14ce 60be 5ea4 5dbe
000000a0: d2b7 aebe 0486 c2be 811b 03be 4f6f 2fbd
000000b0: 4367 51be b9e1 35be 193d acbe f602 a9be
000000c0: a44d a1be 1669 c9be 7d37 67be d294 cabd
000000d0: 2e68 5fbe 0b5f abbe c8fa dfbd c9bb 58be
000000e0: 5834 10be f06c a8be 35c4 c8be 1e91 6bbe
000000f0: fc36 acbe de68 cabe 51e6 14bd 1667 14be
00000100: bbad a2be cb9c 89bd 353d 81be 226b b6be
00000110: 6c21 8ebd 8e62 d2be 51bd 01be 799b 09be
00000120: 3834 f6bc b917 3fbe 1b63 26bb 3218 bebe
00000130: b5b8 1bbe 0283 dabd 6b16 ecbe 27d3 61be
00000140: 42c7 5ebe fe57 8dbe 622e 83bd 7f2f d5bb
00000150: 2438 8ebd c530 e1bd ac02 6cbe 9189 acbd
00000160: f6fa 65be 3e26 63be f0dc 5abe d7fd bebe
00000170: 73f5 7dbe 3bee 52be 1b2d 6bbe a75e 61be
00000180: 3537 d2be a9fc f7bd 1266 51be 240f 72bd
00000190: 6b2a a7be 3f54 2abd 8c63 94be a721 99be
000001a0: dffc 7abe 2710 f0bd 26f9 e7bd 79f9 5dbe
000001b0: 6fdd aebe a529 43be b63b 3bbe c8d8 943d
000001c0: 272d 6fbd cc1c babe 50f8 77be 42bc 56be
000001d0: 29fd 99bd 91dd 37be f9ce 82bd abac 89be
000001e0: 512b 783b f641 8abe ad51 a2be 9fe3 ddbc
000001f0: a442 dabd 480a 24be 2d64 d9be 86bd ccbe
00000200: 6368 68be b701 cebe b871 cabe 48fa a43b
00000210: 2f07 80be 629c afbe f3f3 51be a863 95bd
00000220: ebad c0be 1810 83be 9ffe 88bd 957c 94be
00000230: 5cc0 7ebe 09c9 3a3c fc10 5abe 56ab c7be
00000240: 7504 c7be 64b4 63bd 796f 89be 81ed 013c
00000250: a64d 34be 95bb b3bd 89ee ae3c 0f4a acbe
00000260: 581c 94be 5539 c5b9 7287 bbbe b41c d3bd
00000270: 2c71 a0be 15d2 e3be b0ad 50be 8524 48be
00000280: f812 0bbf f37f 55be 91d3 87be cfc6 59be
00000290: 858f 67be 9f0d d3bd e2c6 ccbe 5ebc 39bd
000002a0: 83ff c0be 91dd 11be 5413 72bd 28a1 55bd
000002b0: 7797 4ebc 0c70 26bd 34ad a9be 0ed0 2bbe
000002c0: 7124 ffbd f170 8fbe 0850 c8be 7121 d9bd
000002d0: a1e2 78bd 70fd 8abd 0ced 8fbe 41b1 72be
000002e0: 6603 4fbd fa00 62be ecf9 acbe 0ec7 77be
000002f0: addd c7be 4f3d eebd 6a98 25be 49ac a1be
00000300: a60d 7fbe 5b61 a2be cef9 bdbe 522f 9bbe
00000310: dd36 1abd 8653 09be 8dd5 5abd bfb1 cabe
00000320: b792 c6be 2744 72be 00b9 07be 288b 1fbe
00000330: a0e0 a8be 04e8 5dbd b20a bbbd b164 9ebc
00000340: a6b4 adbc c623 a8bd 329c 5bbd a0cf 13bc
00000350: 1c57 d1bc 08c2 a0be 8de8 c0bc e1de a4be
00000360: b14e c9bd ca95 40be c291 cbbe d04e 8dbe
00000370: 2638 33be 08c8 a1bc 94b7 d4be fd33 9cbe
00000380: 4296 0bbd 56ce 44be 54ad 8dbd 2480 79be
00000390: ff6c dfbe 172c d0bd 436e d0bc 220f 12bd
000003a0: b06a 03be 77e5 9fbe cd36 a7be b124 3fbe
000003b0: 625a 10be 75e9 42bd f91b 8cbe 7ac7 5abd
000003c0: 00a1 88be beda b5be 6ea0 9bbd 9599 b6be
000003d0: ac65 87be f24b 68be d9a6 abbe c4e0 91be
000003e0: d818 8ebe 4c61 26be 2c99 52be 34ea 2abe
000003f0: dc3c 1dbe 74ff 69bd c6e4 5cbe 5e5b 4cbd

network_body._body_endoder.seq_layers.2.weight f4 [256, 256]
0.4197297 -0.17665789 0.14062817 0.11114716 0.41653398 -0.029195014 -0.10049153 0.4442288
-0.0983997 -0.030759072 0.0077688405 0.28859738 -0.013224911 0.0028174974 0.12842031 0.25364074
0.103446014 0.061519135 0.40432388 -0.14892136 -0.18844895 0.2374927 -0.16104922 0.04568987
0.108138494 0.05813538 0.028830007 0.049442943 -0.038540393 0.15753533 -0.09093178 -0.047433622
0.075757496 -0.082575575 0.30485198 -0.030016229 -0.08031731 -0.03119344 0.2380262 -0.14681566
0.06776042 -0.078770876 0.06169872 -0.09632579 0.0700979 0.045698635 -0.17957997 -0.19353168
0.049550187 -0.025145294 0.02769684 -0.24528955 -0.13245969 0.1553181 -0.022393862 -0.11703137
-0.1612973 -0.11593409 0.27565932 0.13992026 -0.02445211 -0.056212746 -0.05381397 -0.17217186
-0.075914815 0.1734141 -0.019727029 0.13159639 0.29642373 -0.10411215 -0.0025555391 0.10620675
-0.23012823 0.11293031 0.056060106 0.034418125 -0.057350658 -0.0817134 0.24879143 0.19225247
0.055172097 -0.015540341 0.099101424 0.20226692 0.0339675 -0.07435614 -0.07832708 0.08536304
0.083561525 0.10719097 0.24028984 -0.026151353 0.30896518 0.00021659402 0.33578274 -0.10619786
0.29923636 0.15365618 0.38374937 0.092507884 -0.17867701 -0.41406488 -0.32787353 -0.24550161
-0.15739912 -0.06568513 0.029169919 -0.34491104 0.15419118 0.41411898 -0.016591843 -0.17102832
-0.2741544 0.28667164 -0.19292568 0.08888318 0.05672278 -0.055562142 0.19267112 -0.1013132
0.20498703 0.016465746 0.053196285 0.046126332 0.29638287 -0.28692573 0.21748419 0.1486282
0.022491116 -0.12986213 0.10696305 -0.0692499 -0.22250368 0.12349598 -0.24981797 -0.066832684
-0.011466812 -0.1562191 0.31575456 -0.32328215 0.22181213 0.13985138 0.14803344 0.058083974
-0.23218237 -0.04139384 0.17272642 0.28400537 0.0035500347 0.13464086 0.13987365 -0.042211946
-0.14673124 0.1200728 -0.10253592 0.14677772 0.15706316 0.07030498 0.16724087 -0.08350691
-0.2535834 0.062998705 -0.16533127 -0.1942515 -0.05382264 -0.2898537 0.19084701 -0.00014390022
0.026873622 -0.1265363 -0.12635244 0.4731158 -0.08715892 0.2541101 -0.082123846 -0.018923784
-0.012303797 0.1480113 -0.056009043 0.32533634 0.09688236 0.21736717 -0.03695388 -0.19444758
-0.075445846 -0.07570794 0.017004821 0.32595798 -0.09400315 0.08606253 -0.15569045 0.07879319
-0.24670999 0.2795631 0.112065956 0.05998525 -0.47076416 -0.059203353 -0.18585767 -0.12724203
0.12609248 -0.061645344 -0.23781607 -0.023423007 0.1790078 0.027756304 0.106979094 0.07442984
-0.15812865 0.2296791 -0.37758407 0.062124252 0.13875544 0.11312441 -0.0061028246 0.13209559
0.06854072 0.21840212 -0.020307617 -0.060240634 0.056964196 0.0042023724 0.16023408 -0.13440111
-0.2585859 -0.07784094 -0.3876715 0.27857283 -0.22730851 0.15582246 -0.05351224 0.05109732
-0.06418909 0.16337205 0.20086941 0.13976301 -0.28070053 -0.12559071 0.118875906 0.23137972
-0.003611229 0.12736909 0.3173976 -0.33586895 -0.00218463 -0.21008535 -0.18718341 -0.10611348
0.31037062 -0.12433623 -0.13277146 0.15654638 0.17551869 0.10785926 -0.050042443 0.18414497
00000000: d0e6 d63e cee5 34be d500 103e 1fa1 e33d
00000010: f143 d53e 622a efbc 81ce cdbd f571 e33e
00000020: c885 c9bd 73fa fbbc c291 fe3b 09c3 933e
00000030: 4cad 58bc c3a5 383b 9d80 033e 33dd 813e
00000040: 81db d33d 7dfb 7b3d 8a03 cf3e d77e 18be
00000050: c3f8 40be 4931 733e 16ea 24be 4d25 3b3d
00000060: b777 dd3d 5d1f 6e3d e82c ec3c af84 4a3d
00000070: 88dc 1dbd f150 213e 713a babd c249 42bd
00000080: bf26 9b3d 621d a9bd 8f15 9c3e 98e4 f5bc
00000090: 677d a4bd 6389 ffbc 24bd 733e d856 16be
000000a0: fac5 8a3d a052 a1bd ccb7 7c3d 7546 c5bd
000000b0: 7d8f 8f3d 7e2e 3b3d d0e3 37be 2b2d 46be
000000c0: 23f5 4a3d 81fd cdbc 7ce4 e23c 2f2d 7bbe
000000d0: 83a3 07be b50b 1f3e 5573 b7bc 25ae efbd
000000e0: 1f2b 25be da6e edbd 3823 8d3e 4247 0f3e
000000f0: cb4f c8bc 563f 66bd 0a6c 5cbd d24d 30be
00000100: 3a79 9bbd 7793 313e 949a a1bc 34c1 063e
00000110: dac4 973e c038 d5bd d57a 27bb ed82 d93d
00000120: bca6 6bbe 0248 e73d 489f 653d 05fa 0c3d
00000130: 86e8 6abd 5b59 a7bd 2ec3 7e3e d5dd 443e
00000140: 23fc 613d ea9c 7ebc b0f5 ca3d 0f1f 4f3e
00000150: 8121 0b3d 0848 98bd f369 a0bd d1d2 ae3d
00000160: 4e22 ab3d f086 db3d 8a0e 763e 5d3b d6bc
00000170: af30 9e3e 841d 6339 b7eb ab3e 437e d9bd
00000180: 8235 993e 0c58 1d3e cc7a c43e c674 bd3d
00000190: 1bf7 36be 5000 d4be 0adf a7be c664 7bbe
000001a0: 3c2d 21be ed85 86bd c1f5 ee3c 2e98 b0be
000001b0: 4be4 1d3e 6707 d43e 9eeb 87bc 0c22 2fbe
000001c0: f75d 8cbe a0c6 923e 4f8e 45be 6208 b63d
000001d0: 2556 683d 2195 63bd 944b 453e 4c7d cfbd
000001e0: 1fe8 513e 2ce3 863c 59e4 593d f7ee 3c3d
000001f0: 7fbf 973e eee7 92be 2db4 5e3e fe31 183e
00000200: 4a3f b83c 94fa 04be 720f db3d e4d2 8dbd
00000210: 01d8 63be 76eb fc3d 48d0 7fbe 93df 88bd
00000220: 4cdf 3bbc e6f7 1fbe 95aa a13e 3d85 a5be
00000230: b822 633e 3335 0f3e 1496 173e 76e9 6d3d
00000240: 37c1 6dbe 968c 29bd 32df 303e 2769 913e
00000250: b3a7 683b 4bdf 093e 0a3b 0f3e 6fe6 2cbd
00000260: b740 16be bae8 f53d 5afe d1bd e64c 163e
00000270: 2ad5 203e 0ffc 8f3d 3141 2b3e ac05 abbd
00000280: afd5 81be 7705 813d 9a4c 29be dde9 46be
00000290: 2175 5cbd b467 94be 666d 433e ece3 16b9
000002a0: 1226 dc3c bb92 01be 8962 01be 3c3c f23e
000002b0: 6080 b2bd b81a 823e 8c30 a8bd 0d06 9bbc
000002c0: dd95 49bc 4690 173e bd69 65bd 7c92 a63e
000002d0: 426a c63d 8095 5e3e f45c 17bd 441d 47be
000002e0: 5a83 9abd c40c 9bbd b24d 8b3c f7e3 a63e
000002f0: b984 c0bd 8d41 b03d 516d 1fbe 535e a13d
00000300: 8ba1 7cbe e522 8f3e d682 e53d 18b3 753d
00000310: 0008 f1be 377f 72bd 7951 3ebe bc4b 02be
00000320: 631e 013e d47f 7cbd 0e86 73be 9be1 bfbc
00000330: d24d 373e 3061 e33c db17 db3d ac6e 983d
00000340: 7aec 21be ff30 6b3e b352 c1be 0076 7e3d
00000350: e815 0e3e c5ad e73d 34fa c7bb 1144 073e
00000360: 145f 8c3d cea4 5f3e 295c a6bc e2be 76bd
00000370: 4a53 693d 0eb4 893b 6714 243e 72a0 09be
00000380: 5f65 84be 126b 9fbd e17c c6be 19a1 8e3e
00000390: 90c3 68be ec8f 1f3e a72f 5bbd 6c4b 513d
000003a0: 9275 83bd 014b 273e b6b0 4d3e 091e 0f3e
000003b0: fbb7 8fbe da9a 00be 3675 f33d ceee 6c3e
000003c0: 5eaa 6cbb 0b6d 023e f081 a23e 04f7 abbe
000003d0: 022c 0fbb 9d20 57be 02ad 3fbe 0652 d9bd
000003e0: e6e8 9e3e fea3 febd 3ef5 07be b24d 203e
000003f0: 2cbb 333e 51e5 dc3d 4ef9 4cbd 8090 3c3e
